my_model.ckpt (torch, 613982 bytes, 7 tensors)

0.weight f4 [200, 8]
-0.17821486 -0.1928263 0.14586481 -0.070226885 -0.25646237 -0.2707342 0.060566314 0.10923858
0.33349067 0.0017308025 0.18561631 -0.34046295 -0.220141 0.11765651 -0.075418666 -0.22229381
-0.100988865 -0.029937116 0.2332767 -0.19419299 0.051932417 -0.035232827 -0.0727195 -0.34734485
0.36949816 -0.118522756 -0.02104089 0.09468667 0.2927501 0.2742731 -0.030418297 -0.22813766
0.3730538 -0.26476032 -0.10619525 0.036941536 0.20242499 0.33700937 -0.2656187 0.20920447
0.160265 -0.3947622 0.15852994 0.020958532 0.30034003 0.030775629 0.22243509 0.3396921
0.06473775 -0.11440319 0.25190642 0.106492616 0.26621288 -0.27743363 -0.16572998 -0.15764011
-0.010327875 0.18087915 0.2142664 -0.21187764 -0.2750494 -0.030272437 -0.060918715 -0.10463642
0.15446037 -0.21962164 0.18888447 -0.2622569 0.097483836 0.12977824 0.030243207 0.012842088
-0.29871878 -0.17661746 -0.09959444 -0.32692066 0.20678163 -0.15095058 -0.0022370704 -0.24365176
-0.24885504 0.017309023 -0.15640584 -0.17335095 -0.03472109 -0.25214002 0.08844174 0.30247712
-0.40960294 -0.1119321 -0.26237085 -0.31519607 0.17542759 -0.12377581 0.1543414 0.3443626
0.3657104 0.5555864 -0.0016107734 -0.3221186 0.32470924 0.18268101 0.26835707 -0.14987847
0.092967786 -0.13623862 -0.28699663 -0.12742017 -0.0024164831 -0.3422737 0.27092558 0.20623478
0.23777443 -0.08722595 0.1935627 -0.03680947 0.028928459 -0.0066091735 0.20505552 0.15356353
-0.17364919 -0.13989107 0.006212024 0.13175948 -0.14867663 -0.03692932 0.011094694 -0.12382204
-0.38271597 -0.082592174 -0.17317945 -0.12209717 0.102739386 -0.22413403 0.32267717 -0.10226803
0.19145602 0.28722426 -0.22708157 0.077535234 0.3194939 -0.30053934 -0.19610393 -0.14498621
0.28814915 -0.2132958 -0.28982428 0.06978852 -0.24300571 0.11210059 -0.21334216 -0.25104466
0.0659294 -0.07836596 0.015310218 0.28308734 0.2443552 -0.2915726 0.20229661 0.04557504
-0.35900858 -0.28159538 0.29352182 -0.32999945 0.32326815 0.09888734 -0.04058391 0.20009883
0.4185823 0.4378379 -0.1038382 -0.037960704 -0.21882832 0.14917561 0.2018997 0.0025616805
0.1166936 -0.028832583 0.011349809 0.26660782 -0.18604378 0.26541978 0.14583857 0.17032754
0.30070078 0.07068107 0.19428305 0.006080744 -0.05463239 -0.31659055 -0.17650567 0.20624648
-0.28251293 -0.04723836 0.25936997 0.30331096 0.03868508 0.024400707 -0.21196784 -0.06781637
-0.21181384 -0.34206545 -0.0443416 -0.2663414 0.08086362 0.1632301 0.10758817 -0.13233386
-0.10672387 -0.13258214 -0.18154684 -0.19426064 -0.22141223 0.25188327 -0.06479838 0.08461448
-0.19430815 0.20430304 -0.29029596 0.13861753 -0.2294546 -0.05062949 0.30290115 -0.11629553
0.2640481 -0.037290182 -0.017024755 -0.085251905 0.3488175 0.051720504 -0.3076027 -0.19067478
0.04331023 0.056829125 -0.29629484 0.09321336 0.242915 -0.3193719 -0.30286953 -0.34969974
0.24541941 0.11348502 0.15066478 -0.09517547 -0.23491852 -0.15133943 -0.30446 0.20166959
0.15774025 -0.16593422 0.16536407 0.11143193 -0.36611018 -0.131319 -0.21283905 0.28715414
00000000: f57d 36be 4274 45be 965d 153e 1dd3 8fbd
00000010: 094f 83be ac9d 8abe 6214 783d 7ab8 df3d
00000020: 4abf aa3e 18dc e23a 3412 3e3e 2951 aebe
00000030: a46c 61be e5f5 f03d 1a75 9abd fda0 63be
00000040: 40d3 cebd af3e f5bc 16e0 6e3e 87da 46be
00000050: 16b7 543d 4c50 10bd f6ed 94bd 2fd7 b1be
00000060: dd2e bd3e 0fbc f2bd f25d acbc 16eb c13d
00000070: 57e3 953e 866d 8c3e cb2f f9bc eb9c 69be
00000080: e800 bf3e aa8e 87be e57c d9bd 0250 173d
00000090: 7f48 4f3e 7e8c ac3e 2dff 87be b239 563e
000000a0: 821c 243e 451e cabe ac55 223e 3ab1 ab3c
000000b0: 2bc6 993e 2c1d fc3c 06c6 633e 1fec ad3e
000000c0: 3a95 843d 384c eabd e1f9 803e cd18 da3d
000000d0: 0e4d 883e c80b 8ebe 1fb5 29be 696c 21be
000000e0: 3f36 29bc 6238 393e a768 5b3e 74f6 58be
000000f0: 46d3 8cbe e7fd f7bc e785 79bd 9f4b d6bd
00000100: dc2a 1e3e 7fe4 60be ee6a 413e 8946 86be
00000110: 9ba5 c73d 96e4 043e 9ac0 f73c 9f67 523c
00000120: abf1 98be 35db 34be 2bf8 cbbd 2562 a7be
00000130: 90be 533e ca92 1abe d09b 12bb d97f 79be
00000140: dbd3 7ebe a7cb 8d3c da28 20be e982 31be
00000150: b437 0ebd 7f18 81be f120 b53d 48de 9a3e
00000160: 7ab7 d1be a83c e5bd 7955 86be 6161 a1be
00000170: 4aa3 333e 2c7e fdbd ac0b 1e3e 4b50 b03e
00000180: 653e bb3e e93a 0e3f 9620 d3ba bbec a4be
00000190: 4a40 a63e bb10 3b3e 1966 893e be79 19be
000001a0: e565 be3d 2382 0bbe 39f1 92be 6f7a 02be
000001b0: dc5d 1ebb 803e afbe c2b6 8a3e 362f 533e
000001c0: 247b 733e 85a3 b2bd 4d35 463e 87c5 16bd
000001d0: 60fb ec3c c491 d8bb 13fa 513e c23f 1d3e
000001e0: 18d1 31be 9b3f 0fbe 3c8e cb3b f5eb 063e
000001f0: b03e 18be 3343 17bd 85c6 353c 6996 fdbd
00000200: 59f3 c3be 1626 a9bd f455 31be 150e fabd
00000210: 0769 d23d 6483 65be f135 a53e e771 d1bd
00000220: 0c0d 443e 0f0f 933e 1288 68be cbca 9e3d
00000230: b494 a33e 4be0 99be 78cf 48be 4477 14be
00000240: 4988 933e 376a 5abe d963 94be 49ed 8e3d
00000250: 7dd6 78be fe94 e53d 5e76 5abe ed88 80be
00000260: fe05 873d 557e a0bd b5d7 7a3c d3f0 903e
00000270: 4038 7a3e 0149 95be d826 4f3e e5ac 3a3d
00000280: f9cf b7be 452d 90be 7e48 963e b0f5 a8be
00000290: 6783 a53e 7285 ca3d 503b 26bd b5e6 4c3e
000002a0: 6b50 d63e 4a2c e03e 1fa9 d4bd af7c 1bbd
000002b0: 8814 60be 7ec1 183e ccbe 4e3e dee1 273b
000002c0: 0efd ee3d 4f32 ecbc 8df4 393c d280 883e
000002d0: 4382 3ebe 1ae5 873e b556 153e 586a 2e3e
000002e0: 74f5 993e 3dc1 903d 23f2 463e fa40 c73b
000002f0: 37c6 5fbd 2818 a2be e7bd 34be 4732 533e
00000300: 89a5 90be 037d 41bd 24cc 843e 934b 9b3e
00000310: 3f74 1e3d fee3 c73c 190e 59be 4fe3 8abd
00000320: bae5 58be 3423 afbe 8a9f 35bd e65d 88be
00000330: d39b a53d cb25 273e 3057 dc3d 8782 07be
00000340: 0b92 dabd 9dc3 07be 6ae7 39be 43ec 46be
00000350: e3b9 62be d8f6 803e 03b5 84bd 5b4a ad3d
00000360: b7f8 46be d134 513e aca1 94be c1f1 0d3e
00000370: 26f6 6abe de60 4fbd dc15 9b3e 5a2c eebd
00000380: 5031 873e 97bd 18bd 8077 8bbc 8d98 aebd
00000390: 3598 b23e e1d8 533d 1a7e 9dbe 4040 43be
000003a0: 1166 313d a8c5 683d f5b3 97be a5e6 be3d
000003b0: b6be 783e b784 a3be b711 9bbe d80b b3be
000003c0: 3a4f 7b3e d66a e83d de47 1a3e 5beb c2bd
000003d0: 7b8e 70be b9f8 1abe 2ee2 9bbe 7982 4e3e
000003e0: a986 213e a9ea 29be 3355 293e 6c36 e43d
000003f0: cb72 bbbe 7d78 06be 7bf2 59be de05 933e

0.bias f4 [200]
0.1496858 -0.09914928 -0.21408723 0.019908972 -0.13759688 -0.20717162 0.23053332 0.2254746
0.3111077 0.27584067 0.3053796 0.025442133 0.3061501 0.30659637 0.12813589 0.34950736
0.13441971 0.112687185 -0.29112506 0.053478155 0.064296775 -0.032593768 -0.3788055 0.014257169
0.30417052 -0.24191856 0.24186718 -0.041941598 -0.13520898 0.31920576 0.017615065 -0.35414785
0.07133573 0.30349898 0.3302763 -0.083854355 0.13153398 0.12697294 0.0041382727 -0.086968645
-0.14405051 0.33521208 -0.25432292 0.120917864 0.30375236 0.31667063 0.05072575 0.20769158
-0.05218643 0.12466578 0.23039359 -0.13289256 0.0032029147 0.084066354 -0.18938842 0.2266979
0.12297007 0.04921163 -0.16017215 0.17479102 0.17732191 0.2528439 -0.26734334 0.12488467
-0.11647802 -0.120649196 -0.31796795 -0.12166922 0.07282381 -0.027582835 -0.35301694 -0.05387462
-0.121100284 0.2410528 0.16826986 -0.15219899 -0.14978552 0.2340905 -0.0857159 -0.28365266
0.24166189 -0.104396775 -0.064629495 -0.30360723 0.25221258 0.1550767 0.07435679 0.08539929
0.098770745 -0.27170405 -0.15378207 -0.34917605 -0.16016008 -0.17188656 0.23702975 0.23776875
0.20235097 -0.15970883 -0.20534998 -0.031217488 -0.2717582 -0.044129983 -0.10856248 -0.06461774
0.3116739 0.042684432 -0.040960677 -0.1643847 0.28272954 0.26347297 0.13349786 -0.34860414
0.06082541 0.2442793 0.17728142 -0.26473725 0.22328106 -0.31854153 0.015162105 -0.101027384
0.10878544 -0.043001134 0.08257271 -0.28129894 0.08378152 0.028826881 0.10680121 -0.09050134
-0.22407444 -0.04372654 -0.3168748 0.31887475 0.19784756 -0.22215301 0.27071738 0.017173802
0.32838747 0.31900612 -0.21970022 -0.36494362 -0.15431042 -0.25855756 -0.3683069 0.21384855
-0.2517513 0.0237865 -0.32755738 -0.0727463 -0.2270296 0.32540175 -0.14159364 -0.021490805
0.111283876 -0.27169856 0.32260394 0.1659671 -0.17546377 -0.1879743 -0.25361857 0.24799095
0.20657334 -0.15308622 -0.015713187 -0.26348352 0.21821049 0.2059173 0.17148301 -0.06709336
0.14224781 -0.026275272 -0.21021605 0.13538335 0.11413705 0.33640742 0.22725491 -0.29141393
-0.28597096 0.17817758 0.13603722 -0.32422942 0.04466457 -0.23465493 0.2238399 -0.25516704
0.19473322 0.12237774 0.0638279 -0.008068045 -0.29471463 -0.13708144 -0.19530924 -0.1825115
-0.0035323098 0.05924897 -0.06342464 -0.112077996 0.015906978 0.10779104 0.1889353 -0.32751507
00000000: 3c47 193e c70e cbbd af39 5bbe 2418 a33c
00000010: 32e6 0cbe cc24 54be ed10 6c3e d0e2 663e
00000020: 8249 9f3e fd3a 8d3e b75a 9c3e 056c d03c
00000030: b5bf 9c3e 33fa 9c3e 0e36 033e a1f2 b23e
00000040: 52a5 093e 8ac8 e63d 580e 95be e90b 5b3d
00000050: 07ae 833d 0b81 05bd cbf2 c1be e796 693c
00000060: 3dbc 9b3e 80b9 77be 08ac 773e f4ca 2bbd
00000070: 3974 0abe f06e a33e 784d 903c de52 b5be
00000080: 7818 923d 3864 9b3e fa19 a93e d5bb abbd
00000090: d8b0 063e 3205 023e 599a 873b 9e1c b2bd
000000a0: fa81 13be eba0 ab3e 9d36 82be c9a3 f73d
000000b0: 6e85 9b3e a722 a23e cec5 4f3d 1aad 543e
000000c0: 70c1 55bd c650 ff3d 4cec 6b3e fd14 08be
000000d0: fee7 513b fb2a ac3d 0aef 41be 7f23 683e
000000e0: bbd7 fb3d 2292 493d 2b04 24be 6bfc 323e
000000f0: e093 353e c174 813e 3ae1 88be 89c3 ff3d
00000100: 078c eebd ed16 f7bd b2cc a2be b62d f9bd
00000110: a624 953d 66f5 e1bc a3be b4be a2ab 5cbd
00000120: 6d03 f8bd 8cd6 763e ef4e 2c3e 0dda 1bbe
00000130: 6061 19be 6cb5 6f3e d18b afbd ec3a 91be
00000140: 3776 773e facd d5bd 785c 84bd 6872 9bbe
00000150: 0222 813e 6dcc 1e3e 5f48 983d d3e5 ae3d
00000160: 5148 ca3d cb1c 8bbe 0c79 1dbe 34c7 b2be
00000170: 0101 24be 0803 30be edb7 723e a779 733e
00000180: 1835 4f3e b68a 23be 4447 52be d1bb ffbc
00000190: e423 8bbe a4c1 34bd 0156 debd 4e56 84bd
000001a0: b993 9f3e dfd5 2e3d 62c6 27bd 7654 28be
000001b0: edc1 903e eee5 863e aab3 083e 3e7c b2be
000001c0: 1124 793d 5a24 7a3e 4389 353e a48b 87be
000001d0: caa3 643e e017 a3be 7a6a 783c 72e7 cebd
000001e0: e7ca de3d f521 30bd e21b a93d 6a06 90be
000001f0: a595 ab3d 5a26 ec3c 98ba da3d c458 b9bd
00000200: c573 65be 9a1a 33bd 6a3d a2be 8d43 a33e
00000210: 8d98 4a3e 147c 63be 789b 8a3e 13b0 8c3c
00000220: 6722 a83e c554 a33e 18f9 60be e4d9 babe
00000230: 8d03 1ebe a861 84be b992 bcbe 1dfb 5a3e
00000240: 8ce5 80be e8db c23c 9ab5 a7be 03fc 94bd
00000250: 737a 68be 0f9b a63e ecfd 10be 7c0d b0bc
00000260: cde8 e33d 131c 8bbe 582c a53e 48f3 293e
00000270: c6ac 33be 567c 40be 4bda 81be 57f1 7d3e
00000280: f687 533e a2c2 1cbe f1b8 80bc 50e7 86be
00000290: 9272 5f3e fcdb 523e 3e99 2f3e 3e68 89bd
000002a0: 69a9 113e 3d3f d7bc e042 57be efa1 0a3e
000002b0: b0c0 e93d 983d ac3e 83b5 683e 3534 95be
000002c0: c96a 92be 2f74 363e 574d 0b3e 6601 a6be
000002d0: 32f2 363d 6249 70be 4936 653e 41a5 82be
000002e0: 2568 473e 2ea1 fa3d 34b8 823d d52f 04bc
000002f0: d6e4 96be 145f 0cbe 25ff 47be 4be4 3abe
00000300: 537e 67bb 0caf 723d c7e4 81bd 2689 e5bd
00000310: 5a4f 823c 8cc1 dc3d 4178 413e 0eb0 a7be

2.weight f4 [500, 200]
-0.12161285 -0.027955635 -0.043405633 -0.020008989 -0.04542913 -0.009500056 0.057793766 -0.03142105
-0.019049684 0.0047853114 -0.07404226 -0.012570156 0.05366222 -0.0072015664 -0.068669036 -0.02934155
-0.11270277 0.06909745 0.014231955 -0.07337187 0.008254255 -0.12983249 0.0052818465 0.005941218
-0.060065534 -0.04942034 0.03939461 -0.01805018 0.06739176 0.023588521 0.057350677 -0.06768688
-0.065937385 -0.05686009 0.07025621 -0.07146453 0.025288036 -0.06866953 -0.05810799 -0.07778791
-0.06562954 0.042620692 0.020322882 0.002005745 0.018601816 -0.014675954 -0.043243803 0.031001933
0.05380834 -0.016516559 0.0024994984 0.028277896 -0.11555744 0.054426268 -0.07171953 -0.04482912
0.03768574 -0.026586175 -0.027121766 -0.014679217 -0.073866986 -0.01980549 -0.02893264 -0.05427556
0.033747736 -0.025519846 0.005126836 0.05017734 -0.01903275 0.036065854 0.0057957363 -0.014344322
0.029907195 -0.035699323 -0.022908553 0.019607771 -0.023929823 0.058449555 -0.05109433 -0.02878952
-0.043301072 0.04198323 0.068916395 -0.041436862 0.03480007 0.028951487 0.006813576 0.018220328
-0.07925377 -0.076154746 0.009997976 -0.030256338 0.05559989 0.043450452 -0.0601773 -0.00191747
-0.008251966 -0.027629925 0.051766608 -0.06226864 0.041907508 -0.00404619 -0.06647091 -0.048737068
0.04227001 0.011258225 -0.017384294 0.012603061 0.06297589 0.023603648 -0.012950647 0.015327028
0.037648536 0.027082909 -0.0046232617 0.023450112 -0.06031243 -0.06381552 -0.020555278 0.015407203
0.05852978 0.040557317 -0.06807679 -0.0146676265 -0.013208674 0.033015743 0.04598637 -0.012779422
0.0048397817 -0.011678612 0.010283696 -0.050054483 -0.019930787 0.008087177 0.016356796 0.04852922
-0.02909155 0.04295325 0.0036539792 0.052607384 0.051598933 -0.05534645 0.0069353674 -0.14374076
0.017766237 0.023053896 -0.019710843 -0.12401663 0.07025882 0.027496323 -0.048132934 -0.041402157
-0.035456747 0.028636705 0.044133138 -0.012718712 -0.06898296 -0.04913885 0.0013794833 0.058351092
0.008422526 -0.1745946 -0.04308449 -0.0106821675 -0.05720628 -0.023664508 -0.070686035 0.055223923
0.02091942 0.035878796 -0.005658769 0.01611382 0.053450823 0.014532988 -0.05627594 0.02493531
0.003092719 0.012317216 -0.0372741 -0.018124683 0.04373182 -0.073576 0.014977877 0.044643924
-0.039153904 0.040999796 0.061524127 0.021530777 0.012804025 -0.014618298 0.025127582 0.008839684
-0.07700242 0.024671849 0.022535566 0.0271527 -0.060634885 -0.07953361 -0.011523319 -0.014689866
-0.08738297 0.043719728 -0.06579517 -0.052530166 0.000987059 -0.019222923 0.062497675 0.047306158
-0.07796042 -0.06815942 -0.07378733 -0.08780383 -0.0073680114 -0.054595534 0.030944753 0.01783944
-0.07397963 0.004109478 0.029553944 -0.07086334 -0.049576577 -0.037853014 -0.048171513 0.067235045
0.028186027 0.0119089885 0.06191705 -0.0682275 0.038275503 0.008236456 0.04396692 -0.047566622
0.038923316 -0.02555184 -0.061582398 0.03453298 0.06622412 0.04153996 -0.044128172 -0.008370571
-0.05970817 -0.042580888 -0.06628183 -0.06820243 -0.036988176 0.0043105693 -0.054982144 0.008563953
0.029893888 0.027879965 0.05012613 0.06122318 -0.032465223 -0.04861717 -0.07969202 -0.020198423
00000000: 2810 f9bd 3703 e5bc 1bca 31bd e4e9 a3bc
00000010: e513 3abd 1fa6 1bbc 28b9 6c3d 5cb3 00bd
00000020: 150e 9cbc 1ace 9c3b 78a3 97bd 0ef3 4dbc
00000030: eacc 5b3d 1efb ebbb 5aa2 8cbd b15d f0bc
00000040: b6d0 e6bd f782 8d3d 252d 693c fe43 96bd
00000050: db3c 073c cff2 04be 5713 ad3b 8dae c23b
00000060: 4707 76bd fc6c 4abd 3e5c 213d f9dd 93bc
00000070: b104 8a3d b73c c13c 8be8 6a3d 6b9f 8abd
00000080: 2e0a 87bd 20e6 68bd 7de2 8f3d ff5b 92bd
00000090: db28 cf3c 9ca2 8cbd a502 6ebd 454f 9fbd
000000a0: c868 86bd 0993 2e3d 2c7c a63c d172 033b
000000b0: d662 983c 6a73 70bc 6a20 31bd c4f7 fd3c
000000c0: 2266 5c3d bc4d 87bc a0ce 233b 0ca7 e73c
000000d0: 61a9 ecbd 14ee 5e3d b0e1 92bd bd9e 37bd
000000e0: 5d5c 1a3d 40cb d9bc 772e debc 1981 70bc
000000f0: 9347 97bd 1f3f a2bc 2504 edbc 0d50 5ebd
00000100: 113b 0a3d ff0e d1bc 04ff a73b c186 4d3d
00000110: 92ea 9bbc cab9 133d 29ea bd3b 7204 6bbc
00000120: efff f43c 7439 12bd b8aa bbbc 7aa0 a03c
00000130: 7a08 c4bc cd68 6f3d 4a48 51bd 00d8 ebbc
00000140: 775c 31bd 9bf6 2b3d 0a24 8d3d b3b9 29bd
00000150: 858a 0e3d ab2b ed3c 6b44 df3b cc42 953c
00000160: cd4f a2bd 05f7 9bbd 8dce 233c 24dc f7bc
00000170: b6bc 633d 1af9 313d 797c 76bd 9e53 fbba
00000180: 4133 07bc 2758 e2bc 3909 543d 670d 7fbd
00000190: 35a7 2b3d e795 84bb e721 88bd 85a0 47bd
000001a0: 5123 2d3d 6b74 383c 8269 8ebc 127d 4e3c
000001b0: 81f9 803d 705c c13c f32e 54bc 371e 7b3c
000001c0: 5a35 1a3d fadc dd3c bb7e 97bb 731a c03c
000001d0: 2b0a 77bd b6b1 82bd 8b63 a8bc 7e6e 7c3c
000001e0: ecbc 6f3d 6e1f 263d d86b 8bbd 7c50 70bc
000001f0: 3269 58bc 843b 073d 345c 3c3d c860 51bc
00000200: 0897 9e3b a657 3fbc f37c 283c ee05 4dbd
00000210: e445 a3bc 1480 043c b0fe 853c 93c6 463d
00000220: 6751 eebc bfef 2f3d 9977 6f3b d77a 573d
00000230: 6759 533d f6b2 62bd 1442 e33b c730 13be
00000240: 808a 913c 86db bc3c a278 a1bc 6efc fdbd
00000250: dbe3 8f3d f83f e13c 0a27 45bd 4f95 29bd
00000260: 183b 11bd 8697 ea3c f3c4 343d 2562 50bc
00000270: f046 8dbd d245 49bd c7cf b43a 8e01 6f3d
00000280: a2fe 093c edc8 32be 5d79 30bd 4204 2fbc
00000290: 2251 6abd 12dc c1bc d7c3 90bd 7b32 623d
000002a0: 345f ab3c a5f5 123d 326d b9bb 2101 843c
000002b0: 40ef 5a3d c51b 6e3c 9a81 66bd 2345 cc3c
000002c0: 37af 4a3b 26ce 493c baac 18bd 377a 94bc
000002d0: 2320 333d 04af 96bd c565 753c 8cdc 363d
000002e0: d85f 20bd 67ef 273d b900 7c3d 5061 b03c
000002f0: f9c7 513c 9681 6fbc 5cd8 cd3c 52d4 103c
00000300: 72b3 9dbd 9e1c ca3c 829c b83c 576f de3c
00000310: 495c 78bd 84e2 a2bd 4ecc 3cbc c4ad 70bc
00000320: d8f5 b2bd 7513 333d 9ebf 86bd df29 57bd
00000330: 3460 813a 6479 9dbc 90fd 7f3d 1ac4 413d
00000340: b6a9 9fbd 2a97 8bbd d01d 97bd 7fd2 b3bd
00000350: 5c6f f1bb 919f 5fbd da7f fd3c 0424 923c
00000360: a282 97bd cda8 863b 1d1b f23c cc20 91bd
00000370: cf10 4bbd c30b 1bbd 7e4f 45bd 87b2 893d
00000380: 62e6 e63c eb1d 433c bc9c 7d3d dcba 8bbd
00000390: c6c6 1c3d 33f2 063c a816 343d 38d5 42bd
000003a0: 0e6e 1f3d 1852 d1bc d33d 7cbd 7472 0d3d
000003b0: 83a0 873d ce25 2a3d bebf 34bd b824 09bc
000003c0: 8e90 74bd 4c69 2ebd c5be 87bd b7ad 8bbd
000003d0: ea80 17bd ad3f 8d3b f534 61bd d34f 0c3c
000003e0: 07e4 f43c 8664 e43c 0f51 4d3d 28c5 7a3d
000003f0: 41fa 04bd cc22 47bd 9235 a3bd 2a77 a5bc

2.bias f4 [500]
0.058069568 -0.062081035 0.03208724 -0.03134445 0.027505387 0.017190564 -0.043142553 0.059911817
0.0123233935 -0.053344317 -0.0456195 0.0422031 -0.059805937 0.018616265 0.037820604 -0.059779685
-0.0040635634 -0.06447757 -0.046030715 0.001639871 0.023794957 -0.07259481 0.023229271 -0.0061678104
0.06526411 -0.009864108 0.048734013 -0.016579736 0.029051011 0.011901318 0.0630026 -0.05600667
0.02996586 -0.06287278 -0.04262562 -0.076935396 0.037509616 -0.059512917 0.012698442 -0.0018313517
0.053718597 0.05778283 -0.06762488 -0.05671909 0.0063138413 -0.014382588 0.044008538 -0.02202442
0.06417266 -0.016603073 0.05510453 0.028386628 -0.048733737 0.008073812 -0.031308305 -0.0025274646
-0.02353379 -0.012253572 0.00925123 0.047850143 0.048381068 -0.03296188 -0.030925041 0.040738933
-0.06061741 -0.0626835 -0.061331045 0.022751804 -0.029725062 0.010605877 0.028926935 -0.027943943
0.017820071 0.03313008 -0.07150844 0.052167475 -0.026795594 0.058129635 -0.011364614 0.0642606
-0.045390215 -0.028109653 0.029333087 -0.07689658 0.05052292 -0.03328773 0.03487605 -0.0054433923
0.0024142812 -0.06351364 0.0056573357 0.02074907 -0.025158063 -0.010583471 0.059846167 0.008524268
0.0130619155 -0.017899279 -0.05239291 -0.0352218 0.014263969 -0.0024442892 0.0075186947 -0.031042706
-0.019240122 0.0063105132 -0.043055803 -0.04678527 0.025545824 -0.013613384 -0.04025613 -0.028574746
-0.072205536 -0.06639621 0.020553485 0.03851299 0.014699667 -0.04977803 0.022585196 0.007075123
0.02857276 -0.037628684 0.031513542 0.059479844 -0.016127825 -0.024055278 0.018428843 -8.6688866e-05
-0.029955126 0.056843728 0.003150165 -0.0062553263 -0.056106813 0.034773044 -0.0491795 0.035358056
-0.0029774143 0.014950772 0.0032605561 0.05819245 0.056133226 0.0024369946 -0.05624916 -0.057190564
-0.06895108 -0.058256526 0.03423366 0.037840914 -0.0066293622 -0.05856614 0.014600082 -0.024641046
-0.0591496 -0.013665223 0.03147596 -0.0149173215 -0.04719896 -0.046306774 -0.018777577 -0.040578008
-0.044567917 0.062159896 -0.04633232 -0.040722523 -0.057846427 0.043376345 0.009498769 -0.06982533
-0.08501947 -0.035369813 0.024606572 0.037328724 0.04391925 -0.025940409 -0.049918644 -0.036340233
-0.055563077 0.009843479 0.045528803 0.0018793071 0.0188931 -0.045263812 0.03328493 0.034517065
0.044342633 0.038788997 -0.06601061 0.036013357 -0.014831392 -0.04787009 -0.03527819 -0.033224322
0.042983882 0.039491523 -0.0006739959 0.046723466 0.062610544 -0.018182615 -0.06280655 0.05237422
0.010530251 -0.05582553 -0.01278781 -0.034658566 0.025952555 0.056514814 -0.06773465 -0.040228426
-0.03935219 -0.069336824 -0.025335321 0.027686156 -0.008634701 -0.022895753 -0.043692984 -0.0028296167
0.0343267 -0.05318446 0.03840762 0.025381634 0.030559173 -0.002230394 -0.068639636 0.049709808
0.056503728 -0.03223774 0.06259452 0.04989478 0.06488115 0.052270524 -0.020632265 -0.015099556
-0.06586649 -0.02447418 -0.03584722 -0.060598504 -0.03809254 0.031092048 -0.047030795 -0.030213248
-0.025170192 -0.0044709095 0.040635023 0.013084253 -0.053776227 0.040864177 0.018237714 0.013195589
-0.02444146 0.041254573 0.016714713 -0.032859612 -0.007405463 0.027819943 0.023992399 0.0031581142
00000000: 5bda 6d3d af48 7ebd e96d 033d 0a63 00bd
00000010: fa52 e13c 3ad3 8c3c 3fb6 30bd 1866 753d
00000020: 0fe8 493c 927f 5abd 83db 3abd 28dd 2c3d
00000030: 12f7 74bd 2381 983c c7e9 1a3d 8bdb 74bd
00000040: a427 85bb d10c 84bd b48a 3cbd f1f0 d63a
00000050: a4ed c23c 96ac 94bd 504b be3c 581b cabb
00000060: 31a9 853d 119d 21bc 519d 473d 3ad2 87bc
00000070: 63fc ed3c bffd 423c 8207 813d 4067 65bd
00000080: f77a f53c 72c3 80bd 3498 2ebd 4e90 9dbd
00000090: afa3 193d d1c3 73bd 200d 503c f709 f0ba
000000a0: 0808 5c3d b0ad 6c3d ea7e 8abd 4752 68bd
000000b0: 57e4 ce3b f2a4 6bbc 4c42 343d 8e6c b4bc
000000c0: f56c 833d 2b03 88bc 4ab5 613d 138b e83c
000000d0: 079d 47bd 0648 043c 233d 00bd d2a3 25bb
000000e0: efc9 c0bc 35c3 48bc 7992 173c 83fe 433d
000000f0: 3a2b 463d 0903 07bd 8356 fdbc dedd 263d
00000100: f649 78bd 3560 80bd 4336 7bbd fe61 ba3c
00000110: f981 f3bc 46c4 2d3c 2ef8 ec3c b2ea e4bc
00000120: 66fb 913c 68b3 073d 0473 92bd 90ad 553d
00000130: 6f82 dbbc 5719 6e3d a532 3abc 109b 833d
00000140: 17eb 39bd 3746 e6bc f14b f03c f47b 9dbd
00000150: 1ff1 4e3d b758 08bd 30da 0e3d 7c5e b2bb
00000160: eb38 1e3b 7013 82bd 2c61 b93b f4f9 a93c
00000170: 4818 cebc 4b66 2dbc 4121 753d 5fa9 0b3c
00000180: a501 563c 82a1 92bc f399 56bd bc44 10bd
00000190: 6cb3 693c 5e30 20bb 625f f63b 464d febc
000001a0: 769d 9dbc 6cc8 ce3b 485b 30bd e9a1 3fbd
000001b0: 7a45 d13c ac0a 5fbc 9de3 24bd 9615 eabc
000001c0: 7fe0 93bd bcfa 87bd c85f a83c ccbf 1d3d
000001d0: dfd6 703c 0ce4 4bbd 9704 b93c 6fd6 e73b
000001e0: 6c11 ea3c 8920 1abd 5814 013d 23a1 733d
000001f0: 801e 84bc 930f c5bc 16f8 963c bbcc b5b8
00000200: 7464 f5bc f8d4 683d 0073 4e3b 7bf9 ccbb
00000210: 42d0 65bd 2e6e 0e3d 7270 49bd 9cd3 103d
00000220: b920 43bb 15f4 743c 0eaf 553b 355b 6e3d
00000230: f4eb 653d fcb5 1f3b 8565 66bd a740 6abd
00000240: 3936 8dbd 659e 6ebd 9838 0c3d 13ff 1a3d
00000250: 1f3b d9bb 0ce3 6fbd 2f35 6f3c 05dc c9bc
00000260: da46 72bd 19e4 5fbc f0ec 003d c867 74bc
00000270: b253 41bd 2cac 3dbd 6fd3 99bc 2035 26bd
00000280: d98c 36bd 609b 7e3d f5c6 3dbd a9cc 26bd
00000290: 60f0 6cbd 65ab 313d baa0 1b3c 9500 8fbd
000002a0: b01e aebd f0df 10bd b993 c93c 01e6 183d
000002b0: ace4 333d fb80 d4bc 7e77 4cbd 7fd9 14bd
000002c0: 1c96 63bd 8b46 213c 697c 3a3d 1553 f63a
000002d0: b4c5 9a3c 8c66 39bd c755 083d c461 0d3d
000002e0: 9fa0 353d 36e1 1e3d 9230 87bd be82 133d
000002f0: 5eff 72bc 6d13 44bd dd7f 10bd 3a16 08bd
00000300: de0f 303d ddc1 213d 19af 30ba 1b61 3f3d
00000310: f539 803d b5f3 94bc b8a0 80bd 5a86 563d
00000320: 1387 2c3c 50a9 64bd f683 51bc 24f6 0dbd
00000330: 749a d43c 147c 673d 77b8 8abd 90c6 24bd
00000340: c32f 21bd 7700 8ebd 058c cfbc 14ce e23c
00000350: 9078 0dbc e08f bbbc 6af7 32bd 1771 39bb
00000360: 279a 0c3d f3d7 59bd 4f51 1d3d 25ed cf3c
00000370: 3b57 fa3c cd2b 12bb f092 8cbd 839c 4b3d
00000380: 7470 673d b80b 04bd 8e31 803d 785e 4c3d
00000390: 69e0 843d 9e19 563d ff04 a9bc 2164 77bc
000003a0: 03e5 86bd 137e c8bc 89d4 12bd 2336 78bd
000003b0: ec06 1cbd c0b4 fe3c 5da3 40bd c681 f7bc
000003c0: b831 cebc b580 92bb e970 263d 565f 563c
000003d0: 7644 5cbd 3261 273d 4267 953c 5032 583c
000003e0: 7539 c8bc 8efa 283d 4bed 883c cd97 06bd
000003f0: 87a9 f2bb a6e6 e33c b58b c43c 5df8 4e3b

4.weight f4 [100, 500]
0.03310579 0.036255296 0.039088733 0.042488933 -0.043256823 -0.008493719 0.03638068 0.025196709
-0.013040375 -0.010702808 -0.0002113395 0.022283688 0.036390755 0.0045946906 -0.021449834 -0.028894266
-0.027731301 -0.029885337 -0.009420639 -0.011006906 0.034045007 0.023990542 -0.026609516 -0.017710896
0.036615305 0.027602313 0.00056687737 -0.016294984 -0.009418645 0.043910034 -0.038056154 0.03145095
-0.002781677 -0.013243808 -0.03463699 0.01581848 0.02328082 -0.014191008 0.02244033 0.035862744
-0.032405272 0.042810883 -0.04353795 -0.0337275 0.016439762 0.007792655 -0.04383948 -0.028427662
-0.013532941 -0.0018923794 -0.024485048 -0.040023938 -0.026583876 0.0044064354 0.011255708 0.04173716
-0.026294803 0.021229388 -0.011485796 0.023969835 -0.00792762 0.022412602 -0.0017899136 -0.026023082
-0.037444867 0.034640614 0.029074205 -0.026970267 -0.03174428 0.001287224 0.032653417 -0.007840715
-0.019917263 -0.0073920046 -0.0023486663 -0.011265549 0.027920527 -0.0322505 -0.0036601312 -0.018220043
0.020827912 0.038047284 -0.013881537 -0.020644402 -0.01259682 -0.02700583 -0.014350422 0.031157041
-0.012380884 -0.015460698 -0.04075927 0.040309012 -0.024417326 0.031450383 -0.03053053 0.018638685
0.011421667 0.000848642 -0.01691158 -0.04397741 -0.012237214 -0.044388562 -0.0077212434 0.011180714
0.028967725 -0.028477142 -0.02599229 0.02817218 0.041576818 -0.042858142 -0.02190216 0.03468031
-0.03623076 -0.0047645164 0.039259065 0.024229918 -0.0155226365 0.021892536 0.044556037 -0.040440455
0.040787768 0.0028722861 -0.021324204 0.040927764 -0.015739994 -0.039877057 -0.043972544 0.025040245
-0.023973364 0.016411113 -0.0027396725 0.004333297 0.008112111 -0.041213494 0.0070168795 -0.001329687
0.035991043 -0.03563727 0.026844786 0.00468884 0.03339742 0.010420293 0.0009639559 -0.031685133
0.0099883 0.009433386 -0.04122916 -0.041178457 -0.037336286 -0.029341334 -0.021572014 -0.0044060783
0.015008634 0.003031993 -0.042012114 -0.015576748 0.006591871 -0.04020968 0.0052491226 -0.02054603
-0.03100926 0.025446285 0.032571804 0.016287014 0.033842403 0.009733799 0.033451274 -0.0033844495
-0.043436322 0.01806683 -0.028458536 -0.041849416 0.012668422 0.0014991926 0.016010655 0.038745083
-0.028386565 -0.031381335 0.035042793 0.04266926 0.041276105 -0.025957946 0.036862444 -0.025067652
0.034024492 0.019606844 -0.033960927 -0.036943063 0.019431958 -0.009242369 0.0024429378 -0.04355873
-0.016225139 -0.036048807 -0.03880962 -0.016917162 0.0126802735 0.03619448 -0.006904786 -0.019422539
0.00094246585 -0.040518507 -0.04033032 0.03512137 0.026424676 0.023443047 0.0063450416 0.030849291
-0.012011283 0.026892763 -0.027425151 -0.037511386 0.01688446 -0.005148011 0.01979776 -0.012993445
0.035203952 0.028725933 0.027656345 -0.026273916 0.014468855 0.0061767143 0.005252172 0.010929155
0.036314502 -0.015914256 0.0117547875 0.02902858 -0.032174625 -0.036131915 0.02112663 0.03652078
-0.037306186 0.012365035 -0.006715363 -0.029119994 -0.004978383 -0.011037379 -0.019149043 0.005143815
0.018725915 0.031340994 -0.018485622 0.0070547843 0.0003740691 -0.01604349 -0.037214868 -0.020274447
-0.02104431 -0.021373171 -0.036521744 -0.020240776 -0.02279383 -0.029793404 0.018538876 -0.02896508
00000000: f099 073d 6f80 143d 821b 203d e008 2e3d
00000010: 112e 31bd 3d29 0bbc e803 153d 5469 ce3c
00000020: 4ca7 55bc d55a 2fbc 049b 5db9 488c b63c
00000030: 790e 153d 0f8f 963b 90b7 afbc abb3 ecbc
00000040: c12c e3bc 18d2 f4bc 0659 1abc 4f56 34bc
00000050: c772 0b3d d087 c43c 33fc d9bc 7116 91bc
00000060: eef9 153d 3f1e e23c 7f9a 143a 0f7d 85bc
00000070: a950 1abc 02db 333d c5e0 1bbd b6d2 003d
00000080: cc4c 36bb 8ffc 58bc 84df 0dbd c295 813c
00000090: 6bb7 be3c 6781 68bc c8d4 b73c d0e4 123d
000000a0: 64bb 04bd 775a 2f3d d954 32bd d925 0abd
000000b0: aeac 863c 8759 ff3b 0791 33bd 21e1 e8bc
000000c0: 45b9 5dbc b709 f8ba de94 c8bc 24f0 23bd
000000d0: 6ec6 d9bc dc63 903b dc69 383c 96f4 2a3d
000000e0: 3368 d7bc 41e9 ad3c ec2e 3cbc 635c c43c
000000f0: d9e2 01bc a29a b73c 899b eaba 5c2e d5bc
00000100: ca5f 19bd 51e3 0d3d 072d ee3c c0f0 dcbc
00000110: 4a06 02bd 12b8 a83a 97bf 053d 5876 00bc
00000120: 8729 a3bc a138 f2bb 15ec 19bb 2393 38bc
00000130: 97b9 e43c 1a19 04bd d0de 6fbb 3342 95bc
00000140: 4c9f aa3c 78d7 1b3d 636f 63bc 731e a9bc
00000150: e462 4ebc 553b ddbc 081e 6bbc 0d3d ff3c
00000160: 31d9 4abc de4e 7dbc 31f3 26bd 101b 253d
00000170: d806 c8bc 1ed2 003d 291b fabc 28b0 983c
00000180: f221 3b3c 6777 5e3a 278a 8abc a821 34bd
00000190: 987e 48bc c8d0 35bd 7c02 fdbb 502f 373c
000001a0: b94d ed3c e548 e9bc c8ed d4bc 58c9 e63c
000001b0: 744c 2a3d 058c 2fbd 296c b3bc f10c 0e3d
000001c0: b566 14bd a91f 9cbb 1dce 203d d27d c63c
000001d0: a852 7ebc fa57 b33c 6480 363d e4a4 25bd
000001e0: 1311 273d f73c 3c3b 19b0 aebc dfa3 273d
000001f0: 29f1 80bc 2056 23bd 8e1c 34bd 3321 cd3c
00000200: ca63 c4bc 9970 863c 148c 33bb 54fe 8d3b
00000210: a9e8 043c 7bcf 28bd daed e53b e448 aeba
00000220: 586b 133d 63f8 11bd 99e9 db3c d7a4 993b
00000230: bccb 083d e0b9 2a3c fcb1 7c3a 45c8 01bd
00000240: f7a5 233c 7d8e 1a3c e8df 28bd beaa 28bd
00000250: efed 18bd 3d5d f0bc cbb7 b0bc dd60 90bb
00000260: c6e6 753c 67b4 463b e514 2cbd 9e35 7fbc
00000270: 9f00 d83b e8b2 24bd d500 ac3b 2650 a8bc
00000280: 2207 febc ba74 d03c 036a 053d 586c 853c
00000290: 559e 0a3d 837a 1f3c 3404 093d a4cd 5dbb
000002a0: 49ea 31bd e300 943c e021 e9bc 4b6a 2bbd
000002b0: 378f 4f3c 8e80 c43a c728 833c 2ab3 1e3d
000002c0: f18a e8bc b789 00bd 0889 0f3d f6c5 2e3d
000002d0: 2211 293d c2a5 d4bc 13fd 163d ad5a cdbc
000002e0: 445d 0b3d 889e a03c 9d1a 0bbd 9c51 17bd
000002f0: c52f 9f3c 4e6d 17bc b219 203b a46a 32bd
00000300: 95ea 84bc eaa7 13bd d6f6 1ebd dc95 8abc
00000310: ecc0 4f3c aa40 143d 8b41 e2bb 041c 9fbc
00000320: d00f 773a bcf6 25bd 6831 25bd 6ddb 0f3d
00000330: 9078 d83c a20b c03c 11ea cf3b a7b7 fc3c
00000340: f9ca 44bc 364e dc3c b6aa e0bc 8aa5 19bd
00000350: 4751 8a3c a5b0 a8bb e92e a23c 75e2 54bc
00000360: 0532 103d a652 eb3c 8f8f e23c 653c d7bc
00000370: c70e 6d3c 0966 ca3b 691a ac3b 3310 333c
00000380: 84be 143d 9d5e 82bc 2797 403c 58cd ed3c
00000390: 8ac9 03bd 0fff 13bd c111 ad3c d096 153d
000003a0: 5fce 18bd b796 4a3c 8c0c dcbb 0e8d eebc
000003b0: b421 a3bb 1fd6 34bc 74de 9cbc 738d a83b
000003c0: 1767 993c 6a5f 003d 296f 97bc d22b e73b
000003d0: b41e c439 a36d 83bc 9e6e 18bd 9916 a6bc
000003e0: 1e65 acbc ca16 afbc d397 15bd fccf a5bc
000003f0: 20ba babc 4c11 f4bc d7de 973c 2d48 edbc

4.bias f4 [100]
0.03189077 -0.0479605 -0.038389884 0.019332595 -0.037291214 -0.010264263 -0.0017562333 -0.031101272
0.036557958 -0.04959195 -0.029431596 0.015612901 -0.00132386 -0.046736225 -0.04605414 -0.020803086
-0.03735232 0.003503104 0.049917534 -0.009375866 -0.019757822 -0.017866444 0.016071744 -0.038591053
0.0018739227 -0.04448058 -0.0150698135 -0.017727962 -0.043393917 0.045979835 0.019771745 -0.03473961
-0.003153036 0.024130806 -0.051021636 -0.015720244 -0.029776862 0.011332034 -0.06475804 -0.021380875
-0.0020445506 0.010903901 0.025454186 0.008391626 0.02760916 0.0063156234 -0.01374687 -0.017870272
-0.0050409962 -0.03532742 -0.03530507 -0.008798021 0.0025250267 -0.036421664 0.017824035 -0.0063162786
0.0033922147 -0.041655138 -0.018468175 0.017573323 -0.016284715 0.037083156 0.0046129697 -0.021634575
-0.013547721 0.023384485 0.005621001 0.033092458 0.015974998 0.024120359 0.02757022 -0.014845982
-0.029838078 -0.015965888 0.009112569 -0.027150234 0.034086253 0.03710462 -0.016400075 -0.026985567
0.012002279 0.035261493 -0.015715191 -0.029131338 0.04838414 -0.025922922 -0.017345909 0.03900366
0.024057671 0.00029241663 0.035859853 -0.013314503 -0.009309398 -0.011715687 0.010119362 0.01148531
-0.023018748 -0.017407207 0.030887391 0.017741332
00000000: e59f 023d 3b72 44bd b63e 1dbd 645f 9e3c
00000010: acbe 18bd 702b 28bc 6931 e6ba 18c8 febc
00000020: ccbd 153d ee20 4bbd 881a f1bc 41cd 7f3c
00000030: 5f85 adba 7c6e 3fbd 44a3 3cbd 3c6b aabc
00000040: bffe 18bd 5594 653b 5476 4c3d 3b9d 19bc
00000050: 28db a1bc a65c 92bc e4a8 833c a711 1ebd
00000060: 699e f53a 4531 36bd 61e7 76bc 3b3a 91bc
00000070: d2bd 31bd 5a55 3c3d 5bf8 a13c 1f4b 0ebd
00000080: 2ba3 4ebb f8ad c53c 10fc 50bd bec7 80bc
00000090: 9bee f3bc ffa9 393c dd9f 84bd f226 afbc
000000a0: defd 05bb 47a6 323c 4c85 d03c 087d 093c
000000b0: 9b2c e23c 4af3 ce3b 8d3a 61bc ad64 92bc
000000c0: f12e a5bb 7cb3 10bd 0d9c 10bd 9325 10bc
000000d0: eb7a 253b e22e 15bd b603 923c c9f8 cebb
000000e0: eb4f 5e3b 949e 2abd 924a 97bc eef5 8f3c
000000f0: 8667 85bc 82e4 173d 6528 973b fe3a b1bc
00000100: 43f7 5dbc d290 bf3c 6030 b83b f58b 073d
00000110: 00de 823c 0f98 c53c f1da e13c 903c 73bc
00000120: fc6e f4bc e5ca 82bc e24c 153c 2b6a debc
00000130: 079e 0b3d 04fb 173d 7359 86bc d610 ddbc
00000140: 35a5 443c 5b6e 103d 25bd 80bc d8a4 eebc
00000150: 732e 463d 4f5c d4bc 0219 8ebc 4dc2 1f3d
00000160: 9814 c53c 7f4f 9939 c8e1 123d 1325 5abc
00000170: 7286 18bc 27f3 3fbc aecb 253c e22c 3c3c
00000180: d091 bcbc 8f99 8ebc 8e07 fd3c 4556 913c

6.weight f4 [3, 100]
-0.0032525181 0.027348926 -0.07987223 0.053141236 0.03760614 0.034990124 -0.044809088 -0.03185574
-0.008554066 -0.04413966 -0.07816493 0.0032343334 0.0855775 0.043585695 0.100874364 -0.02502085
-0.07334849 -0.120122 0.09957143 -0.040404253 0.07449017 0.01845985 0.07984274 0.06703211
-0.07145203 0.015240981 -0.05259114 -0.09337131 0.028130317 -0.08406622 -0.0020897964 0.08740705
-0.019546766 0.056604076 0.078741364 0.07231039 0.067966044 0.06385762 -0.04478512 0.07329416
-0.075168535 0.082809746 -0.06584579 -0.04678495 0.064518526 -0.07095322 0.050069194 -0.080278195
-0.04892619 0.09078739 0.034898944 -0.035904083 -0.04920634 0.03391016 -0.039338954 -0.0070894253
-0.036138486 0.052362293 0.030199451 -0.037001695 -0.06949907 -0.04296974 -0.03455268 -0.025060823
-0.05011103 -0.011419348 0.03595546 0.026229018 0.006465614 -0.052523587 -0.055263076 -0.04044164
0.07856634 0.09301636 0.035967156 0.0034552503 -0.05385624 0.10433767 0.026923988 -0.0028416598
0.008290328 -0.09320929 0.012100221 -0.013178718 -0.07296345 0.056316644 -0.08900881 -0.088643886
0.109161265 -0.027514052 -0.017753912 0.013189521 -0.06909696 -0.047541488 0.038302936 -0.020042127
-0.03092509 -0.01736769 0.096279286 0.03637375 -0.03501017 0.034784425 -0.024751337 0.019956594
-0.0180301 0.06409449 -0.05650519 -0.064103805 0.048693683 0.042617157 0.048282795 -0.001915679
0.005056524 0.016515946 0.08251616 0.081281535 -0.038772754 0.011567644 -0.05558576 0.08135694
-0.0633856 0.0629152 -0.048621457 -0.025924679 0.05048423 -0.05274766 0.02317516 -0.08492879
0.0252541 -0.07538612 0.07514404 -0.041860633 -0.04667801 0.03681582 -0.0030087389 -0.024142541
0.08083017 -0.05541641 -0.07141255 0.0005972746 -0.021678634 0.010023053 -0.08132737 0.056843616
-0.022963261 -0.061131157 0.05591929 -0.09647515 0.07929074 -0.04306062 -0.0039582253 -0.07350999
0.024077673 0.0510229 0.044643253 0.017614912 -0.02733744 -0.065306395 0.090066575 -0.08910337
-0.049390256 0.022856832 0.028683664 0.08870772 0.08348307 -0.092259556 -0.07133663 -0.046318583
-0.061612904 -0.055802163 -0.058838334 0.03967495 -0.05164079 0.05266259 0.050092347 0.07016711
-0.0029578912 0.07748001 0.08576111 0.028356818 -0.062469624 -0.04346357 0.10015114 0.08207808
-0.03535904 0.06557759 -0.07366875 -0.07990529 0.09658111 -0.040732328 0.094257236 -0.036109053
-0.0648426 0.01953526 0.09495141 0.020125808 0.074248955 -0.07616356 0.01948893 -0.04191618
0.06835846 -0.03961233 0.02059157 -0.16043322 -0.043130707 -0.023801522 -0.1289787 -0.044832088
-0.08305893 -0.030265361 0.03474469 0.044603642 -0.051051714 -0.08166472 0.041078415 -0.004727317
-0.042221416 0.007268869 -0.02977922 0.026285367 -0.01856861 -0.102533035 0.020080483 0.007735789
0.07479333 -0.007893658 -0.10100914 -0.03533547 0.053306706 0.04466731 -0.009449172 -0.096930705
0.033703174 0.069701195 0.044242013 0.08010725 0.009079719 -0.03208542 -0.04263697 0.0564525
0.043608524 -0.09258167 0.0405424 0.026842583 -0.10896208 0.083468735 0.0021846138 -0.047738023
-0.06602543 0.0728124 -0.09529016 0.0818974 -0.09726937 0.0882771 0.0018633008 -0.041634064
00000000: 3328 55bb db0a e03c 0d94 a3bd a0aa 593d
00000010: e508 1a3d ce51 0f3d bc89 37bd 2a7b 02bd
00000020: 5a26 0cbc cacb 34bd ef14 a0bd 1cf7 533b
00000030: 4243 af3d ea86 323d 3897 ce3d 87f8 ccbc
00000040: bc37 96bd 8602 f6bd 1bec cb3d ee7e 25bd
00000050: 4d8e 983d 1d39 973c 9784 a33d 2248 893d
00000060: 7155 92bd 4fb5 793c cf69 57bd 7539 bfbd
00000070: 8d71 e63c e92a acbd f7f4 08bb 7802 b33d
00000080: 8a20 a0bc add9 673d 2743 a13d 7817 943d
00000090: c831 8b3d c9c7 823d 9a70 37bd 401b 963d
000000a0: f6f1 99bd 2898 a93d 28da 86bd 93a1 3fbd
000000b0: 4a22 843d ec4f 91bd 5b15 4d3d e568 a4bd
000000c0: d466 48bd bdee b93d 32f2 0e3d 2910 13bd
000000d0: 968c 49bd 61e5 0a3d e221 21bd 694e e8bb
000000e0: f305 14bd d879 563d d764 f73c 178f 17bd
000000f0: 8755 8ebd 0a01 30bd 1c87 0dbd 5b4c cdbc
00000100: 3941 4dbd 3818 3bbc 0846 133d 3dde d63c
00000110: 80dd d33b f922 57bd 895b 62bd 22a6 25bd
00000120: 64e7 a03d 5d7f be3d 4c52 133d 7b71 623b
00000130: 5c98 5cbd fdae d53d b28f dc3c 243b 3abb
00000140: 28d4 073c 83e4 bebd 0140 463c 8deb 57bc
00000150: dc6d 95bd 48ac 663d 404a b6bd ed8a b5bd
00000160: f18f df3d 2665 e1bc a770 91bc dc18 583c
00000170: b582 8dbd ddba 42bd 8ae3 1c3d 632f a4bc
00000180: 9d56 fdbc b046 8ebc 132e c53d a4fc 143d
00000190: d366 0fbd 1d7a 0e3d 51c3 cabc 037c a33c
000001a0: dcb3 93bc f943 833d fc71 67bd db48 83bd
000001b0: 0773 473d 548f 2e3d 2ec4 453d 8517 fbba
000001c0: 33b1 a53b 734c 873c 3cfe a83d ef76 a63d
000001d0: 2ed0 1ebd 3786 3d3c e5ad 63bd 789e a63d
000001e0: 4fd0 81bd afd9 803d 4b27 47bd fe5f d4bc
000001f0: 8dc8 4e3d ee0d 58bd d5d9 bd3c 25ef adbd
00000200: b0e1 ce3c 0a64 9abd 1ee5 993d 0e76 2bbd
00000210: 7131 3fbd 2fcc 163d 432e 45bb 94c6 c5bc
00000220: 4a8a a53d 51fc 62bd be40 92bd 6b92 1c3a
00000230: 6497 b1bc bb37 243c f78e a6bd dad4 683d
00000240: 731d bcbc aa64 7abd a00b 653d c394 c5bd
00000250: 2f63 a23d 5560 30bd 00b4 81bb 688c 96bd
00000260: 8a3e c53c 63fd 503d d8db 363d 264d 903c
00000270: c4f2 dfbc 5cbf 85bd d374 b83d d47b b6bd
00000280: 704d 4abd 403e bb3c 01fa ea3c 65ac b53d
00000290: 2cf9 aa3d 94f2 bcbd f018 92bd 8eb8 3dbd
000002a0: d05d 7cbd cf90 64bd 7700 71bd 3382 223d
000002b0: 4b85 53bd bab4 573d a22d 4d3d c6b3 8f3d
000002c0: 2ed9 41bb d7ad 9e3d 85a3 af3d 8f4c e83c
000002d0: 26e0 7fbd db06 32bd 0a1c cd3d 8d18 a83d
000002e0: a4d4 10bd 8b4d 863d a4df 96bd 62a5 a3bd
000002f0: 51cc c53d f1d6 26bd f009 c13d 16e7 13bd
00000300: 32cc 84bd 6908 a03c e375 c23d e1de a43c
00000310: d60f 983d a4fb 9bbd 40a7 9f3c 4db0 2bbd
00000320: 85ff 8b3d 8a40 22bd a7af a83c 9b48 24be
00000330: d3a9 30bd 69fb c2bc fe12 04be daa1 37bd
00000340: cd1a aabd 10ef f7bc 7350 0e3d 4fb2 363d
00000350: 9a1b 51bd d53f a7bd d741 283d 9ce7 9abb
00000360: 5df0 2cbd b12f ee3b 8df3 f3bc 6954 d73c
00000370: 331d 98bc d7fc d1bd d37f a43c 807c fd3b
00000380: 3f2d 993d 6754 01bc e1dd cebd edbb 10bd
00000390: 2258 5a3d 12f5 363d b3d0 1abc 9b83 c6bd
000003a0: 570c 0a3d 80bf 8e3d 1d37 353d 450f a43d
000003b0: 1ac3 143c 006c 03bd 1aa4 2ebd bd3a 673d
000003c0: da9e 323d 759b bdbd ca0f 263d fae4 db3c
000003d0: 8327 dfbd a8f1 aa3d bd2b 0f3b f288 43bd
000003e0: 5738 87bd ab1e 953d 7d27 c3bd d3b9 a73d
000003f0: 2a35 c7bd a0ca b43d 003a f43a 7b88 2abd
