my_model.ckpt (torch, 613982 bytes, 7 tensors)

0.weight f4 [200, 8]
000000 dc 9e 5e 3d a1 5b b6 3e a8 8d 64 3e 53 cd 77 bd
       0.05435072 0.35616782 0.22319663 -0.060498547
000010 7c 18 1e be f0 67 af 3e 8e 79 86 be 4b d0 18 3d
       -0.15439028 0.34258986 -0.26264614 0.03730802
000020 d7 f9 d6 3d cb f0 b6 bd 13 7f c2 be c8 8f 77 3e
       0.10496872 -0.08932646 -0.37987575 0.24175942
000030 85 97 ea bb 79 65 06 bd ee ea 27 be 9e 8f 1c bd
       -0.007159176 -0.032811616 -0.16398212 -0.0382229
000040 93 f6 9b 3e f6 d2 0c 40 ff 09 12 bd 3c 72 9a 3e
       0.3046156 2.200376 -0.035654064 0.3016528
000050 dc 49 32 be 21 66 d7 3d 16 8e b5 be 25 89 3c 3e
       -0.17410988 0.105175264 -0.35459965 0.18411691
000060 a5 a3 8f 3c e6 3f c7 3f 43 60 37 3e d9 2b dd 3d
       0.017534086 1.5566375 0.17907815 0.10799379
000070 46 14 b8 bc 61 e2 14 be fc 60 7f be 88 db f1 3d
       -0.022470605 -0.14539482 -0.2493934 0.118094504
000080 47 f0 5e 3e 98 f6 87 3e 83 e7 bf 3d 34 f1 a0 be
       0.21771346 0.26555324 0.09370329 -0.31434023
000090 3f 05 6e 3e 93 ac 5e 3e ce c8 9b bc f8 82 02 be
       0.23244189 0.2174552 -0.01901665 -0.12745273
0000a0 10 2d 05 3e 5b c8 19 3e e9 8f bf bc 1c 39 6d be
       0.13005471 0.15017836 -0.023384051 -0.23166317
0000b0 37 b7 91 be e3 ac 20 3e c4 29 46 3e 0d 26 62 be
       -0.28460094 0.15690951 0.1935187 -0.22084828
0000c0 20 49 66 bd 69 e1 2a bf 59 8d 5a 3d 67 74 c7 3c
       -0.05622208 -0.667502 0.053357456 0.024347497
0000d0 b0 2f 58 3e d2 d6 94 3e 55 10 b4 3d 80 a0 97 3d
       0.21111941 0.29070145 0.087921776 0.0740366
0000e0 d3 d2 7a bd 32 c6 df bd 43 61 b5 bc 3e 04 b1 bd
       -0.061236214 -0.10926475 -0.022141105 -0.08643387
0000f0 47 f8 a3 be 50 57 a2 3e e0 05 42 be dd 5d 60 3e
       -0.32025358 0.3170724 -0.18947554 0.21910806
000100 7d c1 8e be c3 77 e1 3e aa ba de bd 2a a2 59 3e
       -0.27881995 0.44036683 -0.10875447 0.21253267
000110 88 a5 46 3e 90 e0 3b bd e5 5e 9f 3d 54 24 42 be
       0.19399083 -0.045868456 0.077817716 -0.1895917
000120 5d 4f 96 3e 5f 13 fe bd 98 09 58 be e4 4c 2a bd
       0.29357424 -0.124060385 -0.2109741 -0.041577235
000130 c0 be 6a 3e 60 fb 9c be 06 b2 74 be 6b e8 84 be
       0.22924328 -0.30660534 -0.23896036 -0.2595857
000140 19 0f c9 3d f3 1f 83 bc 3a 37 97 be fb cf 17 3e
       0.09817333 -0.016006446 -0.29534322 0.14825432
000150 74 91 87 be 92 6e 51 3e ab e5 6d be c6 4f 86 3b
       -0.2647816 0.20452335 -0.23232143 0.004098865
000160 d1 c4 00 bf 1f 6e 89 be 81 0f be 3d 07 03 49 3e
       -0.5030032 -0.26841828 0.09280301 0.19630061
000170 90 0a bf be 49 e0 93 bd 97 95 6b bd be 42 84 be
       -0.37312746 -0.072205134 -0.057515707 -0.2583217
000180 42 56 a5 3e 40 0e eb bf 22 0d ce 3d d7 c4 1a 3e
       0.32292372 -1.8363724 0.10061099 0.15114151
000190 fe 45 86 3e 6b bf d0 3c 08 b7 c5 be 3a e3 86 3e
       0.26225275 0.0254819 -0.38616204 0.26345235
0001a0 92 9e e4 bd 4f 44 1e 3f 23 6e 1a 3e 69 fd 90 be
       -0.111630574 0.6182298 0.15081076 -0.28318337
0001b0 4c c9 4d 3d 6e 21 68 3e c7 88 1f 3e 1c 81 50 3a
       0.0502408 0.22669002 0.1557952 0.0007953809
0001c0 d3 7b ac bd 38 8e 81 bf ba 8b 74 be b0 4a 28 3e
       -0.08422055 -1.0121527 -0.23881426 0.16434741
0001d0 44 49 a8 be 35 d7 97 3d 94 ee 7c 3d 1b 7e 57 bd
       -0.32868397 0.07414094 0.061750963 -0.052610498
0001e0 a6 6e 2e be 07 77 dc bf 1b 2b 36 be 54 d6 be 3d
       -0.17034397 -1.7223824 -0.17789881 0.093182236
0001f0 ee 28 ad bd fd 7f 3d be 46 59 8c bd a0 fe 49 3e
       -0.08455072 -0.18505855 -0.06852965 0.19726038
000200 20 f5 9b be 43 50 20 bf 5a d4 a4 be f7 a1 4e 3e
       -0.30460453 -0.6262247 -0.3219326 0.20178972
000210 28 4f a7 3d b3 5e 1b 3e 69 61 50 3e c7 95 f4 bd
       0.08169395 0.15172844 0.20349659 -0.1194263
000220 0b 18 99 be 45 08 b6 bf 98 e2 b5 3d bc be 05 be
       -0.29901156 -1.4221274 0.0888111 -0.1306104
000230 63 81 fc bd f7 f6 55 bc 0e c5 2d 3e 86 d4 ea bc
       -0.12329366 -0.013059369 0.16969702 -0.028665792
000240 fd e7 08 bf 52 5b 8e 3c 18 66 2d be 94 84 13 be
       -0.53478986 0.01737753 -0.16933477 -0.14406043
000250 4b 99 48 3d 48 f1 94 be d3 62 60 3d 18 c5 72 3e
       0.048974317 -0.29090333 0.054781746 0.23707998
000260 58 3f 84 3e a4 f7 32 bf 1c ac 8b 3e a7 2c 40 be
       0.25829577 -0.6990912 0.27279747 -0.18767034
000270 1f f5 98 3e de 22 b2 3e a9 21 48 be 81 4f 5c 3e
       0.29874513 0.34792227 -0.1954409 0.21514703
000280 98 0e 67 3e 99 86 01 be 43 ca d1 be 5d d1 4e 3e
       0.22564161 -0.12649001 -0.40974626 0.20197053
000290 b7 fa f3 ba d7 6d be 3d 39 7b 32 be 7a 19 24 3e
       -0.0018614148 0.09298294 -0.17429818 0.16025344
0002a0 66 60 56 be 55 18 e5 3e e5 a0 0d be ee 14 a0 3d
       -0.2093521 0.44745126 -0.13830908 0.07816492
0002b0 de 10 ed bd f2 5f b5 3d 7c 34 89 3d c7 7d c6 bd
       -0.11575483 0.08856191 0.06699464 -0.09691959
0002c0 88 6e 6e be 53 98 a0 bf 72 a7 76 be 48 00 7f 3e
       -0.23284352 -1.2546486 -0.24087313 0.24902451
0002d0 82 5a f5 bc 34 d7 63 bd 2d 8d 29 3d 5f bc a6 3d
       -0.029950384 -0.055625156 0.0413944 0.08141398
0002e0 be 14 38 3e a5 f4 06 3b c9 f0 54 be a9 21 0a be
       0.17976663 0.0020592597 -0.20794977 -0.13489403
0002f0 47 a5 a5 be 3c b8 8c be 3c 0e e3 3d 57 59 d9 be
       -0.3235266 -0.2748431 0.11086699 -0.42450973
000300 15 c9 aa be 4a 50 63 3f bb 09 87 3e cf 4f 81 3e
       -0.33356538 0.88794386 0.2637461 0.25256202
000310 9a d6 a4 3e 54 d6 fb bd 5c 13 e4 bd 11 3a 09 be
       0.32194978 -0.12296739 -0.11136505 -0.13401057
000320 2c 39 6b bd 22 ab 73 3f a9 f6 15 3e 5d 92 84 bd
       -0.05742757 0.95183 0.14644875 -0.06473229
000330 ef aa 0a be 10 c9 61 3e 8b 4b 8e 3c 85 b7 67 3b
       -0.13541768 0.22049356 0.017370006 0.003535719
000340 bc 31 8b be 4b 86 d7 bf bb 7c cc 3d 11 95 63 3d
       -0.27186382 -1.6837858 0.09984728 0.055562083
000350 c3 b0 90 3e a8 a3 a5 3e 5f 4b 68 bd db 64 57 be
       0.28259858 0.32351422 -0.056712504 -0.21034567
000360 ca 98 db bd 97 6a c3 3f cc 4f 8c 3d c8 8a a2 bd
       -0.107225016 1.5266904 0.068511575 -0.07936627
000370 42 37 26 be 13 44 99 3e be f2 e1 bc ed cc 05 3e
       -0.16232017 0.2993475 -0.027581569 0.13066454
000380 af c9 ab be 18 ca 3a bd f4 58 37 3d bd 21 7d 3c
       -0.3355231 -0.045602888 0.044762567 0.015449938
000390 8a d6 ad be 28 9d a7 3e 76 cd e7 bb 19 bc 4b be
       -0.33952743 0.32737088 -0.0070740534 -0.19895972
0003a0 ca f9 e6 bd d6 eb d6 bf f1 72 8f 3d 43 99 8f 3e
       -0.11278112 -1.6790721 0.07004345 0.28046617
0003b0 34 41 9b 3e a8 f0 85 be 93 59 90 be e5 54 20 3e
       0.30323184 -0.2616017 -0.2819334 0.15657385
0003c0 36 94 da bd f2 93 80 3e f8 0f 43 be 65 aa 38 be
       -0.106728 0.25112873 -0.1904906 -0.1803375
0003d0 6f 1d db bd 99 aa 33 be 03 7a a6 bd 75 16 23 bd
       -0.106989734 -0.17545547 -0.08128741 -0.03981634
0003e0 a9 70 a7 be 9f 37 e0 3f 53 42 3b 3e 39 de a2 bc
       -0.3270314 1.7516974 0.1828702 -0.019881355
0003f0 a5 c3 98 3e 2a 49 93 be 62 e1 59 3e 94 93 93 be
       0.29836765 -0.28766757 0.21277383 -0.2882353

0.bias f4 [200]
000000 ac c0 2c 3d ab c1 ab 3d b9 d4 89 3b af a9 a5 be
       0.042175934 0.083865486 0.0042062667 -0.3235602
000010 65 35 c6 3d bc 46 ce bd 03 78 94 3d e8 3b 90 be
       0.09678153 -0.10072085 0.07249453 -0.28170705
000020 d6 48 df be 2f e6 68 be 5a 12 09 be 3c c1 bd be
       -0.43610257 -0.22744058 -0.13385907 -0.3706149
000030 3a 67 44 be 51 c3 44 be a6 56 50 3e f8 f4 19 3e
       -0.19180003 -0.19215132 0.20345554 0.15034854
000040 1c 77 ea bd db 4f 4f be 92 38 a3 be 0b 12 84 3e
       -0.114484996 -0.20245306 -0.31879097 0.25795016
000050 61 5a d9 bd fd 7b f1 be 6b 73 98 3d 4b f0 ab bd
       -0.106129415 -0.47164908 0.07443889 -0.083954416
000060 27 92 d5 be aa 6d 92 be 97 5f d9 3d ff 50 46 3e
       -0.41713068 -0.28599292 0.106139354 0.19366835
000070 07 22 42 3d 42 a4 de bd b2 22 04 be df 37 96 3e
       0.047395732 -0.108711734 -0.1290386 0.293395
000080 fe 23 6f bd 93 03 66 3e c7 fe 59 bc 46 f2 5a 3e
       -0.058383934 0.22462301 -0.013305373 0.21381482
000090 21 21 13 3e dd c7 91 3d 00 09 0b 3e de eb f4 bc
       0.14368106 0.07118199 0.13577652 -0.029897626
0000a0 50 c2 8d bd de e9 fd bd 10 99 ba be c0 c7 7f 3e
       -0.06921828 -0.12398122 -0.36444902 0.24978542
0000b0 75 09 af be fb 6e af be bd 3c b3 be 70 c4 c4 be
       -0.34186903 -0.3426436 -0.35007277 -0.3843112
0000c0 2d 83 38 bd 26 8e 98 3d 89 52 bb 3b 4d 13 3b bd
       -0.045046974 0.07448988 0.005716626 -0.045672704
0000d0 33 1a 86 bd be 46 ec 3d 80 de ad be 1f 59 36 3e
       -0.06547966 0.115369305 -0.33958817 0.17807434
0000e0 5f e4 36 3e 34 5f 57 3e 40 3a 60 be ca f2 3b be
       0.17860554 0.21032411 -0.2189722 -0.18354335
0000f0 6a 2e 8b be 7c 46 94 bd 06 55 89 be c8 d9 b3 3d
       -0.2718385 -0.07240006 -0.2682268 0.08781773
000100 a6 bf 26 3e c8 f8 65 be 87 3c 4d 3d 9f 1d bf 3d
       0.16284046 -0.22458184 0.05010655 0.09331822
000110 56 17 38 bd 34 a9 b0 3c 8d 20 8e be 4f ee 58 3d
       -0.04494413 0.021565057 -0.2775921 0.052961644
000120 a1 cc 14 be 63 66 6e 3e 0d 46 c5 be 57 40 c3 bd
       -0.14531185 0.23281245 -0.38530007 -0.09533756
000130 15 3a 61 be 2b 76 14 bb d3 ed 10 be 9e 67 6a 3e
       -0.21994813 -0.0022653441 -0.14153223 0.2289109
000140 eb e3 90 be 57 e3 45 be 8a 38 ed bd d2 c3 e6 be
       -0.28298888 -0.19325005 -0.115830496 -0.45071274
000150 50 09 97 be f4 5d 18 be b5 97 ae be cf ba b0 3d
       -0.29499292 -0.1487959 -0.34100118 0.08629381
000160 52 4f 8b 3d 80 92 9e bd 0e 6f 63 3e b4 e3 08 3e
       0.068022385 -0.077427864 0.22210333 0.13368112
000170 2d 5b 85 3e 1e af 8c 3c 11 8d 1c be 78 7e 8f be
       0.26046124 0.017173346 -0.15288188 -0.28026175
000180 89 98 32 3e 3e 8a 5a 3d e2 db e4 bd ee 6b d5 bc
       0.17441 0.053354494 -0.11174752 -0.026052441
000190 5d b1 37 be 6e ba 9a 3e 80 f1 ac be ef 58 85 be
       -0.17938752 0.3022036 -0.33778 -0.26044413
0001a0 d2 e5 28 3e aa 21 fa bd b9 3a e4 3d 35 67 92 bd
       0.1649392 -0.12213452 0.11144013 -0.071485914
0001b0 26 b1 98 3e ed 93 4d 3e 2e 2f a8 3e 10 97 7d 3d
       0.29822654 0.2007596 0.32848495 0.061911643
0001c0 89 d9 bd be 3f 04 6d 3e ef a5 34 be 17 59 67 be
       -0.3708003 0.23146151 -0.17641424 -0.22592579
0001d0 49 51 85 3e 99 07 a8 be 94 72 49 3e 14 8d b7 be
       0.26038578 -0.32818297 0.19672614 -0.35849822
0001e0 2c a2 b5 bd 6d 2d ce 3d f3 91 b1 3d 92 80 9d 3e
       -0.088688225 0.10067258 0.08670416 0.30762154
0001f0 5f 0f 9e be 9b da 02 be af 1a a3 3e 45 5a b0 3e
       -0.30871102 -0.12778704 0.31856295 0.3444387
000200 30 be b7 bc c2 ca 62 be 7b a4 e9 bc 16 86 67 3e
       -0.022429556 -0.22147658 -0.028520813 0.22609743
000210 8f 80 61 3e fe d8 7a bd 00 51 b9 bd 6d e9 6c be
       0.22021697 -0.061242096 -0.09048653 -0.2313592
000220 1a 33 86 be e4 93 91 bd 7c d4 08 3e 58 2d 0b 3e
       -0.26210862 -0.07108286 0.13362306 0.13591516
000230 52 99 e4 bd 52 5b 6d be df 99 0b bd 99 8d a0 bd
       -0.11162056 -0.23179367 -0.03408229 -0.078395076
000240 10 21 47 3c b2 69 1f be c9 92 8b be da ed 74 be
       0.012153879 -0.15567663 -0.27260426 -0.23918858
000250 d2 b5 12 3d 55 98 07 3e bf 42 97 be e1 db af 3e
       0.03581793 0.13241704 -0.2954311 0.34347442
000260 5e c6 8c 3e bc 0a b4 3e e2 8d 51 3e e3 80 e3 be
       0.27495092 0.3516444 0.2046428 -0.4443427
000270 94 20 55 be 66 c9 a0 3d 4a 7e 41 3d d8 cb 44 3e
       -0.20813209 0.07850914 0.04723958 0.19218385
000280 1e dd d1 bd 98 fe 08 be 7d 93 78 3e 66 d7 8d 3e
       -0.10247253 -0.1337837 0.24275012 0.27703398
000290 42 85 60 3e 2f 9d 0c 3e 59 51 09 be 91 6b a3 be
       0.21925834 0.13731836 -0.13409938 -0.31918004
0002a0 54 34 ec bd 0a b8 b6 bd 48 7a 8d bd 11 b1 2a 3e
       -0.11533418 -0.089218214 -0.06908089 0.16669108
0002b0 f3 39 8d be 84 7e 44 3e b8 fe 8c be 35 e0 a2 bd
       -0.27583274 0.19188887 -0.27538085 -0.0795292
0002c0 9c 99 91 be 97 35 2a be 14 ff bf bd 57 ee 83 3e
       -0.28437507 -0.16622005 -0.09374824 0.25767776
0002d0 1e 3c d6 be 88 89 3e be 62 b8 03 be 44 7d 29 3e
       -0.4184274 -0.18607152 -0.12863305 0.16551691
0002e0 1e 7b 88 be ab 7d a7 be 43 87 99 be ec 9e 9e bd
       -0.2665643 -0.32713065 -0.2998601 -0.07745156
0002f0 df a0 35 3e 3f 62 61 be b1 25 ec bd 3e 3f 52 3e
       0.17737149 -0.22010134 -0.115306266 0.20531937
000300 f3 e4 d8 be a1 0b 3e be d5 9c 67 be b3 93 7a 3e
       -0.42362174 -0.18559124 -0.2261842 0.24470405
000310 86 aa 4d 3e 6e e1 a2 be b7 eb f6 3c 80 c0 55 be
       0.20084581 -0.31812614 0.030141694 -0.20874214

2.weight f4 [500, 200]
000000 d4 8a 0f 3d d4 30 57 3d a0 47 5f bd 42 48 8c bd
       0.035044506 0.0525368 -0.054511666 -0.068497196
000010 79 8f 4b bc 65 0f da 3b 3e 2b f7 bb 66 a7 83 3c
       -0.012424343 0.006654667 -0.0075429967 0.016071033
000020 fb 0b e7 3c d8 0e e9 ba cc 34 0b bd 63 07 72 3c
       0.028203955 -0.0017780913 -0.033985898 0.014772269
000030 63 16 52 bd 84 95 1a 3d a3 48 64 bd 14 d5 21 bd
       -0.05129088 0.037740245 -0.055733334 -0.039509848
000040 47 cd 90 3d 46 6c d1 3c 35 48 15 3d a7 15 51 bd
       0.070704035 0.025564324 0.036445815 -0.05104604
000050 46 44 cd 3c 49 f3 9d 3c a9 d6 f9 b8 1d 13 1d 3d
       0.02505697 0.019281046 -0.00011913229 0.038348306
000060 a4 10 0f 3d 09 51 2c 3c f3 40 59 bd d0 e7 46 3d
       0.03492798 0.010517367 -0.053040456 0.048560917
000070 b5 8a 8a 3d c0 5f 99 3c d0 af 85 bc 7e 04 9f bb
       0.067647375 0.018722415 -0.016319185 -0.0048528304
000080 1b 62 9e bc 79 1c 48 bd b2 54 ac bc 8b 17 f2 3c
       -0.01933389 -0.04885528 -0.02103648 0.029552242
000090 fb f9 e3 3c 4c 7d 27 bd 0e 71 71 39 59 34 06 bd
       0.02782916 -0.040890977 0.00023025667 -0.032764766
0000a0 3b 88 03 bd c3 f2 88 bc 63 04 ea bc f3 64 78 3d
       -0.03211234 -0.01671732 -0.028566545 0.060643148
0000b0 0f 34 90 bd 7a 0d 71 3d 7d e3 6b bd 22 95 7d bd
       -0.070411794 0.058850743 -0.057589997 -0.061909802
0000c0 9a 9a 21 3d 7d 84 4c bd 46 21 80 bd ec 13 5a 3b
       0.03945408 -0.04993104 -0.062563464 0.0033276035
0000d0 a6 8c 09 bc f8 89 14 bd da bd b6 3c d6 40 57 bc
       -0.00839535 -0.03626439 0.022307325 -0.013138017
0000e0 74 81 0b 3d 06 af 5a 3c a1 8c c9 bc 0f ac 42 3d
       0.034059003 0.013347393 -0.02460319 0.04752737
0000f0 46 7b 26 bd 1d a0 fc bc a0 85 0f bd 4b e1 03 bd
       -0.040644906 -0.030838067 -0.035039544 -0.032197278
000100 f1 74 35 3d 51 2a 51 bd 50 56 79 bd 61 45 33 bd
       0.044300977 -0.051065747 -0.06087333 -0.043767337
000110 f2 33 81 3d af 38 88 3d f4 d7 b7 bc 53 3c 83 3c
       0.06308736 0.066514365 -0.022441842 0.016019976
000120 2b 61 ff bc 04 39 68 b9 f1 5d 88 bd 41 f3 42 3d
       -0.031174263 -0.00022146484 -0.06658543 0.047595266
000130 67 1d 7f bd 79 65 13 bd cf 84 51 3c 0d 04 69 3d
       -0.0622839 -0.035985444 0.012788012 0.05688863
000140 9f 52 5c 3c 03 a9 fd bc 02 f6 d2 3c d4 8e 0a bd
       0.013447433 -0.03096438 0.025752071 -0.033827618
000150 b2 10 b8 bc 6c ef 8d bd 33 fa 11 3d a2 bb 89 bd
       -0.022468898 -0.06930432 0.035639 -0.06725241
000160 4e 46 2d bd 5e de 6e 3d 3c eb 80 3d 4e 4f 5f 3d
       -0.042303376 0.058317535 0.062948674 0.05451899
000170 31 14 89 3d 48 c0 63 3c 0a e6 03 bd 70 86 c4 3b
       0.06693304 0.013900824 -0.032201804 0.0059974715
000180 68 7b e7 bc 2e ea 56 bc c1 a7 16 3d 0e 7e 54 3d
       -0.028257087 -0.013117356 0.036781076 0.051878028
000190 60 b7 9d 3b 9f 6e 55 3d 5a 61 ae 3a 39 68 09 bd
       0.00481312 0.05210745 0.001330416 -0.03354666
0001a0 ee e7 f2 bc 55 95 b8 3c 95 3a 8d 3d 3d ba 52 bd
       -0.029651608 0.022532145 0.06895939 -0.051447142
0001b0 04 fd 3f 3d 54 bd 44 bd 44 85 d5 3c 13 ea 60 3d
       0.046872154 -0.04803212 0.026064523 0.05491073
0001c0 52 da 0d 3d 1a 3a 75 3d 82 fd ed 3c 73 81 e7 3c
       0.034632035 0.059869863 0.029051546 0.028259968
0001d0 43 7f ae 3c 9a 3f 30 bd 0a 23 2c bc 0c cc 3f bc
       0.021300917 -0.043029405 -0.010506401 -0.011706363
0001e0 32 11 9e 3c 9c 30 66 3d e1 b7 10 3d 0a 89 aa bc
       0.019295309 0.0561987 0.03533161 -0.020817298
0001f0 ae 14 82 3d 52 3b ca bc 1f 6f 9a 3b 1b 8f f3 3c
       0.063516006 -0.02468649 0.0047129537 0.029731324
000200 ca e1 64 bd 22 9a 4d 3c 6a 8b 97 3c 93 f1 83 bb
       -0.05587939 0.012548955 0.018499095 -0.0040266006
000210 2b a9 17 bd a8 0d 01 bc 27 10 32 bd 70 00 11 3d
       -0.037026566 -0.007876791 -0.043472435 0.035400808
000220 64 0f e2 bb c8 bf 32 3c 4f 8d 86 3d b3 42 cb 3c
       -0.0068988074 0.010909982 0.06569921 0.024812078
000230 cd d3 92 3c 98 e8 89 bd 73 ea 2e bd 82 e9 85 bd
       0.01792326 -0.06733817 -0.042704057 -0.06538679
000240 03 60 33 3d 92 65 53 3d a8 56 6c bd 4b 85 4b 3d
       0.043792736 0.051610537 -0.05769983 0.049687665
000250 7c fd df bb 3f 13 87 bd d9 17 82 bc 72 0e 89 3c
       -0.0068356376 -0.06595468 -0.015880512 0.01673052
000260 fa 1a 77 3c df 5b ec 3c 67 96 c0 3c 06 15 66 3d
       0.015082115 0.028852401 0.023509217 0.056172393
000270 f5 71 4f bd 8f a2 7d 3d 21 a2 66 3d 83 0b 60 3d
       -0.050645787 0.061922606 0.056306962 0.05469848
000280 68 9e 8b bd e4 68 41 3b e2 5b 6a 3d 84 09 fc 3c
       -0.06817323 0.0029511983 0.057216533 0.030766256
000290 26 71 3f bc 5d 71 9e bc eb 8c 57 3b be 9e c6 3c
       -0.0116846915 -0.019341165 0.003289039 0.024245616
0002a0 4a 91 6a 3d 28 6c 7e 3d ea df ba bc 62 d7 9c bc
       0.057267465 0.062114865 -0.022811849 -0.019145671
0002b0 61 52 8d bd ab 5d c8 3c ab 97 eb bc 41 1d 68 bd
       -0.06900478 0.024458727 -0.028758844 -0.056668524
0002c0 cb 7c 1b 3d 18 5d 33 3d ad a7 16 3d d4 52 88 bd
       0.03796081 0.043789953 0.036781 -0.06656423
0002d0 07 e2 03 bd ef 92 5c 3d 81 2c 19 3d 40 51 82 bd
       -0.03219798 0.053851064 0.037395958 -0.063631535
0002e0 b1 45 84 bd 9e 05 3d 3c aa 08 2c bc 75 60 9b 3a
       -0.06458605 0.011536984 -0.010500113 0.0011854308
0002f0 94 2b 82 bd 8f 21 1b bc 08 5c 2d bd a3 d9 c5 bb
       -0.06355968 -0.00946845 -0.042324096 -0.006037907
000300 e8 d5 e6 3c 2f 61 40 bd f7 2d 33 3d 9a 04 66 bc
       0.02817817 -0.04696768 0.043745007 -0.014039183
000310 10 fb 7f 3d 81 00 58 3d ba 70 de ba 4e 7d 68 bd
       0.06249529 0.052734856 -0.0016970851 -0.056760125
000320 95 c2 e0 bc 93 00 83 bc 7f 94 f9 3c c2 19 c5 bd
       -0.027436534 -0.015991485 0.030466316 -0.096240535
000330 a2 7b dc 3c c0 7f 77 bd 8c 71 ef 3c 86 90 50 3d
       0.026914421 -0.060424566 0.029228948 0.05091908
000340 58 c8 9d bd b6 d0 af 3c d8 c0 11 bd 9b 7d 26 3c
       -0.07704228 0.021461826 -0.0355843 0.010161783
000350 2b dc 1e bd 68 9d 3b bd 17 60 91 bd 2b 4c cd 3c
       -0.038784187 -0.04580441 -0.07098406 0.025060734
000360 28 52 32 bd 42 91 5d bd 9b ab cc bd 57 83 a4 bd
       -0.04353538 -0.054093607 -0.09993669 -0.080328636
000370 ef 32 b0 bd f5 cb b3 3c bf d2 65 bd 8d d6 9c bc
       -0.08603465 0.02194784 -0.056109186 -0.019145275
000380 07 c8 a2 bd 59 1e ed bc 9f 65 c0 bd 4f 33 36 bc
       -0.079483084 -0.028945135 -0.09394383 -0.011120631
000390 e3 42 d3 bc b4 e9 95 bd 5f 71 67 3d 79 73 90 bb
       -0.02578873 -0.07319966 0.056504603 -0.0044082967
0003a0 42 3f 4f bd d7 06 43 3d 4d cd b5 bd 3c 1f e0 bc
       -0.050597437 0.047613945 -0.08877049 -0.027358644
0003b0 33 23 23 3d 02 49 36 bd b1 22 57 3c b9 52 ab bd
       0.03982849 -0.04450322 0.01313083 -0.083653875
0003c0 3a 73 a1 bd a8 d8 c6 bd 98 61 ab bd ab 00 8f 3d
       -0.07883306 -0.09709293 -0.08368224 0.06982549
0003d0 e1 c3 9b bd df c0 51 bd a0 c0 4c 3d cc 01 98 3c
       -0.0760572 -0.051209327 0.04998839 0.018555544
0003e0 f5 49 33 3d e3 50 60 3d 7e bf d8 3b 42 1c a9 3c
       0.043771703 0.05476464 0.0066146245 0.020643357
0003f0 b5 57 02 3d 3f 13 e0 3c 93 3d 15 3d 70 6b 60 bb
       0.031821925 0.027352927 0.036435675 -0.0034243725

2.bias f4 [500]
000000 a2 1f 8a 3d 46 8e a5 bd 96 23 08 bd 8c c8 db 36
       0.06744315 -0.08083777 -0.033237062 6.5500553e-06
000010 a2 01 33 bd 05 48 82 bc e8 8a 86 3c 9d 38 0e bd
       -0.04370273 -0.015903482 0.016423658 -0.03472196
000020 1a ed 24 bd 4f 93 30 bd fc 84 a6 3c 1f 0f 96 bd
       -0.04026518 -0.043109234 0.020327084 -0.07327103
000030 e4 f7 e5 bd b0 bc a9 bd 9c f3 39 bd 01 ca aa 3c
       -0.11228922 -0.082879424 -0.04539834 0.020848276
000040 e8 e7 6a bd 45 fe 03 3b d3 c1 48 bd bb 09 66 bd
       -0.05735007 0.002014057 -0.04901297 -0.056161623
000050 38 8a e7 bc 8d 99 9d bc 4a 4f f5 ba 5a 49 84 bd
       -0.02826415 -0.019238258 -0.0018715647 -0.06459303
000060 21 5a 86 bd 04 dd 0b bd 90 fa 09 3c 93 37 f0 bc
       -0.065601595 -0.034146324 0.008421555 -0.029323375
000070 82 4c 0f 3d ed 77 c9 3c 48 b6 9a bd 2a 48 a1 bd
       0.034985073 0.024593318 -0.07554299 -0.07875092
000080 82 e8 bf bc a8 ee e6 b9 2a c8 04 3d 31 ab 39 3d
       -0.023426298 -0.0004404683 0.032417454 0.045329276
000090 32 04 9c bd 62 fc b7 bd 87 84 27 bd e3 c3 a7 bc
       -0.07617988 -0.08983685 -0.040897872 -0.020479148
0000a0 ff cc 75 bd 73 f0 99 bd 01 bf a0 bd cf 05 31 bb
       -0.060009953 -0.07516565 -0.07848931 -0.0027011519
0000b0 09 88 1a 3d 15 62 e2 3c 5b 93 b1 3c 73 8e 27 bd
       0.03772739 0.02763466 0.02167671 -0.040907335
0000c0 9b fc 5e bb 71 fb 9c bd a0 72 58 bc 83 0c 7f 3c
       -0.0034025076 -0.07665146 -0.0132109225 0.015566948
0000d0 0e cf 0f 3d c2 1f 64 bd d0 35 c6 3c a8 c1 ee 3c
       0.035109572 -0.05569435 0.024195582 0.029145077
0000e0 d5 72 30 3c ea 44 b3 bb f5 de 7e 3d 3f c8 a7 3c
       0.010769566 -0.0054708617 0.062224347 0.020481227
0000f0 5e f3 ac bd 86 17 ba bd da ac 9d bc 15 bd 37 bd
       -0.08444856 -0.09086518 -0.019247461 -0.044858057
000100 7d 99 e8 3b 0d bb 13 3d 51 d3 62 3c a0 9a a7 3c
       0.0070983754 0.036067057 0.013844327 0.020459473
000110 ee 8e 66 bc 47 db bc bb 04 7d f5 3c 2e 92 04 3d
       -0.014072163 -0.0057634446 0.029966839 0.03236597
000120 19 ad 38 bd dd 62 88 bc d4 b9 6e 3d 15 86 93 bd
       -0.045086954 -0.016648704 0.05828269 -0.072033085
000130 f0 ce 03 3b 12 52 b8 3c 3e fd 5d 3d 9f f9 8e 3c
       0.0020112358 0.022500072 0.05419659 0.017453013
000140 7e df 4f bd 12 56 3b bc a9 51 f1 ba 7d bb a2 bd
       -0.050750248 -0.011434095 -0.0018411177 -0.07945917
000150 33 4c 8a bc 70 cb c8 3b e9 7d 63 bd 46 39 8f bd
       -0.016882038 0.0061277673 -0.05554 -0.06993346
000160 84 60 03 3d fc 32 48 3d 4f 1a 7c bd 30 af 07 3c
       0.032074466 0.048876747 -0.061548527 0.008281514
000170 7e ff 99 bc 6d 9e 65 bc 6d 25 46 bd 78 88 0f 3d
       -0.018798586 -0.014014822 -0.048375536 0.035042256
000180 a0 61 4a 3c 26 ac bb bd 14 2a 89 bd 58 66 99 bd
       0.012352377 -0.09163694 -0.06697479 -0.07490224
000190 f7 7a 19 bd 6c 06 bc bc e0 98 01 bc 35 33 58 bd
       -0.037470784 -0.022952281 -0.007909983 -0.05278321
0001a0 00 40 01 bd 85 50 32 3d 74 dc 91 bd 79 02 63 3c
       -0.031555176 0.04353382 -0.07122126 0.01385557
0001b0 00 a5 82 bd f8 2a 0f 3d d4 eb 2d ba d6 e0 35 bd
       -0.063791275 0.034953088 -0.00066345674 -0.044403873
0001c0 10 cc 8b bd 97 d8 e6 3c 4f 53 8a 3d 2a bb 1c 3d
       -0.06826031 0.02817945 0.06754171 0.03826443
0001d0 12 0b 07 3d 4d fd 2f bd bd 54 34 bb 46 52 7f 3c
       0.03296954 -0.042966176 -0.0027516328 0.01558358
0001e0 eb f9 11 bd 66 37 b3 ba 21 e8 09 bd 7d 31 89 bd
       -0.03563873 -0.0013673126 -0.03366864 -0.06698892
0001f0 72 ef 14 3d 29 39 a3 3c 41 db 5e bd b1 88 07 bd
       0.036361165 0.019924717 -0.054408316 -0.033089343
000200 3c 6e b2 bd 4f 6d fe 3b a6 45 29 bd 2c 7e 15 3c
       -0.08712432 0.0077644954 -0.041326188 0.00912432
000210 20 0c 50 bd a9 c9 23 bd 57 77 c8 bc be 9b 4f 3d
       -0.050792813 -0.03998724 -0.024470968 0.050685637
000220 75 04 bb bc c9 fd e7 bc 36 58 c8 bd f0 8f ca bd
       -0.022829274 -0.028319256 -0.0978245 -0.09890735
000230 a7 36 38 bd 02 42 be bc 39 73 1b bd 6d 77 83 bc
       -0.044973996 -0.023224834 -0.03795168 -0.016048158
000240 1c 7d 1f bd ab a2 90 bd 8c 64 0f bd d9 78 2b 3d
       -0.038937673 -0.070622765 -0.035008 0.041863296
000250 d0 5e 9f bc fa 33 01 3d 50 0c 99 bd 0e d8 74 bd
       -0.01945439 0.03154371 -0.074730515 -0.05977636
000260 89 a8 06 3c 42 b4 07 3d f1 45 1e 3d a1 7d 99 3d
       0.008218893 0.03313089 0.03864092 0.07494665
000270 0d 45 19 3d a1 4b b0 3c 4b c5 a6 bc 3a 37 a2 bb
       0.037419368 0.021520438 -0.020357748 -0.004950431
000280 b3 35 f8 bb 8f 47 81 bd 96 f0 a7 bb da 2d 57 bd
       -0.007574761 -0.06312477 -0.0051251156 -0.05253396
000290 40 0b f6 3c 61 39 0f bd 30 0c 55 bd 4a 6a 45 bc
       0.030034661 -0.03496683 -0.052013576 -0.012049267
0002a0 b8 9d ba bc 78 8e 0e 3d ba 81 a0 bd ff 28 39 bd
       -0.022780284 0.034803838 -0.078372434 -0.045205113
0002b0 79 25 37 bd 5e 35 2e 3b 7a ec 91 bb 10 99 2c bd
       -0.04471347 0.0026582102 -0.004453239 -0.04213816
0002c0 23 55 c3 bd 8b 67 a2 bd 0b c9 e2 bb e5 e3 d9 bc
       -0.09537723 -0.079299055 -0.006920939 -0.026597926
0002d0 61 12 83 bd f3 69 99 bd 75 b2 3f bc d1 12 a1 bc
       -0.0639999 -0.07490911 -0.011700262 -0.019662293
0002e0 63 58 70 bd f9 bd 12 3d 96 78 19 3d c9 01 87 bc
       -0.058678042 0.035825703 0.037468515 -0.016480343
0002f0 1f 97 e0 3a bd a6 82 bd 56 32 8c bd 11 41 07 3d
       0.0017134881 -0.06379459 -0.06845538 0.033021037
000300 d0 e7 12 3d 72 90 e2 bc a6 c4 b1 bd 6e c2 3f 3d
       0.035865605 -0.027656768 -0.08680086 0.046816282
000310 e2 68 83 3d b8 36 84 bd 9e cb 1a bd cb f4 8f bd
       0.06416489 -0.06455749 -0.03779184 -0.070291124
000320 eb 05 5b 3d c5 a7 6f 3d 85 24 65 3c b0 43 d0 3c
       0.05347244 0.058509607 0.013985758 0.0254229
000330 56 67 e3 3b 85 9a 90 bd 32 b9 d4 3c f3 86 c9 bc
       0.006939809 -0.07060722 0.025967214 -0.024600482
000340 dc 11 cc ba 12 18 41 ba 6b bb 21 bd 5c 90 4e 3a
       -0.0015569287 -0.00073659525 -0.039485376 0.00078797876
000350 fa 8b 99 3c 24 d8 21 3d 41 88 31 bd 05 c0 26 bd
       0.018743504 0.03951277 -0.043342832 -0.040710468
000360 ef 1c a4 bd b4 f2 87 bd 5a 71 cc 3c 60 12 09 bd
       -0.08013331 -0.06638089 0.024956394 -0.03346479
000370 df 96 20 bd f0 ef 5d bd bc c8 08 3d 18 f8 49 bd
       -0.039206382 -0.0541839 0.03339456 -0.049308866
000380 04 9c d1 bc ce ee 67 bc d1 bd 8a bd d9 62 74 bd
       -0.02558709 -0.014156057 -0.06774486 -0.05966458
000390 22 3f fa bc bf fd c7 bc 2b db 9f bd 65 c7 10 3c
       -0.030547682 -0.024412988 -0.07805475 0.008836602
0003a0 1f 63 84 3c be 0d 91 bd 4f 2e c2 bd 89 fa be bd
       0.016160546 -0.07082699 -0.09481489 -0.093251295
0003b0 4d a7 08 3d 3b 54 68 bb ac e8 f3 3c a4 48 0e 3d
       0.033362675 -0.0035450596 0.029774033 0.034737244
0003c0 8a 7a ba bd 89 04 b8 bd 29 c4 81 bd da 81 cb 3b
       -0.09105404 -0.0898524 -0.06336243 0.006210548
0003d0 07 36 3c 3d dc db aa 3c 3c 73 90 bd 06 f7 30 3d
       0.045949962 0.02085679 -0.07053229 0.04320433
0003e0 6e 6c 01 3d f8 10 26 3d 18 4e 0f 3d 08 38 4c bd
       0.031597547 0.040543526 0.034986585 -0.049858123
0003f0 f0 77 f9 bd 6d 1a a7 bd e2 96 ac bd 36 8c eb 3b
       -0.121810794 -0.08159337 -0.08427216 0.0071883453

4.weight f4 [100, 500]
000000 ab 53 d8 3c b1 18 0e 3c 9c 68 1e bd 08 11 31 bd
       0.026407083 0.008672879 -0.038673982 -0.043229133
000010 f3 33 29 3d ce 77 db 3a d8 c6 80 3b 5b 16 cc 3b
       0.04130931 0.0016744079 0.003929954 0.006228251
000020 fa 4c 3f 3c bb ac 91 3c 9c 08 3e bd 3f 75 2f bd
       0.0116760675 0.01778256 -0.04639493 -0.042836424
000030 60 7b c9 bc d4 14 86 3c dd b6 19 bc 1d b5 af 3c
       -0.024594963 0.016367353 -0.009381977 0.021448666
000040 ca 87 2d 3d 55 3b 6b bd 9e 33 63 bc f1 64 14 bc
       0.042365827 -0.05742963 -0.013867287 -0.009057269
000050 99 d6 5c bc 6a 40 63 bd 52 47 fd 3c 3f d3 33 bd
       -0.013478898 -0.055481352 0.030917797 -0.04390263
000060 34 4d 07 3d d6 1d 48 bd ab 02 77 bc 4e f3 6d 3c
       0.03303261 -0.04885658 -0.01507632 0.01452334
000070 ff e1 75 3b 1d 71 18 bb 59 a9 e9 bc 62 0d 45 bc
       0.0037518737 -0.002326078 -0.028523134 -0.0120271165
000080 00 23 97 3b ab 4d 57 bc 57 67 21 bc 96 77 55 bd
       0.0046123266 -0.013141076 -0.009851298 -0.052116
000090 aa 0f 6f bc 90 e2 14 3d 68 47 02 3d e4 93 ef 3c
       -0.014591137 0.03634888 0.03180638 0.029245324
0000a0 5b b8 91 bc 7b 93 2a 3c 8e 73 a7 3b 27 05 7b bc
       -0.017788103 0.010411139 0.0051102107 -0.015321053
0000b0 98 71 6c bd ba 12 57 3c 60 11 c2 bc cf f9 22 3d
       -0.05772552 0.013127023 -0.023689926 0.039789017
0000c0 54 f1 e6 bb ea 15 77 3c f3 e7 df 3b ed 00 4e bc
       -0.0070478115 0.015080908 0.0068330704 -0.012573463
0000d0 06 2e cf bc a6 6d 5f bc db 2a c5 bb b2 ef 1e bc
       -0.0252905 -0.013636982 -0.0060170717 -0.0097007025
0000e0 d5 76 ab 3c 26 9a 79 3c 0f 07 e5 3c 31 ff 65 3c
       0.020930687 0.015234506 0.027957467 0.014037893
0000f0 e5 19 ce bc 4b 32 9a 3c 3b 2a e8 3c 6d 8d 9a bc
       -0.025158832 0.01882281 0.02834045 -0.018866265
000100 d2 1b 9e bc a2 63 c2 3c f5 b5 2d b8 60 49 25 bd
       -0.019300375 0.02372915 -4.1415875e-05 -0.04035318
000110 83 df 24 3d 2d ab c1 3a 7c eb 35 3d 97 c9 09 3d
       0.04025222 0.0014775746 0.04441403 0.033639517
000120 25 ef 8e 3c 4d 79 99 3c 47 4d 53 bd 20 0f 35 bd
       0.017448017 0.018734599 -0.05158737 -0.044203877
000130 4d 06 6f bc 4b cb 0d bd 61 21 91 3c 53 05 b1 ba
       -0.014588905 -0.034617703 0.017716112 -0.0013505615
000140 1a b5 b5 bb 9d 8c cb b8 c7 20 8a 3b e1 55 7c bd
       -0.0055452706 -9.7059856e-05 0.004215333 -0.061605338
000150 12 87 6f 3c 16 e0 fe bc 8b 65 02 bc af 09 45 bc
       0.014619606 -0.031112712 -0.00795878 -0.0120262345
000160 56 95 2d bc da 17 bb 3c a6 f6 83 bc 48 10 03 bd
       -0.0105946865 0.022838522 -0.016108822 -0.03199795
000170 59 d2 61 bd 18 51 88 bc 03 c3 1b bd d4 5b 2d bd
       -0.055132244 -0.016640231 -0.038027775 -0.042323902
000180 06 b7 b0 3c 85 04 2b bd ac ea c6 3c b3 47 2c bd
       0.021571647 -0.041752357 0.024281822 -0.042060565
000190 13 6b 1a bd ab 0b 6d 3b d2 9c 32 bb 82 71 20 bd
       -0.03769977 0.0036170285 -0.0027254117 -0.03917075
0001a0 26 c6 1d bd df 2e df bc ea b0 b1 3b cb 37 85 bc
       -0.038519047 -0.02724403 0.005422701 -0.016261956
0001b0 1d 9a 56 3c 4b cf 9e bc b6 0f 2b bd cc 11 8a bb
       0.013098267 -0.019385954 -0.04176303 -0.0042135473
0001c0 39 53 de bc b5 d9 d0 bc e2 45 b1 3c 74 35 5c bd
       -0.027139293 -0.025494436 0.021639768 -0.053761914
0001d0 72 7f aa bc e6 4b 11 3d 6f 83 22 3c 84 e9 a3 3b
       -0.020812724 0.035472773 0.0099190315 0.0050022025
0001e0 2f 3f 14 bd 69 6e f0 bb d3 12 52 bc 1d d5 73 3c
       -0.03619307 -0.0073373807 -0.012821871 0.014882353
0001f0 b7 a4 38 ba 25 9a 19 3d 72 39 83 bb 98 0a 46 bc
       -0.00070435874 0.03750052 -0.0040046507 -0.012087487
000200 eb c4 e0 ba 14 80 44 3c 96 33 a6 3b 21 0e 60 bd
       -0.001714853 0.011993427 0.0050720675 -0.054700974
000210 d5 da ce bb 97 08 e8 3c e1 7f 28 bc 17 65 13 3d
       -0.006312708 0.028324408 -0.010284395 0.03598508
000220 b0 c4 fa bc 3a ec 6f 3b fd e0 3d 3c 0e 94 0e bd
       -0.030611366 0.0036609308 0.011589286 -0.034809165
000230 7b 62 6d 3c 87 1e ea 3c d0 c8 04 bd 03 69 0f bd
       0.014488812 0.02857901 -0.032418072 -0.035012256
000240 5e 36 66 3c 61 be 1e bd b3 84 60 3c e6 46 2d bd
       0.014051048 -0.03875578 0.013703513 -0.042303942
000250 5d 16 4a bc 7c cd 24 3d 0a 71 23 bc 8a d1 1c bd
       -0.012334433 0.040235028 -0.009975681 -0.03828577
000260 8b 97 88 bb 86 b5 45 bd b9 97 8b 3b 52 21 4c bd
       -0.004168456 -0.048268817 0.00426003 -0.049836464
000270 e7 a3 35 bd 10 17 73 bd b7 f7 73 bd b6 01 ad 3c
       -0.044345763 -0.059348166 -0.05956241 0.02111898
000280 32 bd 5c 3b dc 7b 22 3d a8 f5 83 bc 3c a0 23 bd
       0.0033682105 0.039668903 -0.016108349 -0.039947733
000290 93 17 8f 3c 52 15 d1 bc fd dc 87 bc e5 1e 1f 3d
       0.017467296 -0.025522862 -0.016584868 0.038847823
0002a0 a2 1a 8d bc f9 4f ec 3b cf a9 f4 3b ac 36 21 3d
       -0.017224614 0.007211682 0.007466532 0.03935878
0002b0 75 ca 8b bc 73 35 33 bd 3e 50 44 bd 9d 99 d2 3c
       -0.017064312 -0.043752145 -0.047928087 0.025708014
0002c0 86 1c 9a 3c 02 e9 05 bd 5d 02 76 bc 66 71 ba bb
       0.01881243 -0.032692917 -0.015015212 -0.0056897877
0002d0 2c 14 39 bd 16 0d 2f 3d 7a d9 65 3b 11 5b 2d 3c
       -0.045185253 0.04273709 0.0035072253 0.010580794
0002e0 01 61 07 3d 42 70 db 3c 2c c4 04 3d 68 c8 0e bd
       0.033051495 0.026786927 0.032413647 -0.03485909
0002f0 42 ee 18 3d 13 f0 d4 3b f0 a1 09 bd 8a 54 0e bd
       0.037336595 0.0064983456 -0.0336017 -0.03474859
000300 e4 9d d0 b9 7c 46 7a bc 43 b7 db bb f6 98 d9 bc
       -0.0003979049 -0.015275594 -0.006705196 -0.026562195
000310 00 df 1a bd f3 de a7 bc 7d 76 a7 3c d1 19 51 bd
       -0.037810326 -0.020492053 0.020442242 -0.05105001
000320 43 08 73 bc ad be 50 3c 80 c6 ed 3c d6 4f cf bc
       -0.014833513 0.012740773 0.029025316 -0.025306623
000330 28 d8 5e bc b1 9f 4a bd 5d 70 d7 3c 70 08 c3 bc
       -0.01360134 -0.0494687 0.026298696 -0.023807734
000340 d2 73 7f b8 3f ad de 3b b4 58 75 bd be 87 c7 3c
       -6.0904604e-05 0.006795555 -0.059899047 0.02435672
000350 62 fe b4 bc ec 93 de 3b 32 b7 79 bc 10 aa 01 3c
       -0.022093955 0.006792536 -0.015241431 0.007914081
000360 8b 62 06 3d c3 f2 0e bd 27 85 82 3c 63 4e 25 3d
       0.03280882 -0.034899484 0.015932633 0.04035796
000370 91 f4 2a bd d8 1c 36 3d cf fa 33 bc d1 67 93 3c
       -0.041737143 0.0444611 -0.01098509 0.01799384
000380 06 48 4a 3c c1 95 48 bd 1e f1 03 bd 46 61 1d bd
       0.012346273 -0.04897094 -0.03221237 -0.038422845
000390 0b 9a 66 bd 41 8d a4 3c 7d 73 6b bc 43 8d 14 3d
       -0.05629925 0.020086886 -0.014370796 0.03626753
0003a0 49 38 d0 ba d6 6b 27 3c eb 7b 13 3b 34 a0 ad bc
       -0.0015885915 0.010218581 0.002250428 -0.021194555
0003b0 3b 59 1b bc f2 11 89 3b 5a 4a 60 bc da 57 fb 3a
       -0.009481723 0.0041830475 -0.013689602 0.0019175962
0003c0 5f 54 76 bd fb 3d 31 3c 40 2a dd 3c 9c 40 dd 3c
       -0.060139056 0.010818 0.026997685 0.027008347
0003d0 52 c6 d3 3c 0f 3d 23 3d 2f 28 3e 3c 15 e7 4d bd
       0.025851402 0.039853152 0.01160626 -0.050269205
0003e0 60 cc a4 bc 4a c3 83 ba 72 3a 7f 3b 62 6d 0e bd
       -0.020116985 -0.0010052708 0.0038944748 -0.034772284
0003f0 80 d9 3c ba 51 05 4f 3a 62 e7 29 3d 73 ad 81 bc
       -0.0007204041 0.00078972155 0.04148043 -0.015829777

4.bias f4 [100]
000000 de ea 30 bd c5 c5 8a bd 0a bb 85 3d b1 9f 80 3d
       -0.043192737 -0.06776003 0.065298155 0.06280459
000010 6c a2 40 bc cf c0 87 bd 46 d7 fd 3d ff 12 1d 3d
       -0.011757474 -0.06628572 0.12394576 0.038348194
000020 2f 01 a1 bc 8f 07 e5 3d 88 52 10 3e 9a 86 d9 bd
       -0.019653885 0.11183082 0.14093983 -0.10621376
000030 e9 52 91 bc e5 2a 34 bd fd be 5b bc 37 61 6c bc
       -0.01773973 -0.04398622 -0.013412234 -0.014427475
000040 64 f7 8e bc df 0a bf bb 7f f1 3b bd 70 63 14 bd
       -0.01745195 -0.0058301534 -0.045884605 -0.036227643
000050 90 59 86 bd 9b f2 df 3b c1 8a b1 bd 25 08 40 bd
       -0.065600514 0.0068343407 -0.08669043 -0.046882767
000060 40 f8 f5 bc b1 e4 3d 3d 50 9b 6b bd 3c 71 26 bd
       -0.030025601 0.046360675 -0.057521164 -0.040635332
000070 87 f5 58 bd fe 4a 83 bd f6 76 8f bd 10 0a 2f bd
       -0.052968528 -0.06410788 -0.07005112 -0.042734206
000080 a1 fd 59 bd 26 50 ac 3d 2f 34 ac bc 93 2b 14 bd
       -0.053220395 0.084137246 -0.021020977 -0.036174368
000090 c5 c6 9a 3b 4f de 4f bc b2 e2 d4 3c 76 70 16 bd
       0.004723402 -0.01268728 0.025987003 -0.036728345
0000a0 d6 5c 37 bd 88 5b 1f bc 24 f0 04 3a d1 4f 27 bc
       -0.04476627 -0.009726413 0.0005071184 -0.010211901
0000b0 72 6f 88 bd 1f 9b 13 3e a6 e5 a3 bd ec c7 59 bd
       -0.066618815 0.14414643 -0.08002786 -0.053169176
0000c0 eb 41 8e bc 72 a0 6d 3c 5e 93 58 bd 75 22 e4 bd
       -0.017365417 0.014503585 -0.052874915 -0.11139385
0000d0 32 9e 12 3e 9d 50 78 bd 73 4e 7c 3d a2 02 8a bc
       0.14318159 -0.060623754 0.061598253 -0.016846959
0000e0 1c 18 4a 3d 72 2c 45 bd f0 5e 46 bd 0b db 52 bd
       0.0493394 -0.04813809 -0.048430383 -0.051478427
0000f0 31 8f 89 bd 61 a8 a5 3d 96 4f a6 bc 67 4f 96 bc
       -0.06716765 0.08088756 -0.020301621 -0.018348409
000100 62 68 be bc 22 d9 52 bd 3f b5 56 bd eb 25 d0 bd
       -0.023243133 -0.051476605 -0.052418943 -0.10163482
000110 ce 34 f6 b9 f0 e1 90 bd 68 51 3b 3d 0c b0 0d be
       -0.0004696012 -0.07074344 0.045731932 -0.13836688
000120 a0 49 1e bd c1 b1 97 bc 7b f7 1c bd 07 01 27 bd
       -0.038644433 -0.018517377 -0.038321953 -0.040772464
000130 80 4b a1 bd a3 f7 8d bc 1d f9 3f bc 79 eb cd 3d
       -0.078757286 -0.017329996 -0.011717108 0.100546785
000140 4a a6 f0 3c 80 48 68 bd ea 2d 11 bd 35 44 44 bd
       0.029376168 -0.056709766 -0.035444178 -0.04791661
000150 50 3e 80 bd 87 84 eb bc 70 96 3a bd c2 91 0e bc
       -0.06261885 -0.028749717 -0.045553625 -0.008701744
000160 f6 54 07 bd 3f 2c 0f bd e1 95 43 3c 8b 77 b8 3c
       -0.03304001 -0.034954306 0.011937589 0.02251794
000170 74 db 3d bd b0 4e 78 bd 40 9f c4 bd db b3 3d 3d
       -0.046351865 -0.060621917 -0.09600687 0.0463141
000180 38 89 8e bb 68 58 35 3b 97 d5 79 bd 33 93 72 bc
       -0.004349854 0.0027671102 -0.06099471 -0.014805603

6.weight f4 [3, 100]
000000 bd ce 96 3d 47 50 a9 bc 2f 73 ed 3d 9a 55 05 3e
       0.07363651 -0.020668162 0.11594235 0.13020936
000010 0a 1a 1b 3e 0a f5 d0 bc e8 a3 24 bc 0b 5e 24 3d
       0.15146652 -0.025507469 -0.010048844 0.04012875
000020 96 30 71 bd 67 b4 86 3c 01 d8 45 bd 49 28 07 3c
       -0.058884226 0.016443444 -0.0483017 0.008249351
000030 c2 19 09 be 32 41 b3 bb b0 b8 8a bd 0f ea e0 bd
       -0.13388732 -0.0054704184 -0.067735076 -0.10982143
000040 6b 0e 9e bd e7 71 a6 3d 70 f6 0e 3e 1b e9 85 3d
       -0.07717594 0.08127194 0.13961196 0.06538602
000050 02 30 97 3c 07 89 cd bd 4e 8f 28 bc 2b 8e 27 3d
       0.01845551 -0.100359015 -0.010288073 0.040907066
000060 7e 2c 95 3d 59 7a 4a 3e 8d 1b 36 bc 1a bb 46 bd
       0.07283877 0.19773234 -0.011114967 -0.048518278
000070 c0 57 83 3d d0 2b 6e bd 63 31 80 3d c2 25 cf 3d
       0.06413221 -0.05814725 0.0625942 0.101146236
000080 ca 1d ad 3c be 7c b2 3d 60 c1 2a 3d 89 45 a9 bc
       0.021132369 0.08715199 0.041688323 -0.02066304
000090 62 61 c7 bd 18 6e c4 3d 38 82 49 bd 88 62 b4 bc
       -0.09735371 0.09591311 -0.049196452 -0.02201964
0000a0 30 f6 8a bd 0c ad 16 3b 4f f3 38 bd 22 eb be bd
       -0.06785238 0.0022991328 -0.045153912 -0.09322192
0000b0 f5 28 53 be 03 73 cf bd db 03 cd bd 14 4f 23 bc
       -0.20621093 -0.101293586 -0.10010501 -0.009967584
0000c0 5e d6 3f 3d f4 bc 77 bc 7f d9 be 3c 30 21 76 bd
       0.046835296 -0.0151207335 0.02329707 -0.060090244
0000d0 34 a7 df bc ca 6f 61 bd 1e 18 51 3e 61 bd ce 3d
       -0.027301408 -0.05503825 0.20419356 0.10094715
0000e0 11 79 6b be 56 1d ba 3b 23 e9 14 bd ef 88 57 3c
       -0.22995402 0.0056797666 -0.03635515 0.013155206
0000f0 81 aa 6e bd b8 07 19 3e a5 f2 4c bc a5 59 ac bc
       -0.058268074 0.1494435 -0.012509023 -0.02103884
000100 5a 13 1c 3d f4 2c 1c 3d f8 26 3c 3d 1d 8e f9 3d
       0.038104393 0.03812881 0.0459356 0.12185309
000110 67 51 1a 3d 38 87 09 be 64 0c 02 bd 67 2c 89 3c
       0.037675288 -0.13430488 -0.031750098 0.016744805
000120 d3 a0 8e 3e d6 27 ea bc 46 33 24 3d b1 ab 15 bd
       0.27857074 -0.028583448 0.04008796 -0.03654069
000130 33 c2 0b 3d 76 15 2f bd 80 62 d8 bc 59 68 40 bb
       0.03412075 -0.042745076 -0.026414156 -0.002935907
000140 45 8c f8 3d 1a f7 ab bd 72 65 3a 3d 07 04 a9 bd
       0.12136129 -0.0839674 0.045506902 -0.08252721
000150 a5 33 20 3d 5e 3d b5 3b 81 c8 5d 3e 4c a6 23 3c
       0.039111752 0.005530997 0.21658517 0.009988379
000160 e1 49 61 bd 9b f8 34 3c 17 d1 e0 3c 8e 30 43 be
       -0.055002097 0.0110456 0.027443452 -0.19061491
000170 48 32 90 bb 26 c3 a5 3d 14 18 72 bd 94 5c b7 bc
       -0.0044005252 0.08093862 -0.059104994 -0.022383012
000180 93 60 4c 3d 9f 7d e4 3d ca ae 36 3d c4 f5 a3 3b
       0.049896788 0.11156773 0.044600286 0.005003663
000190 13 c6 52 bd c2 df b9 3a e2 e6 85 bc ec 15 ae 3c
       -0.05145843 0.0014181065 -0.016345445 0.021250688
0001a0 29 f7 40 bd c3 1f ac 3d e4 b3 ff 3d c5 8c a4 bb
       -0.04711071 0.084044956 0.12485483 -0.005021664
0001b0 d5 01 19 be 89 11 f9 3d b0 38 cc 3d 87 8e 94 3d
       -0.14942105 0.12161548 0.0997175 0.072537474
0001c0 0e 14 88 3d 8f 5a a7 bc 3d da 7f 3d 02 4a 96 bc
       0.0664445 -0.020428924 0.062463988 -0.018345837
0001d0 9b a6 1c bd 95 ac 42 3d 46 b3 52 bd 2b cb c5 bb
       -0.038244825 0.04752787 -0.0514405 -0.0060361824
0001e0 71 e5 c3 bb d7 5b e7 3c 61 51 4b 3c e3 58 75 3d
       -0.0059782793 0.028242035 0.012409539 0.059899222
0001f0 29 ea 45 3e c3 d2 d3 3d e3 36 ef 3c a6 7e df bc
       0.19327606 0.10342934 0.029200977 -0.02728207
000200 00 19 9b bd 25 84 e2 3c 51 40 1a 3b a4 39 cf bb
       -0.07573128 0.027650902 0.002353687 -0.00632401
000210 27 57 45 bd f9 9a f0 3c 41 12 4a be 8d 7a d4 3b
       -0.048178818 0.029370772 -0.19733526 0.0064843358
000220 11 8e 21 3d 8c e3 26 be 6c 50 9d bd 02 a4 99 bb
       0.039442126 -0.1629774 -0.07681355 -0.0046887407
000230 48 b4 de bd dd 20 27 be 4e 85 c0 bd 35 9d b5 bd
       -0.1087423 -0.1632113 -0.09400426 -0.088678755
000240 14 4a 30 bd 68 3c dd 3d fa 70 d1 bd 8e dc 34 bc
       -0.043039396 0.10802537 -0.10226627 -0.011038912
000250 fb 0e 91 bd 66 dc 31 3d a5 61 a0 bc ae e2 ae 3c
       -0.070829354 0.04342308 -0.01957781 0.021348324
000260 c3 ac ed 3d 71 bb b4 bc 3b 11 6c bd 40 17 0a 3d
       0.11605217 -0.022062035 -0.05763362 0.03371358
000270 cb b2 32 3d 5f ad 11 bd ca 9c c3 3d f4 86 4d bc
       0.04362754 -0.03556573 0.095513895 -0.012544382
000280 83 7b 00 3c 64 05 d3 3c 95 14 eb bc 36 2f de 3b
       0.0078419475 0.025759406 -0.028696338 0.0067805303
000290 9c 47 dc bd 53 6b 5c 3b 1e c3 ee 3c 1c a9 92 3c
       -0.10755846 0.0033633306 0.029145774 0.017902903
0002a0 5e 23 aa bc f2 9e a0 3c df d1 ad 3d 8d 91 2e 3c
       -0.020768818 0.019607041 0.08487295 0.010654819
0002b0 24 8b 3a 3e 2c bb 81 bc 52 c4 3c bd 5e 26 12 be
       0.1821714 -0.01583632 -0.046085663 -0.14272448
0002c0 a0 19 74 3e 55 34 49 bb cf a9 66 3c 48 0e 05 3e
       0.238379 -0.0030701358 0.014078571 0.12993729
0002d0 5b 50 97 3d 54 ed ed bd 29 5f bc 3c 1a 03 63 3d
       0.073883735 -0.11617532 0.022994595 0.05542288
0002e0 9a b2 29 3c fb c8 0f bd aa f6 4b 3e ad 92 e7 bd
       0.010357523 -0.03510378 0.19918314 -0.11307273
0002f0 8a cc 11 3c 6d bf a0 bc 8e 70 90 3b 7f 96 10 be
       0.008898864 -0.019622529 0.004407949 -0.1411991
000300 7c 6e 4c bd af 60 80 bd cc 02 c3 bc cf 40 9c 3b
       -0.049910054 -0.06268441 -0.023805045 0.004768468
000310 38 66 81 bb 66 96 3c 3c 9c 5b ba 3d 38 49 67 bd
       -0.003948953 0.011510467 0.09099504 -0.05646631
000320 c6 23 3c 3d 9a 64 0d 3d 13 e2 7e bd 59 e7 c0 bd
       0.045932554 0.03451977 -0.06222732 -0.09419126
000330 1f fe 39 3d fa e5 9c bd b4 55 54 bc db f7 a9 3d
       0.045408364 -0.07661052 -0.012959886 0.08299228
000340 43 9b 59 3d a3 73 45 be 66 c8 89 be 7f da c8 3d
       0.053126585 -0.19282393 -0.26910704 0.098073
000350 7a d6 86 bd 8d 59 f3 3c 25 a7 95 3d e6 29 24 be
       -0.06583877 0.029705787 0.07307271 -0.16031608
000360 3a 11 7c bd 94 9a 96 3d 70 ab 78 be 03 2e 7f bd
       -0.061539866 0.07353702 -0.24284148 -0.06229974
000370 af 80 b3 bd 59 de 07 be d8 cd 8d 3d 80 1b 7f 3c
       -0.08764779 -0.13268413 0.06924027 0.015570521
000380 f2 1d b7 bd 8e db 11 3c 10 c6 72 3d 87 40 04 bd
       -0.089412585 0.008902444 0.05927092 -0.0322881
000390 e8 77 42 be 0a 11 e0 bd da 85 0d 3c 4d 14 8d 3d
       -0.18991053 -0.1094075 0.00863787 0.06888638
0003a0 07 17 8e 3d c3 b0 2c 3d 5b 41 cb bc 3b 0b ca bd
       0.06937986 0.04216076 -0.024811437 -0.09865423
0003b0 56 22 2e be 27 25 4c bc f8 ff 6e be 39 f6 00 be
       -0.17005286 -0.01246003 -0.23339832 -0.12593926
0003c0 c3 f1 3a be 95 95 98 bd d6 e2 99 bd 33 6d a0 bc
       -0.18256287 -0.074504055 -0.07513969 -0.01958332
0003d0 5d a6 80 bd 60 99 13 bd 90 79 06 3d 83 fa c4 bd
       -0.06281731 -0.03603494 0.032830775 -0.09618094
0003e0 a0 5d 1d bd a2 34 a4 3d 93 06 2a bd 10 59 35 3d
       -0.038419366 0.080178514 -0.041510176 0.04427439
0003f0 5a c8 d6 bb 2d e0 99 3c fb 62 bd bd 00 7d 2f 3c
       -0.0065546455 0.018783653 -0.09247395 0.010710955
