my_model.ckpt (torch, 612382 bytes, 7 tensors)

0.weight f4 [200, 6]
00000000: 896c a7bd 03ce 12bd 07e6 6bbe 2fcc 38be
00000010: 9edc 6a3d 4faf 11be f939 1a3e 4ff7 583e
00000020: 1aae de3d d23c 1e3e 7ddf 0e3f f941 cdbe
00000030: fc66 c6be 2292 13bf 5bd2 85be 4698 cc3d
00000040: d711 81bc 4470 abbe d1b5 17bd cf78 9d3e
00000050: 2eab 903e 4baa 943d 2d45 7a3e 0624 e0ba
00000060: f551 94bd a0f7 d1be 6a66 033e fb2b 5c3d
00000070: e866 eb3e 495a ebbd 57a5 f7be 36bc 85be
00000080: 0a0f a63e b6df d6be 8290 873e 3fb4 7abe
00000090: 02a2 b1be ee18 08bd 27c6 b7be d3f5 2abe
000000a0: 14ba 9e3c ed1b 253e 83ef 0a3e da56 ba3e
000000b0: 21cb 9c3e 54d3 723e 75c1 aebd 22c1 053f
000000c0: 8b57 a8be 33a7 e13e 97c7 dfbd 2dc9 a4be
000000d0: 25b5 a53e b51b fcbd 4d67 fdbd 25d3 ccbd
000000e0: dcdc d63c 0a75 943d f4cd 53bd b9da a23e
000000f0: 1c0c 17bc 7b1f 1ebe 7d4d dc3e d3fe ffbd
00000100: 9d21 59be 52ef 6dbc a136 f9bd ba68 f83d
00000110: 6e0a 49be 3dd6 4d3e 4fe6 073f 4a04 88bd
00000120: d1cf 74be 9830 853e 17e9 8ebe 5c74 b7be
00000130: 6241 55bf a2c5 a33e c11d 4c3e f56f 1dbe
00000140: 7cea 03b8 85cf 75be 9110 a7be 5df4 173e
00000150: cd13 45be 3f89 c63e a67f aa3e da57 9d3c
00000160: b441 f0bc 5b3c 113e 9411 85be d6b7 b8bd
00000170: efeb a1be 021c be3e 0be8 89be a14a 5dbe
00000180: 71e7 9d3e 2066 5dbe fb70 0abe 0c63 c5be
00000190: a382 593e 4b59 9c3e 85a2 05bf 6072 f4be
000001a0: 9592 d6bd 582c 8dbc 704b 913e b1b9 e13d
000001b0: a956 33be 3eef 86bd 23fb 32bc d38a c6be
000001c0: c1ec 66bd 8351 3a3e 4dab 5cbe 5185 85be
000001d0: c3c7 113e 708f dd3c 0e65 173e 3786 93be
000001e0: 3180 453e c38f 9cbe 410d 83be c801 803d
000001f0: 79c7 84be 5cb1 a03e 86d9 8c3e 7d7e 803e
00000200: 8bfa 663c d0cf a8be 2f1f cebe 3451 87be
00000210: 02a8 31bf 4e52 a23e 4a75 2d3e 4f9b 6cbd
00000220: 7a0d cb3e f790 13bf 7414 cebe 2588 a73e
00000230: 7bc8 febd 2458 c53d 5f2e c6be 131f 8abd
00000240: 7d7c 063f 0a2a 87be 307a 7a3b 1e27 e43c
00000250: c454 adbe d273 d33e ea1a 083e 444d 50bd
00000260: f494 dbbd 34d5 113e 6f1d bcbe 3ad7 843d
00000270: 4a15 fd3e 2b2e 4f3e ea73 c93d f456 12bd
00000280: 187b 76bc 4aba a83d c1aa 51be 2311 92be
00000290: 2c8c ac3e f55c a6be 082e dfbe 2d3b 843e
000002a0: d9c4 963d de14 d03d fb27 c1be f400 363d
000002b0: b2e4 383e 3cdd 00bf 5478 033f 37ff 9bbe
000002c0: 6775 623e c8c3 10be 3c88 cc3e 1e84 c93d
000002d0: d339 2bbc b8f3 99be 03d3 73be 33df b3be
000002e0: d5f0 27bc 4ca4 c8be bef6 b23e f1fa f1be
000002f0: 2e45 cabc 4920 ba3e e42c 49be 9f4d f03d
00000300: 16d3 eabe fb27 1b3d f1cf e03e 8bdf ddbe
00000310: 7597 433e 2b6b 68be 5928 2f3e cac2 103d
00000320: e660 4e3d fb1c 563e 1582 32bd bcc1 ed3e
00000330: 34e5 c93e ad7e 0cbc 3c63 0cbe 43dd 9e3d
00000340: 2bb0 cebe fdf8 86be b784 a6be 8fa0 49be
00000350: 8140 8f3e 5447 d4bc aa83 ef3e a7e6 a2bc
00000360: 255b 27bf 94b3 4f3d 0be4 a6bb e63c b5be
00000370: a27c 9c3c be1e 40bf 7c04 83be 7114 0abf
00000380: b1d2 99be 205d 433e 46b4 8f3e b49a 0bbf
00000390: 6fdb cbbd fd6e 083e d7da cc3e 1086 15be
000003a0: d7e8 cc3d 8d73 e4be aaf6 17be 0cf9 7d3e
000003b0: 604e 843e 64cc 8abe 4f42 a43e fa86 1d3e
000003c0: cfe6 2abf e299 5fbe 6b51 8dbe ffc1 ebbe
000003d0: 9261 793d f5c4 5fbe 55e8 a53e 923e 923e
000003e0: a521 1a3b e2b5 61bd 8809 433d 77d3 fc3e
000003f0: 5fb4 93be 80d5 87be 9b0c a43c 7d11 8a3e
-0.08174998 -0.035841 -0.23036967 -0.1804664 0.057339303 -0.14227031 0.15061177 0.2118809
0.10873051 0.15452889 0.55809766 -0.40089396 -0.38750446 -0.57644856 -0.2613705 0.09989981
-0.015755577 -0.3348409 -0.037038628 0.30756232 0.282556 0.07259043 0.24440451 -0.001710058
-0.072421946 -0.41009235 0.12832037 0.05375288 0.4597695 -0.1149183 -0.48368332 -0.26120156
0.3243335 -0.41967553 0.26477438 -0.24482821 -0.34693915 -0.0332269 -0.35893366 -0.16695337
0.019375838 0.16123934 0.13567929 0.36394387 0.30623725 0.23713428 -0.08532993 0.5224782
-0.3287929 0.44072875 -0.109267406 -0.32184735 0.32364765 -0.12309972 -0.12373219 -0.1000121
0.02622836 0.07248886 -0.051710084 0.31807497 -0.009219196 -0.15441696 0.4302787 -0.12499776
-0.21204229 -0.01452239 -0.12168623 0.1212935 -0.19632885 0.20101257 0.530858 -0.06641443
-0.239074 0.26013637 -0.27912208 -0.35830963 -0.8330289 0.3198672 0.19933225 -0.1537474
-3.1451214e-05 -0.24004944 -0.32629827 0.14839311 -0.19245835 0.38776585 0.33300513 0.01920693
-0.029328205 0.1418318 -0.25989974 -0.09019439 -0.31625316 0.37130743 -0.26934847 -0.216105
0.30840638 -0.21620989 -0.13519661 -0.3855213 0.2124124 0.30536875 -0.5220111 -0.4774351
-0.10477177 -0.017233059 0.28377867 0.11021746 -0.17513527 -0.065886006 -0.0109241335 -0.3877779
-0.05637813 0.18195157 -0.21549721 -0.26078275 0.1423636 0.027045935 0.14784643 -0.28813335
0.19287182 -0.3057843 -0.2559605 0.0625034 -0.25933436 0.31385314 0.27509707 0.25096503
0.01409782 -0.32971048 -0.40258166 -0.2642914 -0.69396985 0.31703418 0.16939273 -0.0577653
0.3965872 -0.57643074 -0.4024998 0.32721058 -0.12440582 0.09635952 -0.38707253 -0.06744208
0.52533704 -0.2639926 0.0038219802 0.027850684 -0.33853734 0.412993 0.13291517 -0.050854936
-0.1072177 0.14241487 -0.36741206 0.06486364 0.49430305 0.20232455 0.09836562 -0.035727456
-0.015043996 0.08238657 -0.20475294 -0.285287 0.33700693 -0.32492796 -0.43589807 0.25826398
0.073617645 0.1016023 -0.37725815 0.044434503 0.1805599 -0.50337577 0.5135548 -0.3046815
0.22115098 -0.14137185 0.3994769 0.098396525 -0.010450798 -0.30068755 -0.23810963 -0.35131225
-0.01025029 -0.3918785 0.34953874 -0.47261766 -0.02469119 0.36352757 -0.1964603 0.11733555
-0.4586417 0.037879925 0.43908647 -0.43334612 0.19100745 -0.22697131 0.17105235 0.035342015
0.05038538 0.20909493 -0.043581087 0.4643687 0.3943268 -0.008575124 -0.1370973 0.07757046
-0.4036878 -0.26361838 -0.32523128 -0.19690154 0.279789 -0.025912918 0.4678014 -0.019885374
-0.6537345 0.05070837 -0.005093103 -0.35398024 0.019102398 -0.7504691 -0.2558936 -0.5393744
-0.30043557 0.19078493 0.28067225 -0.54532933 -0.09953963 0.13323589 0.40010712 -0.14601922
0.10005348 -0.44619408 -0.14840189 0.24802035 0.25841045 -0.27109063 0.3208184 0.1538352
-0.66758436 -0.21836045 -0.2760118 -0.46046445 0.060884066 -0.21852477 0.32403818 0.28563362
0.002351859 -0.055105098 0.04761651 0.49380085 -0.2884855 -0.26530075 0.020025542 0.26966467

0.bias f4 [200]
00000000: 8628 abbd 40ef fc3e 169f e8bb 3e4f 533d
00000010: 2dd1 b63e a040 a1be c48e c4be dc3b 01be
00000020: c222 d73d 2aa7 a93e 4efa bd3e 9be5 f33e
00000030: 706b 83bd db8e b6be fff9 c13e e2fb 46be
00000040: 869c 893e 29dc 87be 9b6c 95be e841 dd3d
00000050: 4843 913e 93c1 1bbe e19f a9bd 7360 bbbe
00000060: 490a afbe 3138 c53e 9cf4 883e 55a8 363e
00000070: fd13 c43e e5fb 823d ac36 90be 2fb7 73bd
00000080: 85d6 9ebb b005 253d 3f32 a7be e250 693e
00000090: f900 e33d 899e 67be ad47 ce3e f8e1 39be
000000a0: 19ae 0f3e ffdc 4bba 0daa 9cbe b7c0 9e3e
000000b0: 4cd4 4f3e 1225 0b3e 9ee5 373d e8a3 2b3d
000000c0: 1277 8bbe dfb2 c73e 8388 11be 7d38 863e
000000d0: 8a17 6a3e f8cd a63d 72d1 b6bc 0c5c 46be
000000e0: 2b00 a53e d7ac 243e 17d5 dd3e f0b4 83be
000000f0: f29d 5fbe a795 813d 722d 7e3e 98a8 513e
00000100: 2b59 d3be a980 293d 28e9 4f3d 0c08 7f3e
00000110: baef f4bd 3f37 a33e c41a 97be 5c0e 9dbd
00000120: c4dc 813e a8ae 5cbe 7a0c 95bd 326b 033f
00000130: f90e 0abd cfb2 82be 1119 3d3e ad37 dd3e
00000140: e4ab 103e 0ecf ab3e 01dc 9cbd 95d1 de3e
00000150: 112e a1bd 6fa5 593e 55b5 88bd c44e f13e
00000160: b8be aa3e 80af 593c d75a e23d cfef 823e
00000170: 8e24 72bd 54d0 89be f91a 063f 4a5d c93e
00000180: 2206 523e 7769 8b3e e896 78be 8cdb 3cbe
00000190: a434 3cbd a01c 49be 72b5 de3e c7af 37be
000001a0: 114d 9f3e 789f 3d3c cfeb 44be 12ff c53e
000001b0: 9cdf 12be 3fbe 9ebd f606 cb3d c8e3 cfbe
000001c0: 016f 1e3d c3e7 2d3e 81a0 43bd b315 0f3e
000001d0: 98b3 9bba 320e fe3e 5324 28be b6e1 1b3e
000001e0: be53 c23e f43c 9dbe 0c5b d63e 4149 d63e
000001f0: a1cb 053e a587 a0be f404 9e3e 3da7 9c3e
00000200: 84d2 963e 6616 b73e adc1 823e ad3a 28be
00000210: 8b93 9abe 8ad7 02be f519 a23e d5a0 91be
00000220: e875 d93e 9112 9c3d ef9b d4bd f6c7 6ebe
00000230: 5715 bebe 1669 e0bc f038 d4be 2073 503e
00000240: 0123 5cbe 53f5 c23e cc5b c03b f434 813e
00000250: 445d 833e 1969 573d 1cf9 abbe d49a 87bc
00000260: 4c16 40be 3c69 593e 281e 60be f851 153f
00000270: f2c7 123c aebb 66bd 5a17 c2be 164e b93d
00000280: 24ea 743e 2695 74be 13db 2f3d 3914 45be
00000290: d3c7 56be f4ab 1e3e 4586 b3bd dd47 1fbd
000002a0: 35f4 46be 5486 a63e 8415 c63c 9a5b adbe
000002b0: 451f 0b3f ace7 723e 9f18 7a3e 545c e6bd
000002c0: 53f0 833e 16b6 bdbe fdf1 82be 6b2f db3e
000002d0: e2e7 fc3e 9e22 253e 0312 d2be 3688 6a3d
000002e0: ffc8 063e 5c56 d8bd 70e8 07be 068d 8fbe
000002f0: 5c84 d43e ada5 89be 9cc1 fbb8 a0ba 6cbe
00000300: 2ed2 cfbd a419 dfbd 3681 a3bd fd32 91bd
00000310: 3557 b5bb b4ac 32bc 08fd 903e 915d 4ebe
-0.083573386 0.49401283 -0.0070990426 0.051589243 0.35706463 -0.31494617 -0.38390172 -0.12620491
0.105046764 0.3313535 0.3710503 0.47636113 -0.064169765 -0.35655865 0.37886044 -0.19432023
0.2687723 -0.26535156 -0.29184422 0.10803586 0.28371644 -0.15210561 -0.082824476 -0.36597022
-0.34187534 0.38519433 0.26749122 0.17837651 0.382965 0.06395701 -0.2816671 -0.05950087
-0.00484735 0.040288627 -0.32655522 0.2278476 0.1108417 -0.2261907 0.4028906 -0.18152606
0.14031257 -0.00077767664 -0.30598488 0.31006405 0.20295829 0.1358836 0.044896714 0.04190436
-0.2723928 0.39003655 -0.14212231 0.26214972 0.22860542 0.08144754 -0.022316668 -0.1937105
0.3222669 0.16081558 0.43326637 -0.25723982 -0.21837595 0.06327372 0.24822024 0.2047447
-0.41278967 0.041382466 0.050759465 0.24905413 -0.11959787 0.31878087 -0.29512608 -0.076687545
0.25363743 -0.21551001 -0.0727777 0.5133544 -0.033705685 -0.25527045 0.18466593 0.4320654
0.14128071 0.33556408 -0.0765915 0.43519273 -0.078701146 0.21254514 -0.06675211 0.47130406
0.33348632 0.013286471 0.110524826 0.25573584 -0.059116893 -0.26916754 0.52384907 0.39328986
0.20510152 0.272289 -0.24276316 -0.18443125 -0.04594864 -0.19639826 0.43497807 -0.17938147
0.31113485 0.011573665 -0.19230579 0.38671166 -0.14343113 -0.0775113 0.09913437 -0.4060347
0.03868008 0.16982941 -0.04776049 0.13973121 -0.0011879085 0.49620205 -0.16420107 0.1522282
0.37954515 -0.30710566 0.41866338 0.41852763 0.1306596 -0.3135349 0.30863154 0.30596343
0.29457486 0.35759276 0.25538388 -0.16428633 -0.3019069 -0.12777534 0.3166043 -0.28443018
0.42472768 0.07620729 -0.103813045 -0.23318467 -0.37125656 -0.027393859 -0.4144969 0.20356417
-0.21497728 0.38077793 0.005870318 0.25235713 0.25657094 0.052590463 -0.33588493 -0.01655332
-0.18758506 0.2123155 -0.21886504 0.583282 0.0089588035 -0.05633133 -0.3790844 0.09048097
0.23917443 -0.2388502 0.042933535 -0.19245996 -0.20974664 0.15495282 -0.08765844 -0.038886894
-0.19429095 0.3252436 0.024180181 -0.3385895 0.5434459 0.23721188 0.24423455 -0.11248079
0.2576929 -0.37052983 -0.25575247 0.42809615 0.49395663 0.16126487 -0.41029367 0.057258807
0.13162611 -0.10563347 -0.13272262 -0.2803728 0.41507232 -0.26884213 -0.00012004675 -0.23118067
-0.101475105 -0.108935624 -0.079836294 -0.07089803 -0.0055340775 -0.010905433 0.28318048 -0.2015288

2.weight f4 [500, 200]
00000000: faed 7bbd ea08 6cbd 9ff3 393d a97f 37bd
00000010: 2dac 5abd 9e20 843d 0cec 12bd e99a e33c
00000020: bd64 6cbd be1b 263d 78fa dcbc 8b64 91bd
00000030: 67ff 5ebd ff25 033a bf06 623d 097c 50bc
00000040: ffec 25bb fa3f fbbc b9a9 66bd 6a65 403c
00000050: 1465 67bd 14d3 85bc 3559 6bbd 63f0 313c
00000060: 4402 773d d246 033c b058 ecbc 511d 70bd
00000070: f0d0 f23c db0f 17bd 155f 5e3d f12a fcbc
00000080: 0bdb 323c 225d 3bbd d02d 643d cd8e cabb
00000090: c598 4fbc 0071 56bc 74c8 97bd 6c5b b6bc
000000a0: b9db 7bbd 07b4 2fbd 7684 f7bc 37f3 5b3d
000000b0: eb73 99bb 1b48 3dbd a819 153d dd96 b73c
000000c0: 0d12 04bd 124b 5ebd 47ed 0cbd 72c9 28bd
000000d0: a937 dcbc 5ddb 653c 2c17 9bbd df4c d33c
000000e0: 580f a53a d9d1 7d3c 3488 1a3d 3d5f 423d
000000f0: fa5e 74bc 80a0 d9bb ad9e 62bd 0a99 9ebc
00000100: 8a21 923c 237b 86bd 5921 d2bc dc6c 06bd
00000110: d7ac 06bd 8d8d 2c3d 7ed6 88bd 30fe 523d
00000120: d83d b83c bd78 36bd c7c6 223c 4c84 613d
00000130: fbcd 8ebd 745b dd3c 1365 0d3d bd6f 5d3d
00000140: 2865 753d 5034 73bc e128 42bd a4aa 53bd
00000150: 1d05 093d 0460 113d 098c 7abd 188e dabc
00000160: c835 4f3d 3232 c3bc 3d3d df3c a00a 373d
00000170: 9ed5 98bd 4303 01bc 85bd 95bd aba0 5d3d
00000180: 4ae7 41bd fba4 163d cc2a 8f3c 1020 35bc
00000190: 6ab0 84bc c7a9 4b3c c31e 64bd 6787 c13c
000001a0: 19ad 41bd 586c 3eb9 18f8 203d 8b91 a6bc
000001b0: 907c 903d d791 4bbd 3aee 42bd bc25 63bd
000001c0: 2388 9fbc a128 fe3c eb7b 8bbd 4a47 b2bb
000001d0: 5005 d9bc 5430 583d 59a5 643d 30a8 7fbd
000001e0: 1158 e6bc 382c 243d f3ad 6f3d d869 7abd
000001f0: 49b4 da3c 7ac1 813d 788f 033c 4d69 27bd
00000200: a153 0ebd 5604 7c3d 1b8a 3f3c 71db 77bd
00000210: c245 003b 4b75 d0bc c7f1 503d f263 05bd
00000220: 6fdb 48bd 24a5 b03c 69e0 63bd 6f42 8ebc
00000230: 6531 4c3d edf1 3bbd c16d 92bd f6c3 11bd
00000240: e5ba 1bbd 4f56 123c f025 2c3c 1a50 b6bb
00000250: 45cb bdbc e572 3838 f3b9 3abd 907c 863d
00000260: 3619 683d 7bc0 32bd 2380 6cbd 8617 37bd
00000270: e805 9fbd 0183 1f3d d29b 59bd 4716 81bd
00000280: 9596 133b 477d 0c3d 41ba e2bc 36ef 91bb
00000290: f811 78bc 291d 93bd 83ed 913c 1d1d 5e3d
000002a0: 65b6 fbbc 53dc 6a3d 8f58 41bc a2ce 5a3d
000002b0: 8d04 db3c 72e6 da3c 6d45 4b3d e7c2 843d
000002c0: e497 743d b7b6 bb3c 52f4 28bc d9df b5ba
000002d0: 13ec 29bd d7b3 003d fe01 5e3b d138 823c
000002e0: 0931 62bc 509b 3b3d 6e5c 6a3d 8cd1 5cbc
000002f0: c75f 983c 63e0 923c 6f5f 7fbd e18f 613d
00000300: 22e2 39bd b447 e3bc 5b2a 1a3c 4ebb 823d
00000310: d910 10bd 0613 77bc 4b26 4c3d 19b4 dc3a
00000320: bac9 80bd f8e9 fbbc 3620 52be cea5 103c
00000330: c276 893d fff7 0d3e 9c1d a13c 4c79 043e
00000340: 0192 093e b91a db3d 975e d93c 1654 6ebd
00000350: dc80 953e 029a 203c b77d 193e ddb6 c7bc
00000360: a4fc 8d3d 57e1 c9bd b7af 42bd 1a88 8ebd
00000370: 8ea7 a93c 2bed 183e ce7f e8be 0a68 903d
00000380: 6ab6 c93e 6fbc 3d3e cf11 f83d af29 bcbd
00000390: 6e7d 26bd b874 803c 5bbe 943c 554c b7bd
000003a0: 66ff eebd 679c 9d3d f77f 293d c7de 4a3d
000003b0: 63a1 063d 414a 87be 3a75 86bd ac58 cd3b
000003c0: eb6d 183d e3b2 613d 37fd e5bc 7535 17bc
000003d0: 8ff3 b0bc 2762 ad3b 6831 cfbe c3c3 19bd
000003e0: 63bd 473d de54 24bc c431 9dbe 5db7 463e
000003f0: c0a8 b2bd d200 07bf e007 06be 1bed 033e
-0.06150625 -0.05762569 0.04539835 -0.04479948 -0.053386856 0.06451534 -0.035869643 0.027783828
-0.05771326 0.0405538 -0.026974902 -0.07099255 -0.05444279 0.0005002915 0.055182215 -0.012724885
-0.0025318263 -0.030670155 -0.056314204 0.011742929 -0.05649288 -0.016336001 -0.05745812 0.010860535
0.060304895 0.00801249 -0.028850883 -0.05862171 0.029640645 -0.036880355 0.054289896 -0.030782195
0.010916482 -0.045743115 0.055707753 -0.006181574 -0.0126707 -0.013088465 -0.0741128 -0.02226039
-0.06148884 -0.042896297 -0.03021453 0.053698745 -0.004683008 -0.046211343 0.03640142 0.022410804
-0.032243777 -0.05427081 -0.034405973 -0.04120774 -0.02688201 0.014029351 -0.07572779 0.025793491
0.0012593074 0.015491926 0.03772755 0.047454108 -0.014915222 -0.0066414475 -0.055327106 -0.019360084
0.017838258 -0.06566455 -0.025650667 -0.03281866 -0.032879677 0.04212718 -0.06681536 0.051511943
0.022490427 -0.04454874 0.0099350875 0.05505781 -0.069728814 0.027021147 0.03452022 0.05406164
0.059910923 -0.014844015 -0.047402266 -0.051676407 0.033452142 0.03549196 -0.061168704 -0.026679084
0.0505884 -0.023827646 0.02725088 0.044687867 -0.07462619 -0.007874313 -0.073115386 0.054108303
-0.047339715 0.03677843 0.017476462 -0.011055008 -0.016197402 0.012430615 -0.0556934 0.023624135
-0.04728422 -0.00018160173 0.0392991 -0.020333072 0.070550084 -0.04969963 -0.04759047 -0.05545591
-0.019474095 0.031025233 -0.06810745 -0.005440627 -0.026491791 0.052780464 0.05582175 -0.062416255
-0.028118165 0.040081233 0.0585155 -0.061136097 0.026697295 0.06335731 0.008029811 -0.040871907
-0.034747723 0.061527573 0.011690642 -0.06051201 0.001957283 -0.025446555 0.051011827 -0.03256602
-0.049037393 0.02156312 -0.055633936 -0.017365662 0.049851794 -0.045885015 -0.0714984 -0.035587274
-0.038020033 0.00893171 0.010507092 -0.005563748 -0.023168216 4.3976022e-05 -0.04558749 0.06566727
0.056664668 -0.043640595 -0.05773939 -0.044700168 -0.077647984 0.038943294 -0.053127117 -0.06303077
0.0022520174 0.03429916 -0.027676703 -0.004453565 -0.015141003 -0.07183296 0.01781345 0.054226983
-0.03072662 0.057339024 -0.011800899 0.053419717 0.026735568 0.026721213 0.049626756 0.06482487
0.059715167 0.022914274 -0.010312157 -0.0013875916 -0.041484904 0.03142151 0.00338757 0.015896233
-0.013805636 0.045802414 0.057217054 -0.013477694 0.018600358 0.017929262 -0.062346872 0.055068854
-0.045381673 -0.027744152 0.009409512 0.06383382 -0.035172317 -0.015080219 0.049841207 0.0016838341
-0.06288476 -0.030751213 -0.205201 0.008828593 0.067121044 0.13864134 0.01966744 0.12936896
0.13434602 0.10698456 0.026534362 -0.05818566 0.29199874 0.009802343 0.14989363 -0.024379188
0.06932953 -0.09857433 -0.047530856 -0.06959553 0.02070978 0.14934222 -0.45410007 0.07051094
0.39396983 0.18528913 0.12112772 -0.09187638 -0.040646963 0.015680656 0.018157175 -0.08950106
-0.11669807 0.07695847 0.041381802 0.049528863 0.032868754 -0.2642384 -0.06565328 0.006266674
0.0372142 0.05510224 -0.028074844 -0.009229054 -0.021600513 0.0052912417 -0.4046738 -0.03754021
0.048764598 -0.01003 -0.3070203 0.19405885 -0.08723593 -0.52735627 -0.13088942 0.12883417

2.bias f4 [500]
00000000: 3f47 94bc 6851 b83c 2fe2 47bd 25b0 f8bc
00000010: 1723 1c3e 8be1 c03d 5355 333c 514e c33b
00000020: 3ec0 0dbd 10ac 9bbd 0a78 dcbc d763 7dbd
00000030: afaf 5ebc 03b6 2a3c 2d92 23bd 1966 8dbd
00000040: 2317 9f3d 27e2 393d 0911 1b3e 9022 3dbd
00000050: 8f3c 7e3d 78a2 923d de01 923d 5ec6 803d
00000060: 0f23 7fbd 07e4 9e3d 8b00 1abd 1893 8fbc
00000070: 6ec7 c73d 684d 093e 37db 203d 612c d33b
00000080: 9622 b03d a9e0 973d e408 ab3c 9e9e e03c
00000090: 2f74 4d3d 9b08 01bd 80f9 c63d 7447 0c3d
000000a0: eccf 11bc 4541 533d 64f0 d03d 1d6d 83bd
000000b0: bbfa 63bd 5343 9b3d 2e6d 203c 4bab e13d
000000c0: 7784 9c3d aefd 25bd 073d d23c 072b 943c
000000d0: 6df6 c33b 6565 84ba 3c28 8a3d ae2e 36bd
000000e0: 65c0 ac3d 9c1f 9f3c d21c 9fbd 0835 36bd
000000f0: 99ab d53d 9696 8b3d e593 f43d d08b d43c
00000100: 140f b0bc 20c9 ebbb aee8 663d 95a7 513d
00000110: 2009 06bd 6177 993d cbae 373d ab82 273e
00000120: b146 9cbc 8ab1 a4bd 6c1d 69bd 48ed c6bc
00000130: ed84 bf3d 14ee 69bc 1802 2a3d ec77 963d
00000140: f31b 193d 7c51 843d 41f6 053b b464 85bd
00000150: 2a57 10bd 2a7a f8bb e6e1 0c3d ea27 393d
00000160: e864 313d 9b5c 073d f24d 9dbd 0fe5 9b3d
00000170: 9b96 efbc 82c2 973d 4bf1 57bd e142 063d
00000180: 8290 ce3c 3f0d 9f3d 91ee 133e 3358 243e
00000190: 9efa b73d 61cc 02bb 96b9 453d 37ec c83d
000001a0: 7ccf 9b3c 2cae d93d b02e e3bc 2db2 7dbd
000001b0: 323a 703d 2d3f 353e 42b7 4e3b f5bb 1ebc
000001c0: e637 43bc 87b1 52bd 9a1a 573d c303 73bd
000001d0: f816 12bd 4a54 e63d 65eb 5c3e 7611 5e3d
000001e0: 36e9 5f3c 0cdd c6bb d4f0 8f3d 3e16 ddbc
000001f0: a7ed 293d 6dfa 34bd 0c40 b53c 82cd 3c3d
00000200: 31c4 9dbc 8415 ca3c 2afe d3bb c749 08bd
00000210: c1d8 bd3d 189f 8f3d 8a41 48bb 6f9c be3d
00000220: 759d 683d 3aaf 2b3e 0505 bf3d ee0d e3bc
00000230: e3d2 313d 7993 803d 62b8 88bc 3339 41bd
00000240: f2a0 e83c 0752 803c 3316 593d b148 573d
00000250: 6c1d d33b dceb 2abd 9301 eb3d 2b6f e63d
00000260: 7e67 1bbd 48e1 c13d 5185 2c3d 9b87 f03d
00000270: ab56 4c3d 98b4 d03c a8ee 1a3d d955 38bd
00000280: 9649 8e3c 2591 c83d 9120 aa3c 1eb8 e03d
00000290: 4ba0 9c3d 6147 2f3e 29fa f0bc 5d81 9d3d
000002a0: 987d 7f3d 8454 3f3d 094e b5bc 09db 8a3c
000002b0: 07ff 79bd 63dd 033c 4931 7b3d 7781 6b3d
000002c0: f6b6 a13d c505 bbbb 9eaa 0a3d be4e 2fbd
000002d0: 59bc bcbb c08c 98bc ad50 843d 645f 78bd
000002e0: b06f 2d3c a177 debc 36b9 ef3d 827a 4ebd
000002f0: 4852 0f3e 7eb9 92bc 2204 563e 38be 9d3d
00000300: c4ab 24bd f776 af3b f668 313d a504 a9bb
00000310: 115b 543c 5db6 563d 9ad0 253d 1f9f 013d
00000320: ae6c f83d 9c83 ce3b 7160 12bd 0bf4 873d
00000330: 7ae8 133e 4c61 133c 840b b53d e220 18bb
00000340: 654f 403d 3065 cdbc 5f1d 643e fcf1 10bd
00000350: a424 523e 768d b43b b3a1 b83d e086 343d
00000360: a6ca 973c f801 9cbd eab1 803d 1baa 32bd
00000370: 71b7 d0bc e670 ba3d 4347 603d a97f 8b3d
00000380: 82cc 323e 90fb cebc d4dc a33d ab99 7fbd
00000390: 3616 25bc 232c 0e3e 05b7 913d 6cc3 123b
000003a0: 0fc0 62bd 4e4b 723b acfc b63d 4f06 8d3c
000003b0: dd6a db3c 949d 3f3d d063 103d c356 a5bc
000003c0: 2ce7 903c b747 78bd 9640 953d 7e55 d93c
000003d0: 075f 78bd acbe c1bc 2e8f fc3c 7401 9e3c
000003e0: 08c2 18bc f720 03bc 1155 babc 5bb8 7fbd
000003f0: c138 e63d 0edb 093e 7a6c 0f3d 499e f8bc
-0.018100379 0.022499755 -0.04879969 -0.03035743 0.1524776 0.09418019 0.010945636 0.005960264
-0.034607165 -0.07601178 -0.026912708 -0.061862793 -0.013591691 0.010419372 -0.039934326 -0.06904239
0.07768085 0.04538169 0.15143217 -0.04617554 0.062069472 0.07159895 0.071292624 0.062878355
-0.062289294 0.077583365 -0.037598174 -0.017526194 0.09754835 0.13408434 0.03927156 0.0064444994
0.08600347 0.074158974 0.020878263 0.027419385 0.05015963 -0.031502347 0.09715557 0.03424783
-0.00889967 0.051575918 0.10202101 -0.06417296 -0.055659037 0.075812005 0.0097916555 0.11019
0.07642453 -0.04052513 0.025663866 0.018086923 0.005980304 -0.0010101019 0.06745955 -0.04447811
0.08435134 0.019424252 -0.07769169 -0.04448417 0.1043312 0.06815831 0.11942271 0.025945574
-0.021491565 -0.007195607 0.056374244 0.05118521 -0.032723546 0.07493473 0.04484443 0.1635844
-0.019076677 -0.080416754 -0.056912825 -0.024283066 0.093515255 -0.014277954 0.041505903 0.07347092
0.03738017 0.064608544 0.0020440968 -0.06513348 -0.035239376 -0.0075829225 0.03439512 0.04520408
0.043309122 0.0330473 -0.076808825 0.07612049 -0.029246619 0.07410146 -0.05272035 0.032778624
0.025215391 0.07766198 0.14446475 0.1604927 0.08983348 -0.0019958245 0.04827269 0.098106794
0.019019835 0.10628924 -0.027732223 -0.0619375 0.05864925 0.17699881 0.0031542336 -0.009688367
-0.011915183 -0.051438835 0.052515604 -0.05932976 -0.035666436 0.112465456 0.21574171 0.05421587
0.013666442 -0.0060688313 0.07028356 -0.026988145 0.04148641 -0.044184137 0.022125266 0.046094425
-0.01925859 0.024668463 -0.0064695077 -0.033273485 0.09269858 0.070127666 -0.0030556642 0.09307181
0.056790788 0.16766062 0.09327129 -0.027716603 0.043414008 0.06278128 -0.016689483 -0.04717369
0.028397057 0.015664114 0.052999686 0.05255956 0.0064427163 -0.04172884 0.1147491 0.11251672
-0.037940495 0.09466797 0.042119328 0.11744615 0.04988734 0.025476739 0.037825257 -0.045003746
0.017369073 0.09793309 0.020767482 0.109726176 0.07647761 0.17117073 -0.02941616 0.0769069
0.062375635 0.04671146 -0.022131937 0.016950147 -0.06103423 0.008048388 0.0613263 0.057496514
0.07896225 -0.005707475 0.03385412 -0.042799704 -0.0057597575 -0.018621802 0.064607 -0.060637847
0.01058571 -0.027156653 0.11705248 -0.0504098 0.13996232 -0.017910715 0.20900014 0.07702297
-0.04020287 0.005354758 0.04331299 -0.0051580244 0.012961165 0.05242001 0.04048214 0.03164589
0.12130104 0.00630231 -0.035736505 0.066383444 0.14444152 0.008995365 0.08840087 -0.002321296
0.046950717 -0.025072664 0.22276829 -0.035387024 0.2052179 0.0055100275 0.09015217 0.04407394
0.018529247 -0.07617563 0.062839344 -0.043619256 -0.025478097 0.09103565 0.05475546 0.068114586
0.17460826 -0.025266439 0.08001104 -0.06240241 -0.010076096 0.13884024 0.07114986 0.0022394313
-0.055358943 0.0036971155 0.08934912 0.017214922 0.026784355 0.046781138 0.03525144 -0.020182973
0.017688356 -0.060615268 0.072877094 0.026530024 -0.0606375 -0.02365049 0.030829992 0.019287802
-0.009323604 -0.008003465 -0.022745641 -0.062431674 0.11241294 0.13462469 0.03501556 -0.030348914

4.weight f4 [100, 500]
00000000: cf69 2e37 0a9b bb3e f8ad 1dbc aca0 95bd
00000010: 38e5 4bbc 8694 353d c73a 8fbc 3119 893b
00000020: f6c0 c13d e9ea ef3c f42c ecbc 105f 4e3e
00000030: 0000 2cbd 1de7 073c 8506 103d 6379 1d3e
00000040: fee6 45bd 3db9 133d f0fc 85bc 08a0 43bc
00000050: 37a9 5a3d 6adb 0f3e ccf7 11bd 4ff2 cabc
00000060: a5c0 a23c 5bf7 e6bd f99b 2abc 93b2 4bbd
00000070: 16d7 07bd a328 e53d f14f 1cbd 95bb 07bb
00000080: 30fa 453d 6fcb 96be c0d1 01bd 0c13 a0bd
00000090: 22a4 3b3d 9a60 23bd 49ea bdbb 34bf d63d
000000a0: 329a 343d 8ca0 393d b48f 3f3d e9d6 0a3d
000000b0: ca84 293d 07c7 9bbd 1e4d 6fbe 8ba2 3dbd
000000c0: 8234 bfbd cce3 7ebc 7a20 4bbb 37c0 0bbd
000000d0: 7f38 5dbe 4324 cbbc 7f47 8fbe 5d59 0e3e
000000e0: 22b6 143d 92e2 a1ba 6d2f fb3c bf72 3b3e
000000f0: aba0 16bd ddec f93c f955 bc3d f9c1 bebd
00000100: b146 333d 70f8 41be 8ef0 dabd ec0a fb3a
00000110: cce0 043e a65d 413c 1389 b2bd 59a3 a43b
00000120: 0efb 343d d428 96bb d9d6 40bc 3c5d bfbc
00000130: acbd 8dbd a4ca 34bd f56a abbc a9f6 31bc
00000140: 4581 d0ba 26e1 9fbc fe27 853c 59f8 f8bc
00000150: 20b5 eb3d e745 32bc 7ed0 bb3d cbbb ea3c
00000160: 70ce 363d 9b99 1f3e 8d5c 29bd d285 87bc
00000170: 615c 9fbb b2d5 b0bd 448c 2ebd a2bb 0bbd
00000180: 43bf 863d ed21 48bc aa3c 113e 16ae 083d
00000190: ab61 a9be e235 e1bc 5d8c 973e be07 9d3e
000001a0: 1c82 053d 804a 563b eda6 a03c d1e8 42bd
000001b0: 07c7 14be 08a7 b93d 7f2d 213c a520 1c3d
000001c0: 82e6 803d f110 f13c 4843 15bd 861f 43bc
000001d0: 407b 453d 023f 8ebe 0db3 5a3d 7958 07bd
000001e0: 5d05 eabc cbf5 303d 3b1c 72bd 5560 343d
000001f0: eb66 073e f9f9 163d 284d b33b e557 a8bd
00000200: 236c da3c 625d 7cbd 30df 26bc 5ca3 233e
00000210: 51b3 93bd ae4b 983c 173d 13be 1adb b13d
00000220: c628 efbd e46e d13d 52c4 d53d 489e 12bb
00000230: 7206 a1bc 5682 c8bd fbce 3f3a f965 323d
00000240: 1f96 4a3c 4371 cabd 135c 253e 901d dc3b
00000250: 34a2 2fbd d046 283c d9f9 88be 46a7 06bd
00000260: 2b59 64bc 05b6 61bd 65e8 a43c 25f4 8bbe
00000270: d70d ce3c 84f5 bd3d 8c94 c4bc b54b f63b
00000280: b467 3f3d 6489 62be 9f5b b93c 1d57 5bbd
00000290: bef1 ec3d 4d42 a13c 5d89 0bbd 2534 ffbc
000002a0: 2306 7ebc 361a ea3d 5cbf 81bc 7971 803d
000002b0: bcc8 31bd 67ed da3c e2b7 ba3d faaf 62bd
000002c0: 9569 d83c 45fe 0e3c 2a61 973e c952 b73c
000002d0: 566f 8c3c a53d 05be 0549 f53d 62dd 573c
000002e0: 3fa5 c5bc 1de4 98be 629f ab3d 1627 cebc
000002f0: 8881 c0bd 72cd 2bbd a518 80bd 9a7d c23d
00000300: 08ea cabc 139d 1b3e ef39 0e3e 4859 1c3d
00000310: 3afe 9ebd be8c d63c d057 243d f206 a93e
00000320: afd9 6e3d 3aaa 0d3e de4f baba 3bc8 0a3d
00000330: ae9f 6abd bcfa 32bc b8dd 883d d3aa 083d
00000340: af15 9a3c df43 11bd 6fce e9bd ea65 bd3c
00000350: 8df6 973d 129b 2dbd 5d56 f6bc d5b7 8b3c
00000360: eee7 1b3d 176a 27b8 c5e6 c53d 0757 c3bc
00000370: d8ab c7bb be65 8fbd ddc8 60bd 6b6c 893d
00000380: 2266 633c 6f3a 353c 0806 973d 303a 2fbc
00000390: 0e91 68bc 25dc 953d ae8b 95bd de7e ffbb
000003a0: 040f 6c3c 14ba d33d a58a 7e3b 76ec f0bc
000003b0: 03b4 d2bc 6b74 8bbd 7e30 0cbe 9cb5 efba
000003c0: 0d36 19bd 7fb1 0d3b e4ff 9f3d 52d6 62bc
000003d0: e819 e53c acc9 053d 11eb b6bd 27ee bd3d
000003e0: faaa 33bd aedf 3f3d e745 0cbc 5577 1ebd
000003f0: adc9 fc3d 29ec 2e3e 85c0 ff3c 59db 0dbd
1.0395844e-05 0.36641723 -0.009623997 -0.07306036 -0.012444787 0.044331096 -0.017484082 0.0041839113
0.094606325 0.029286819 -0.02883003 0.20153451 -0.041992188 0.008294848 0.035162468 0.15378337
-0.048315994 0.03606533 -0.016355962 -0.01194001 0.053384032 0.14048544 -0.03563671 -0.024773745
0.01986725 -0.11277648 -0.010413163 -0.04973085 -0.033164106 0.111893915 -0.038162176 -0.0020711173
0.0483343 -0.29452083 -0.031694174 -0.07816133 0.045810826 -0.03988705 -0.005795751 0.10485688
0.044092365 0.045319125 0.046767905 0.03389636 0.041386403 -0.07606321 -0.23369262 -0.04629759
-0.09336187 -0.015557241 -0.00309947 -0.034118857 -0.21603583 -0.024797564 -0.27984235 0.13901277
0.036306508 -0.0012350848 0.030662263 0.18305491 -0.03677432 0.030508453 0.091960855 -0.09314341
0.04376859 -0.18942428 -0.106904134 0.0019153035 0.12976378 0.011802113 -0.08717551 0.0050243554
0.044184737 -0.004582504 -0.011769974 -0.023359887 -0.06920943 -0.044138566 -0.020925025 -0.010862031
-0.0015907666 -0.019516539 0.016254421 -0.030391859 0.11509156 -0.010880924 0.09170626 0.028654
0.044630468 0.1558594 -0.04134803 -0.016543303 -0.0048633073 -0.08634509 -0.042614236 -0.034114487
0.06579449 -0.01221512 0.14183298 0.033369146 -0.33082327 -0.027491514 0.29599276 0.3066997
0.032594785 0.0032698214 0.019610846 -0.047585312 -0.14529048 0.09065062 0.009837507 0.03811707
0.06293966 0.029427024 -0.036441118 -0.011909371 0.048213243 -0.27782446 0.053393412 -0.03304336
-0.02856701 0.043203156 -0.059108954 0.044037182 0.13222854 0.036859486 0.005471844 -0.082198896
0.026662892 -0.061612494 -0.010185048 0.15980285 -0.07211936 0.018590774 -0.14378773 0.086843684
-0.11677699 0.10226229 0.10437836 -0.0022372175 -0.019656394 -0.097904846 0.0007316914 0.04355428
0.012364893 -0.09884884 0.16148405 0.0067173913 -0.0428793 0.010270789 -0.2675312 -0.032874368
-0.013937275 -0.055105228 0.020130346 -0.27334705 0.025153084 0.09275344 -0.023996614 0.007516349
0.04672976 -0.22122723 0.022626696 -0.053549875 0.11569546 0.019684935 -0.034066547 -0.031152794
-0.015504393 0.114307806 -0.015838318 0.06271643 -0.043404326 0.02672453 0.09117104 -0.055343606
0.026417533 0.008727615 0.29566318 0.022378342 0.017142933 -0.13011797 0.11976818 0.01317534
-0.024126647 -0.29861537 0.08380009 -0.025165122 -0.09399706 -0.041943975 -0.062547006 0.09496613
-0.024769798 0.15196638 0.13889287 0.038171083 -0.077633336 0.026190158 0.040122807 0.3301311
0.058313068 0.13834468 -0.0014214476 0.03388236 -0.05728119 -0.010924038 0.066829145 0.033366036
0.018809168 -0.035465118 -0.11416327 0.023119885 0.07420073 -0.042384215 -0.030070478 0.017055431
0.038062982 -3.9914707e-05 0.096631564 -0.023845209 -0.0060934834 -0.07001828 -0.05487906 0.06710132
0.013879331 0.011061295 0.07374197 -0.010695025 -0.01419474 0.0731738 -0.073020324 -0.007797106
0.014407877 0.10338226 0.0038839963 -0.029409628 -0.025720602 -0.06809314 -0.13690373 -0.0018288377
-0.037405062 0.0021620688 0.07812479 -0.013845043 0.027966455 0.032663032 -0.08931554 0.092739396
-0.043864228 0.046844177 -0.008561588 -0.038688023 0.12343154 0.17082275 0.03121973 -0.034633014

4.bias f4 [100]
00000000: 138b 7f3d c67e 3e3d 51f2 253d 637e 35bc
00000010: 8e42 c73d 45ab d2bc 7dd6 8d3c 5b1c 033d
00000020: 5441 0b3d 6102 afbc 0067 f93b 1d17 93bb
00000030: 87a0 063d 889e cf3d e313 243d fe40 9c3c
00000040: ba83 32bd 44a9 753c 4d0c 603d 3057 8e3c
00000050: ffd7 b63c 1aa5 12bd 6056 d1bc 5130 f8bc
00000060: 2185 16bc c41f c73c 1b64 df3c 26f7 cb3d
00000070: 0f1d 3d3c 9c8f b03c 34cc 7d3b f742 993d
00000080: 86cc a63d 6018 a33d 42d1 9e3d 511e 843b
00000090: 30c9 253d 3fc7 ca3c 2f3f 923d 83c0 253d
000000a0: b3bd 163d 99f5 a63d 36e9 793c 4d31 a0ba
000000b0: 253a 3f3d 0597 bf3c e7e0 e63d aecf 24bd
000000c0: 4ff9 f5bc c8d0 15bd 6b3b 273d 233a e63c
000000d0: 186a 25bd e948 9a3d 7bd1 2dbd 9d8e 0e3d
000000e0: 237f 4ebd 6f68 743d e409 1bbc b857 783d
000000f0: f9c8 023d 18c9 153d 1488 dd3d 113c 14bd
00000100: a165 903c 7a41 c33d 79af 2e3d 80bc 03bd
00000110: ab79 a43d b1c1 8a3d b7d9 5bbc 6307 adbc
00000120: 9860 803d 9357 8c3d a4ad 3a3d 50f6 24bd
00000130: a743 b63d ad6d 753d 67a6 d13c 211e 833d
00000140: a6de 753d 39b7 7c3d d6b9 a1ba e343 483d
00000150: ecd3 3ebc 8a25 1d3d a8b3 713d a167 963d
00000160: 42aa 923d 7069 45bd 8486 ebbc d385 bb3c
00000170: aa67 413d 8cf4 983d 8017 d1bb 7bf4 543d
00000180: fa71 8fbc f554 7b3c 5f3e e6bc fff1 2ebb
0.06238849 0.04650762 0.040514294 -0.011077496 0.09729491 -0.025716433 0.01731419 0.032009464
0.03399785 -0.021363439 0.0076111555 -0.0044888393 0.032867935 0.10137659 0.040058028 0.01907396
-0.043582655 0.014993969 0.05469923 0.017375559 0.022319792 -0.035801984 -0.025553882 -0.030296477
-0.009187014 0.02430714 0.027269414 0.09959249 0.011542573 0.021552853 0.003872645 0.07483476
0.081444785 0.079636335 0.077547565 0.0040319343 0.04047507 0.024753211 0.071409576 0.040466797
0.036802005 0.08152313 0.015253356 -0.0012221724 0.04668631 0.023387441 0.112733655 -0.04023712
-0.030026106 -0.036576062 0.04082815 0.028103894 -0.040384382 0.07533438 -0.042436104 0.034803975
-0.050414216 0.059669908 -0.009462807 0.06063053 0.031929944 0.03656873 0.108169705 -0.036190096
0.017626585 0.09533973 0.042647813 -0.03216219 0.08031019 0.06775225 -0.0134186065 -0.021121686
0.06268424 0.06852641 0.045575753 -0.040273964 0.088996224 0.059919048 0.025592042 0.06402231
0.060026787 0.061698172 -0.0012338709 0.048892867 -0.011647206 0.03836588 0.059009224 0.073439844
0.0716138 -0.048196256 -0.028750665 0.02289096 0.047218002 0.074685186 -0.0063809752 0.051990967
-0.017510403 0.01534008 -0.028105913 -0.0026694534

6.weight f4 [3, 100]
00000000: 1fde 9d3e b393 aabe 8ee6 953c 274f 60bc
00000010: 1533 933e bda5 acbd a9f8 15be cb93 9b3d
00000020: 6e9f 9cbd 31a4 c93d 0bad c9bc 9aa7 e8bb
00000030: 2c4a ae3e bcfa 613e 072e 003c fc6d b23e
00000040: 30bb 97bd b321 113e 0513 3abe 2fd0 cfbc
00000050: 6afd a83e f710 c53d c3ae 053e ba73 8cbe
00000060: 2684 223d 493e 9b3e f9bd 2f3d 0b8c 783e
00000070: 0028 bf3c b025 6bbb a355 a3bd dfc8 24be
00000080: 3fd9 5e3c d537 7f3d b5e8 253e c0d0 693d
00000090: 5fee 2b3e cd8a afbb 787b 3dbe 1fc8 f83d
000000a0: 90de 883e c287 133e 3854 e6be 7041 f1bd
000000b0: 3557 18be b120 93bd 9361 c33d 4903 15bd
000000c0: 53ea 8b3c ead4 433d 10d0 6d3d 37ff e7be
000000d0: f7b2 afbb 0020 943e 5dac 2dbd 9b23 0a3e
000000e0: ecf6 bcbd ccff 40bd 6d09 3ebe d081 d23d
000000f0: d0ac 93bd 2c33 3d3b 23c5 843e 031a a73d
00000100: 8f32 85bd ca82 c43e 914c d8be 20f8 853d
00000110: 9b6d bbbe 0dbf 1e3e 6f3e b8bd 1ffc 523c
00000120: 024d f23d 1dc5 46be 5bbf 193e 544b 923d
00000130: b769 423e cf45 ccbe 2b9f 8bbd 0f85 fc3d
00000140: 824e 25be 9f64 19be 53d9 07bd af11 96bd
00000150: 46b1 1ebd 043d 113e 9194 19be b7b3 2f3e
00000160: 311e eb3d 70bb 90bc 896c 7cbd 3313 a7be
00000170: 07c6 1c3e 94ad 363e 1a15 7a3c 08a9 423e
00000180: 88b5 36bd d833 703b 74d7 823d 14d1 c9bc
00000190: 68f1 02be 5f94 95be cc07 6c3d 4dfa fdbc
000001a0: 1a8d b03d 67f6 23b9 e3dd c7bd 9adf a3bd
000001b0: b521 54bd f698 a8bd 38a3 cd3c f876 763c
000001c0: 8814 a33d 3a26 153e c5d7 9a3d 47fc 32be
000001d0: 6812 ac3d cc3e 7a3e 3fcd 17be e048 e4bb
000001e0: a131 45be 6703 62bc 63fa 3cbd a652 173d
000001f0: 8c7d d0bd 5dba 953d fe05 e5bc 02f1 1d3e
00000200: 5487 a63d a6df bdbd 27ed 0b3c 364e 58be
00000210: d83f 9cbd f32a c43d 0516 90bc f34f d1bc
00000220: 3901 59bd b700 adbd 6140 86be 729a 5b3e
00000230: d8c5 183e 6420 5b3e 1280 963c 0321 5dbe
00000240: f686 27be 8368 c4bd 8a13 943c eee8 d33c
00000250: 2073 1b3c 675f 623b 74a1 2c3e 0333 ebbd
00000260: fd53 80bd 45a9 333e c04a a1bc 927e 643e
00000270: 4cc8 71bc bb72 9d3d f881 31be e061 8d3e
00000280: 0037 2a3c af10 1ebd ed30 763e 4a37 bdbb
00000290: 517c e13c d2de 47be e481 38be d0db 423c
000002a0: 3eb0 89be d258 613e 1f9d 52bd 5276 953d
000002b0: 432b 653e 9e8c 84bd 99e2 263e 23e2 753d
000002c0: b11a 393e 6b5d 89be 802b d1bd 08af 693e
000002d0: 32f0 e7be d9e7 50be 4a7a 653c 3f5a 42be
000002e0: 90e7 78bb bbdb 753e d0ec e7bd 1db4 823e
000002f0: 9cad ed3d 75b9 f13c a6a2 843b 9f4f 58be
00000300: 3623 893e d6de 6d3e d7b8 a63c 38f7 9a3e
00000310: b0ee 6b3d e463 4abd 80b3 13bc 7829 93bd
00000320: 85b3 f93c 9123 74bc d8f0 bf3d ed1a a0bd
00000330: a933 59bd cd39 2a3d d1de 45be 8d34 4dbd
00000340: dde0 713d 673c a43c 00f3 293b bff7 8d3d
00000350: 3a25 49bd 5755 6dbc cd1f 4dbb bed4 743d
00000360: 7724 36bd e2f0 eabd 86d8 42be c8c5 9c3d
00000370: 9859 c2bd 8e80 223d 28b0 17be 4f1d e8bc
00000380: f66e 9f3d e743 19bd e653 3b3d abe6 2d3c
00000390: 5315 c2bc c0f4 893d 7d99 28bd ebea adbd
000003a0: a8ea 25be dc50 4cbe 894a a4bd 4a22 87bd
000003b0: 6265 10be 00b2 dcba 1a0b b4bd 3f33 e4bd
000003c0: 7d67 50bd 2d7d 97bd f27a 4fbd 0b4f c3bd
000003d0: 756d 02be 2b86 c4bd 9f09 1abe a0ca f83c
000003e0: d5ce c7bd a5af 9fbd 002a 35be 5a9f 263c
000003f0: f394 32bc 7e7c 1bbd 1afc cb3b 9038 a7bd
0.30833527 -0.3331581 0.018298414 -0.013690746 0.2874991 -0.084300496 -0.14645638 0.07596549
-0.07647596 0.0984577 -0.024618646 -0.007100058 0.34040964 0.22068304 0.007823474 0.34849536
-0.0740875 0.14173011 -0.18171318 -0.025367824 0.3300584 0.096223764 0.13054948 -0.27432042
0.039676808 0.30320957 0.04290578 0.24272172 0.023334503 -0.0035880618 -0.07975318 -0.16092251
0.0136016 0.062309105 0.16202052 0.057083845 0.1679015 -0.0053571225 -0.18504131 0.12147545
0.26732302 0.14407256 -0.4498613 -0.11780059 -0.14877017 -0.0718397 0.09540095 -0.036380086
0.017079508 0.047810473 0.058059752 -0.453119 -0.0053619104 0.28930664 -0.042400707 0.13490145
-0.09226784 -0.047118947 -0.18558283 0.10278666 -0.07210696 0.0028869612 0.25931653 0.08159258
-0.06503784 0.38381034 -0.42245916 0.06541467 -0.3660706 0.15502568 -0.08996283 0.012877493
0.11831094 -0.1941113 0.15014403 0.07143274 0.1898564 -0.3989701 -0.06817468 0.123300664
-0.1614323 -0.1497979 -0.03316624 -0.07327592 -0.03874328 0.14183432 -0.1499808 0.171584
0.11480368 -0.017667502 -0.061626945 -0.32631835 0.15309916 0.17839652 0.01526382 0.19009793
-0.044606715 0.0036651995 0.06388751 -0.024635829 -0.12787402 -0.2921476 0.057624623 -0.031003142
0.08620663 -0.00015636683 -0.097591184 -0.08001633 -0.051789958 -0.082323 0.025102243 0.015043013
0.079629004 0.14565364 0.07560686 -0.17479049 0.08401948 0.24438018 -0.14824389 -0.006966695
-0.19257213 -0.0137947565 -0.046137225 0.036944054 -0.10180196 0.073109366 -0.027956959 0.15423968
0.081312805 -0.09271173 0.008540428 -0.21123585 -0.07629365 0.095785044 -0.017588625 -0.025550818
-0.05297968 -0.08447402 -0.26220992 0.21445635 0.14919221 0.21399075 0.018371616 -0.21594624
-0.16360077 -0.095902465 0.018075723 0.025867905 0.009487897 0.0034541728 0.16858464 -0.11484339
-0.062660195 0.1754504 -0.019688964 0.22313908 -0.014757227 0.07687899 -0.17334735 0.27613735
0.01038909 -0.03859013 0.24042101 -0.0057744132 0.027525099 -0.19518593 -0.180183 0.011893228
-0.26892275 0.22006539 -0.051419374 0.072979584 0.22379784 -0.06472133 0.16297378 0.060030114
0.18076588 -0.26829085 -0.10213375 0.22820675 -0.45300442 -0.20400943 0.014006207 -0.18979739
-0.003797982 0.24009602 -0.11324465 0.2552804 0.11605379 0.029507378 0.0040477095 -0.21124123
0.26784676 0.23229536 0.02035181 0.30266738 0.057600677 -0.04941167 -0.009014964 -0.07185644
0.03048111 -0.014901058 0.09372109 -0.07817636 -0.053027783 0.04155903 -0.19323279 -0.050098944
0.059052337 0.020048333 0.0025932193 0.069320194 -0.049107768 -0.014485679 -0.0031299472 0.0597732
-0.04446837 -0.11471726 -0.1902791 0.07654911 -0.09489745 0.03967338 -0.14813292 -0.028334288
0.07784836 -0.037418272 0.04573431 0.010614078 -0.023691809 0.067361355 -0.041162003 -0.08492073
-0.16202796 -0.1995272 -0.08022029 -0.06598337 -0.14101174 -0.0016837716 -0.0879118 -0.11142587
-0.050879944 -0.07396922 -0.05065436 -0.095365606 -0.12737067 -0.09595903 -0.15042733 0.030370057
-0.09756247 -0.077971734 -0.17691803 0.010169828 -0.01089977 -0.037960522 0.006225121 -0.08165085
