my_model.ckpt (torch, 612382 bytes, 7 tensors)

0.weight f4 [200, 6]
-0.09303011 -0.14288487 -0.28019202 -0.012338957 0.105779715 -0.19877975 0.29613185 -0.20515947
-0.1442012 0.12087973 -0.091934666 0.42699474 0.13968493 -0.18704809 -0.14771062 0.38850296
0.10952183 0.13823198 -0.12520565 -0.22873706 0.39138436 -0.16744268 -0.0040426487 0.22036614
-0.31806216 -0.2863514 -0.3248205 -0.06780207 0.12436708 0.28646734 0.4105998 0.14833145
0.01922302 0.22764802 0.45231417 -0.20945658 -0.35290173 0.16105479 -0.0610323 -0.3883915
-0.00020274668 -0.06313101 0.15678363 -0.11985494 0.1517531 -0.29455632 0.03127077 0.19602099
-0.15344147 0.25603136 0.33393988 0.32663676 -0.34315646 -0.17597657 -0.3698137 0.016681924
-0.3122444 -0.004024955 0.25292128 0.06074497 0.3434448 -0.09016307 -0.17119643 -0.3630613
0.20984809 0.11342658 -0.19389604 0.0273328 -0.32828605 -0.24898721 0.39692315 0.32024872
0.01761427 -0.43782312 0.3164156 -0.26547176 -0.32845438 0.45402208 -0.3173377 0.29781112
0.015173151 -0.38071004 -0.30777156 -0.08642445 0.2090813 0.3696702 0.095233545 0.0029963418
-0.090712674 -0.1124171 0.41414085 -0.17655113 0.12522177 0.16686265 0.1295829 0.06943078
-0.28220454 0.26673457 -0.39373186 0.11476368 -0.36978152 0.0035754663 -0.34045303 0.28486016
-0.10766098 -0.3981976 0.37854803 0.45122084 0.15153033 0.26364368 -0.2877217 -0.3959564
-0.16255851 -0.16394304 0.06034378 -0.3453939 -0.22323409 0.15539138 -0.31103337 0.41552973
-0.36477816 0.034405157 -0.11449894 0.039088294 -0.05475383 0.38289508 -0.20160344 -0.34042928
0.14347896 0.28700554 0.38078365 -0.040198077 -0.32586518 -0.27536827 -0.13606745 -0.39380148
0.013272095 -0.07297225 -0.04079862 -0.11834814 0.30053055 0.36734587 0.032137327 0.062334277
-0.2876941 -0.08248578 -0.017050233 -0.16133127 0.06154135 0.023959622 -0.15742464 -0.006063877
-0.11319222 -0.37075347 0.2866807 -0.32903162 -0.17456275 0.24856968 -0.09615885 -0.23941918
0.3776044 -0.028395057 0.42076942 -4.7697802e-05 -0.029527653 -0.07641005 -0.014458239 0.3216071
-0.100851394 -0.43684292 0.06668561 0.11832179 0.4070223 0.36538073 0.08316838 -0.032647133
-0.24345097 0.16738077 -0.022025561 -0.35766387 0.40545294 -0.07856207 -0.17280708 0.39425284
-0.027276516 -0.19318964 0.21111432 0.037129868 0.416516 0.34788293 0.35053602 -0.22023155
-0.23230092 0.19259733 -0.32963496 -0.32794908 0.22226618 0.2244473 0.1538379 0.31787956
0.21193679 -0.1502062 -0.35222957 -0.12285998 0.41793746 -0.44276682 -0.21598303 0.040658798
0.21741919 0.03815311 0.39934886 -0.41456842 -0.29919374 0.26302224 -0.15773688 0.37202045
0.34592554 -0.24433824 0.22982761 -0.09031596 0.4164182 0.18444449 -0.17864329 -0.051748607
0.014598863 0.12933671 -0.18004242 0.16309701 -0.13472609 -0.29647225 0.11421116 -0.37742376
-0.29017806 -0.3226825 0.14620452 -0.34553316 0.24787608 0.07117948 0.44679946 -0.3414187
-0.30926168 -0.24124908 -0.35194644 -0.2743653 -0.29604793 -0.22067457 -0.2829422 0.07142808
-0.24570799 0.0740924 -0.11608893 -0.2912774 0.20529088 0.35672024 -0.19433229 0.031200895
00000000: 9286 bebd 6950 12be 5475 8fbe 5629 4abc
00000010: 09a3 d83d eb8c 4bbe 989e 973e 5315 52be
00000020: 7ba9 13be cb8f f73d 3e48 bcbd 0e9f da3e
00000030: 9109 0f3e 8989 3fbe 7441 17be dce9 c63e
00000040: fb4c e03d af8c 0d3e e935 00be 0c3a 6abe
00000050: 8863 c83e 1876 2bbe 3278 84bb a9a7 613e
00000060: 0bd9 a2be a79c 92be df4e a6be d0db 8abd
00000070: 2bb4 fe3d d9ab 923e 233a d23e 33e4 173e
00000080: 9879 9d3c 901c 693e b995 e73e c97b 56be
00000090: 89af b4be 8ceb 243e 01fd 79bd 40db c6be
000000a0: 6698 54b9 d54a 81bd e38b 203e 8276 f5bd
000000b0: 2a65 1b3e 16d0 96be c715 003d bab9 483e
000000c0: c31f 1dbe 8b16 833e 2bfa aa3e ef3c a73e
000000d0: 34b2 afbe 3433 34be 3958 bdbe 88a8 883c
000000e0: 7fde 9fbe c5e3 83bb e67e 813e b8cf 783d
000000f0: ffd7 af3e 6aa7 b8bd 1e4e 2fbe 2ce3 b9be
00000100: 6be2 563e 324c e83d af8c 46be 09e9 df3c
00000110: 1c15 a8be 81f6 7ebe 8339 cb3e a4f7 a33e
00000120: cd4b 903c 5a2a e0be 3a01 a23e eaeb 87be
00000130: 2c2b a8be 9575 e83e 167a a2be b37a 983e
00000140: cf98 783c 6dec c2be 3c94 9dbe 4dff b0bd
00000150: 6919 563e 6a45 bd3e ce09 c33d 465e 443b
00000160: 91c7 b9bd f03a e6bd 450a d43e d2c9 34be
00000170: 233a 003e 0bde 2a3e 61b1 043e ba31 8e3d
00000180: 1d7d 90be 6f91 883e 3997 c9be 3809 eb3d
00000190: 0154 bdbe 5f52 6a3b dc4f aebe 31d9 913e
000001a0: 5c7d dcbd 8ee0 cbbe 0cd1 c13e 6b06 e73e
000001b0: c42a 1b3e 4efc 863e 4250 93be ccba cabe
000001c0: bd75 26be afe0 27be 0a2b 773d 78d7 b0be
000001d0: 7a97 64be eb1e 1f3e c43f 9fbe 50c0 d43e
000001e0: 34c4 babe 6cec 0c3d 6c7e eabd 0c1b 203d
000001f0: 8d45 60bd d30a c43e 2271 4ebe bf4c aebe
00000200: 26ec 123e 64f2 923e 13f6 c23e bda6 24bd
00000210: cdd7 a6be 12fd 8cbe 4455 0bbe 59a0 c9be
00000220: 3373 593c 7a72 95bd 741c 27bd 8260 f2bd
00000230: 24df 993e c214 bc3e 6ea2 033d 3a52 7f3d
00000240: a44c 93be 4eee a8bd eeac 8bbc 0634 25be
00000250: c812 7c3d f846 c43c ed33 21be 7db3 c6bb
00000260: 53d1 e7bd 66d3 bdbe d0c7 923e d576 a8be
00000270: 94c0 32be 0d89 7e3e eeee c4bd 4d2a 75be
00000280: 5d55 c13e c09c e8bc 176f d73e 200f 48b8
00000290: fae3 f1bc df7c 9cbd 40e2 6cbc b0a9 a43e
000002a0: 2d8b cebd e0a9 dfbe 7792 883d b252 f23d
000002b0: 3a65 d03e 2f13 bb3e 2f54 aa3d 00b9 05bd
000002c0: 364b 79be dd65 2b3e f36e b4bc b81f b7be
000002d0: 8797 cf3e 27e5 a0bd 57f4 30be 82db c93e
000002e0: 0073 dfbc 81d3 45be 5a2e 583e 7d15 183d
000002f0: 9641 d53e b61d b23e 7579 b33e 6184 61be
00000300: 4be0 6dbe 3c38 453e eac5 a8be f1e8 a7be
00000310: bf99 633e 83d5 653e af87 1d3e 1cc1 a23e
00000320: f505 593e a7cf 19be 6f57 b4be 039e fbbd
00000330: e6fb d53e 55b2 e2be a82a 5dbe d789 263d
00000340: 23a3 5e3e 6f46 1c3d 7477 cc3e 5042 d4be
00000350: ec2f 99be daaa 863e c785 21be 7779 be3e
00000360: 271d b13e ce33 7abe ee57 6b3e 93f7 b8bd
00000370: c434 d53e 04df 3c3e 44ee 36be 59f6 53bd
00000380: 1230 6f3c d870 043e 0a5d 38be e702 273e
00000390: a3f5 09be 36cb 97be 8ae7 e93d b03d c1be
000003a0: 3892 94be a436 a5be a3b6 153e b9e9 b0be
000003b0: 3ad3 7d3e 8cc6 913d e6c2 e43e 6fce aebe
000003c0: 8c57 9ebe 000a 77be 5332 b4be 9c79 8cbe
000003d0: 9893 97be 84f8 61be cddd 90be e348 923d
000003e0: e09a 7bbe c2bd 973d 08c0 edbd 5022 95be
000003f0: c637 523e 09a4 b63e 0bff 46be 0599 ff3c

0.bias f4 [200]
0.45553365 0.08706319 0.19020806 -0.3643017 -0.21791404 0.38441512 -0.32928953 -0.014958128
-0.12050429 -0.3738608 -0.10374226 0.43409172 -0.06226798 0.032210734 0.2147114 -0.22783889
0.030432735 0.26033762 -0.06492094 0.16990384 0.44641438 0.35715076 0.3955306 -0.2973582
0.36202082 0.4205572 0.23184006 -0.2935046 -0.005604946 -0.40531066 0.357803 0.42161623
-0.21344587 0.08079192 0.10140722 -0.04764526 0.1397575 0.45114678 -0.23738366 0.36127204
-0.1536064 0.4204949 -0.23571129 0.3127517 0.3751543 0.115351655 0.44280738 0.16210806
-0.14506455 0.29993722 -0.14482242 0.4433037 -0.2552576 0.20053005 -0.17463371 0.027411565
0.39278412 0.06996544 -0.117572375 -0.3557272 0.18921383 0.4266454 -0.15030645 -0.08717447
0.21685494 0.22271812 0.2805064 -0.30382645 0.04310435 -0.24889529 0.40715584 -0.023321778
-0.009871229 -0.16609354 0.42697084 0.2563111 0.25317448 -0.15635423 -0.3439766 -0.10579275
0.39231944 -0.35125643 0.37047184 -0.0982392 0.42097035 0.19411354 -0.04073226 0.4224394
0.031921122 -0.23849867 -0.17147794 0.18916526 0.3939968 0.3257808 0.31823373 0.09437004
-0.28329927 -0.19613446 0.26226714 -0.22953266 -0.0516155 0.14189616 0.31913844 0.27618346
-0.025747852 0.059783075 0.04192311 0.3187558 0.27848288 0.41408154 0.35722622 -0.16855536
0.31517905 -0.15493095 0.15878327 0.42550746 0.21899109 0.01798474 -0.33092892 -0.3475087
-0.22216266 0.13347232 0.3223626 0.123035006 -0.03227118 -0.23587483 0.058352828 -0.32425877
0.44530118 0.37655723 -0.028169135 0.36639264 0.06462773 -0.0018396776 0.27931413 -0.23563574
0.31359586 0.34705427 -0.28371722 0.11668243 0.30635184 -0.038419213 -0.2111344 0.03984538
0.10113508 0.2000573 0.2581224 -0.18709752 -0.3988273 -0.08361907 -0.038980626 -0.33363187
0.3202235 0.24151275 0.35174036 0.41524947 -0.31726417 -0.2818814 0.26212162 0.38748088
0.43183285 -0.13270709 -0.07404167 0.14905205 0.20536302 0.42412993 -0.15645936 0.31693867
0.11515633 -0.16913801 -0.37697807 -0.3491415 -0.17681667 -0.14551078 -0.23394865 -0.33596745
-0.0133649325 -0.06746367 0.03471178 -0.3045099 -0.02799037 -0.30631945 -0.112079315 -0.37144002
0.16427538 -0.3293425 -0.36655378 0.24988146 -0.26831582 -0.23062465 0.16274582 0.13142565
0.12506579 0.3901801 0.3747052 0.08694073 -0.06272869 -0.23700798 0.084969886 -0.36536655
00000000: b53b e93e 304e b23d e7c5 423e c185 babe
00000010: dc24 5fbe 0fd2 c43e a398 a8be f012 75bc
00000020: f4ca f6bd af6a bfbe d276 d4bd 4541 de3e
00000030: b60c 7fbd 67ef 033d 4edd 5b3e 994e 69be
00000040: 124e f93c f94a 853e 45f5 84bd 46fb 2d3e
00000050: 6d90 e43e 77dc b63e fd82 ca3e 563f 98be
00000060: cb5a b93e 4653 d73e 7b67 6d3e 3c46 96be
00000070: b2a9 b7bb e184 cfbe f431 b73e 15de d73e
00000080: 8e91 5abe 3c76 a53d 97ae cf3d ad27 43bd
00000090: 971c 0f3e b6fc e63e b414 73be a6f8 b83e
000000a0: ff4a 1dbe 1c4b d73e 4d5e 71be fe20 a03e
000000b0: 3914 c03e 7d3d ec3d a6b7 e23e a8ff 253e
000000c0: cd8b 14be 5f91 993e 544c 14be b4f8 e23e
000000d0: 20b1 82be c057 4d3e 2ed3 32be 388e e03c
000000e0: 001b c93e 0a4a 8f3d c9c9 f0bd e021 b6be
000000f0: 45c1 413e 4471 da3e efe9 19be 8788 b2bd
00000100: 390f 5e3e 3810 643e 899e 8f3e 248f 9bbe
00000110: 308e 303d 68de 7ebe bb76 d03e 500d bfbc
00000120: efba 21bc 6d14 2abe ec9b da3e 353b 833e
00000130: 16a0 813e 531b 20be b31d b0be dfa9 d8bd
00000140: 18de c83e e2d7 b3be 7cae bd3e a231 c9bd
00000150: 6d89 d73e b3c5 463e dfd6 26bd fa49 d83e
00000160: b9bf 023d ff38 74be ea97 2fbe 8ab4 413e
00000170: f3b9 c93e becc a63e 88ef a23e 1445 c13d
00000180: 9a0c 91be 79d7 48be e147 863e 9c0a 6bbe
00000190: c66a 53bd 3a4d 113e 1d66 a33e eb67 8d3e
000001a0: 29ed d2bc 19df 743d 91b7 2b3d f633 a33e
000001b0: 4f95 8e3e 7f02 d43e 5be6 b63e c799 2cbe
000001c0: 265f a13e 38a6 1ebe 1598 223e 1ddc d93e
000001d0: 333f 603e bc54 933c 846f a9be a9ec b1be
000001e0: 9c7e 63be f8ac 083e b60c a53e c7f9 fb3d
000001f0: c92e 04bd 2c89 71be 6003 6f3d 3f05 a6be
00000200: 84fe e33e 1ccc c03e f5c2 e6bc d197 bb3e
00000210: 8b5b 843d 5621 f1ba 4302 8f3e 7f4a 71be
00000220: a38f a03e 19b1 b13e 6243 91be 33f7 ee3d
00000230: 26da 9c3e 775d 1dbd 9e33 58be e934 233d
00000240: e91f cf3d d2db 4c3e 9f28 843e 7e96 3fbe
00000250: 1833 ccbe 7a40 abbd 26aa 1fbd ccd1 aabe
00000260: 56f4 a33e 1e4f 773e 5017 b43e 949b d43e
00000270: 7370 a2be c252 90be ce34 863e e563 c63e
00000280: 3219 dd3e 5ee4 07be 29a3 97bd 1aa1 183e
00000290: af4a 523e 8f27 d93e e236 20be c945 a23e
000002a0: 15d7 eb3d 8432 2dbe 4503 c1be adc2 b2be
000002b0: 6e0f 35be c700 15be 3c90 6fbe ed03 acbe
000002c0: 97f8 5abc 652a 8abd f02d 0e3d b9e8 9bbe
000002d0: 0f4c e5bc e7d5 9cbe d789 e5bd 632d bebe
000002e0: ce37 283e 959f a8be f0ac bbbe ede0 7f3e
000002f0: b160 89be de28 6cbe d7a6 263e 7294 063e
00000300: 3f11 003e b0c5 c73e 5cd9 bf3e fb0d b23d
00000310: e677 80bd 38b2 72be b104 ae3d 5311 bbbe

2.weight f4 [500, 200]
0.06732785 -0.03894134 -0.06694185 -0.048829004 -0.039944198 -0.031343516 -0.04635539 0.04400776
-0.060736403 -0.05204798 0.06905753 0.0696981 -0.02649282 0.062469743 -0.035988748 0.033611406
-0.045763 -0.05000003 0.054186504 -0.06474955 -0.05077953 0.010687421 0.052125093 0.05789808
-0.063711636 0.02518168 0.0059093847 0.051251497 0.008334161 -0.035201292 0.00013960723 -0.0087692505
-0.00072243914 -0.047898892 0.04924926 -0.06946031 -0.013131905 -0.066704504 0.046103142 -0.036072303
0.046790935 0.04779324 -0.006372005 0.025744898 -0.03466915 -0.064856336 -0.008448825 -0.049922347
0.030396923 -0.007870461 -0.015544028 -0.05937016 -0.061262656 -0.029165586 -0.06752123 0.04812228
-0.06959987 -0.0410045 0.022116508 0.01098561 0.011979003 0.042669985 -0.056571424 0.05285793
-0.04297436 -0.05548364 0.06377319 0.056200415 0.0181894 0.06993145 0.068303026 -0.013462412
-0.05297327 -0.026251731 0.037193287 -0.035029333 0.0676327 0.04526124 -0.028659496 0.061422586
-0.04239625 0.032808635 0.042231828 -0.066630274 0.031072168 0.04553196 -0.028199388 -0.022921717
0.0395902 0.020230386 0.03667093 0.061741766 0.06745675 -0.0035520017 -0.01866142 0.060277294
-0.04388732 0.030493947 0.0571208 -0.012069206 0.00072376255 0.06818651 -0.026643021 0.021143371
-0.068399474 -0.015008949 -0.021040129 0.032028336 -0.06455692 -0.059221156 0.02135264 -0.051355246
-0.013168901 0.035953768 0.045268945 -0.050443374 -0.021117063 -0.020685801 -0.03898898 -0.043330614
0.020316148 0.0389746 0.015164462 0.062415615 0.022750128 -0.06984804 0.015678948 -0.05789134
0.0526533 -0.019297728 -0.06455243 -0.021689545 0.017995028 0.06543333 -0.025403298 -0.041552395
0.051680375 -0.0030297094 -0.026264273 0.036247455 -0.060472097 -0.059002917 -0.055741385 0.006243019
0.024424495 -0.035752583 -0.024023931 -0.019449154 0.061571237 -0.03256155 -0.038670223 0.0051766867
-0.016897744 0.036154907 0.061854422 -0.053617008 0.044663522 0.062930614 -0.069883235 -0.0014436477
-0.011980479 -0.061848495 -0.06560386 0.05492764 0.013611697 0.007235965 0.05480081 0.060300924
-0.017726334 -0.060635258 -0.012013758 -0.045286614 -0.033673782 -0.061760873 0.0215489 -0.003184321
-0.041644737 -0.043255936 -0.053374957 0.033308014 0.0011307831 -0.014466654 0.06397803 0.04335231
-0.002779728 -0.06554445 0.039103687 -0.05186143 0.032313332 -0.04241186 0.007445713 -0.009106881
0.069056645 -0.05291098 0.05609863 -0.069885984 -0.052145973 -0.029184788 -0.05706424 0.0018935315
-0.031709943 -0.050447647 0.05327399 0.060316063 -0.0044826125 0.051898863 0.059454683 0.0280008
-0.0025700475 0.004945469 -0.023952553 -0.045958012 -0.04389548 0.043092676 0.012441067 -0.016590105
0.03188476 0.049050108 0.037719484 0.023978464 0.028246347 -0.0025497074 -0.061000958 0.023761576
-0.06377022 -0.049126707 -0.030371163 0.016164118 -0.02769677 -0.0058730287 0.04580904 -0.05474188
-0.027256327 -0.04820153 -0.05574715 0.026969677 -0.03560244 0.00801494 -0.049124386 0.047805816
0.06288531 0.0053848503 0.019919604 -0.02634474 -0.02219711 -0.06536422 0.002991263 0.05016555
-0.04860364 -0.029097326 0.06922995 0.0006018486 -0.009299475 -0.032531038 0.0007709923 -0.029525049
00000000: 2fe3 893d f480 1fbd cf18 89bd ec00 48bd
00000010: 879c 23bd 0f62 00bd 26df 3dbd 7b41 343d
00000020: bcc6 78bd 4330 55bd 096e 8d3d e1bd 8e3d
00000030: 7807 d9bc 46e0 7f3d f068 13bd 1dac 093d
00000040: fc71 3bbd d5cc 4cbd abf2 5d3d 699b 84bd
00000050: 32fe 4fbd 4b1a 2f3c 1f81 553d 8a26 6d3d
00000060: 3f7b 82bd d049 ce3c 83a3 c13b 17ed 513d
00000070: 018c 083c 3b2f 10bd 8863 1239 e7ac 0fbc
00000080: 1262 3dba a131 44bd 98b9 493d 3541 8ebd
00000090: 3427 57bc 5f9c 88bd a6d6 3c3d 8dc0 13bd
000000a0: daa7 3f3d d8c2 433d 41cc d0bb f7e6 d23c
000000b0: 3d01 0ebd 66d3 84bd f16c 0abc 607b 4cbd
000000c0: f802 f93c 1bf3 00bc 61ac 7ebc 202e 73bd
000000d0: 8dee 7abd abec eebc 9248 8abd de1b 453d
000000e0: 608a 8ebd 56f4 27bd ae2d b53c fdfc 333c
000000f0: 9543 443c b9c6 2e3d 70b7 67bd 8f81 583d
00000100: e205 30bd d042 63bd 859b 823d 6832 663d
00000110: f001 953c 3838 8f3d 75e2 8b3d 7391 5cbc
00000120: 80fa 58bd df0d d7bc fd57 183d eb7a 0fbd
00000130: 0383 8a3d da63 393d 52c7 eabc 4096 7b3d
00000140: b1a7 2dbd 5962 063d 48fb 2c3d 7475 88bd
00000150: 0f8b fe3c b87f 3a3d 6702 e7bc 53c6 bbbc
00000160: 5529 223d 32ba a53c 4234 163d efe4 7c3d
00000170: c426 8a3d b3c8 68bb d6df 98bc 53e5 763d
00000180: 31c3 33bd 71ce f93c 80f7 693d ebbd 45bc
00000190: e2ba 3d3a 5ea5 8b3d 7742 dabc dd34 ad3c
000001a0: 0615 8cbd 18e8 75bc 595c acbc 2530 033d
000001b0: 6b36 84bd e291 72bd bbeb ae3c e159 52bd
000001c0: 60c2 57bc 4244 133d ee6b 393d b69d 4ebd
000001d0: b1fd acbc 4575 a9bc e9b2 1fbd 717b 31bd
000001e0: 0d6e a63c d5a3 1f3d 5d74 783c 84a7 7f3d
000001f0: 7a5e ba3c 7d0c 8fbd 2371 803c 781f 6dbd
00000200: fdaa 573d 4516 9ebc 1034 84bd 46ae b1bc
00000210: 4f6a 933c e901 863d 941a d0bc d832 2abd
00000220: cdae 533d 178e 46bb 2c28 d7bc 3678 143d
00000230: 97b1 77bd 0bad 71bd 1451 64bd 3d92 cc3b
00000240: e115 c83c 4d71 12bd d6cd c4bc d553 9fbc
00000250: 1f32 7c3d 435f 05bd ab64 1ebd 32a1 a93b
00000260: 236d 8abc 2b17 143d 105b 7d3d 829d 5bbd
00000270: 19f1 363d c4e1 803d f11e 8fbd c738 bdba
00000280: c549 44bc d954 7dbd 515b 86bd cefb 603d
00000290: 9803 5f3c ad1b ed3b d076 603d 1afe 763d
000002a0: d136 91bc ad5c 78bd 5ad5 44bc 757e 39bd
000002b0: 85ed 09bd f8f8 7cbd 5287 b03c 0bb0 50bb
000002c0: ac93 2abd 232d 31bd b39f 5abd fc6d 083d
000002d0: c936 943a 8b05 6dbc ea06 833d 3192 313d
000002e0: 192c 36bb 2b3c 86bd 302b 203d a76c 54bd
000002f0: fc5a 043d 0fb8 2dbd 2bfb f33b 0735 15bc
00000300: 926d 8d3d 2fb9 58bd adc7 653d 6220 8fbd
00000310: 0497 55bd f014 efbc 31bc 69bd 6030 f83a
00000320: 49e2 01bd 31a2 4ebd d435 5a3d fa0d 773d
00000330: e1e2 92bb e793 543d c186 733d ef61 e53c
00000340: 3e6e 28bb 9a0d a23b 2538 c4bc 783e 3cbd
00000350: bfcb 33bd f281 303d 9ed5 4b3c f9e7 87bc
00000360: 9899 023d c4e8 483d bf7f 1a3d 7c6e c43c
00000370: e264 e73c fe18 27bb 24dc 79bd a3a7 c23c
00000380: f699 82bd 1639 49bd f2cc f8bc 9d6a 843c
00000390: 56e4 e2bc 8972 c0bb 43a2 3b3d 0639 60bd
000003a0: a948 dfbc f86e 45bd 2057 64bd 83ef dc3c
000003b0: ddd3 11bd 1851 033c a736 49bd 08d0 433d
000003c0: 03ca 803d 6673 b03b 702e a33c edd0 d7bc
000003d0: b7d6 b5bc addd 85bd 1109 443b 647a 4d3d
000003e0: 9c14 47bd 845d eebc 6fc8 8d3d 60c5 1d3a
000003f0: d35c 18bc 443f 05bd 6b1c 4a3a 84de f1bc

2.bias f4 [500]
-0.020312902 -0.06863641 0.0032198217 0.063378274 0.0220662 0.115468614 -0.028211348 -0.060513
-0.018712139 0.008278555 0.0039205253 -0.051224537 0.072496206 -0.0026943507 -0.05590407 0.0842436
-0.0044791386 0.034146786 -0.050849896 0.069959 0.024700202 0.08539955 0.009108211 -0.07561526
-0.004177673 -0.001374981 -0.040678725 -0.007394104 0.031866815 0.035897963 0.0014365825 0.08116748
-0.017819291 0.038701244 0.094904535 0.056562185 -0.07164466 0.05689962 0.06861745 -0.0317961
0.087218694 -0.06286358 0.016922297 -0.009982117 -0.0490442 0.0076922947 0.039956596 0.07039122
0.034006853 -0.015326176 -0.044374153 0.028315645 -0.063065745 -0.030382609 0.09778684 0.028769864
0.068766914 -0.0067014294 -0.0017525756 0.074650384 -0.02774991 0.0349681 -0.008614003 0.06404195
-0.039235607 0.08860098 0.043666195 0.03502851 -0.0385518 -0.028662253 -0.01852146 0.06414123
0.087229915 0.070192255 0.06372489 0.10672894 0.0431164 0.059868105 0.096162654 -0.03610263
-0.029646654 -0.06477873 0.047176603 -0.037755992 0.03824128 -0.04764517 0.00086771103 0.10262525
-0.020100448 0.069759525 0.083341956 0.052186597 -0.031616233 -0.016825639 0.010680591 0.011371186
0.020029552 -0.04839727 0.083768316 0.008591046 0.10260958 0.0006565636 0.10864477 0.023143217
0.066210136 0.040063675 0.05779938 0.08717988 0.02421108 -0.0009510044 -0.02943207 -0.04911172
0.021441173 -0.025000652 0.09933786 0.0049953456 -0.054346602 0.037898857 0.014993692 -0.011586085
0.04331338 0.038795765 -0.06397289 -0.00760163 0.019169068 0.047522724 -0.053255334 -0.061102197
0.0715517 -0.026403585 0.021387435 -0.00986899 0.06012301 0.08952707 -0.035800006 -0.03736781
0.04679644 -0.032158177 -0.020986047 0.012839665 -0.042541504 0.051666573 0.0949989 -0.023294868
0.021009117 0.0033797761 0.08803711 0.020736592 -0.00491086 -0.059721723 0.030707706 0.038955465
0.017426068 -0.051949743 0.040096343 0.030493956 -0.057598803 0.10668431 0.0503418 0.081821755
-0.03804334 0.082305364 -0.05076788 -0.013139449 0.112298295 -0.0200001 0.010254682 -0.05924286
-0.029412547 -0.014801827 0.09245927 0.09578954 0.018119061 0.060326017 -0.023240384 0.09016923
0.10176601 0.032260746 -0.024669977 0.021231072 0.044058345 0.018647425 0.03720836 0.06347443
0.028986925 0.066382244 -0.049080987 0.024572572 0.027401457 0.00484316 0.010602357 0.014973421
0.076654956 0.05482337 -0.012642859 -0.005504834 0.09798499 0.08188316 0.042893495 -0.063003026
0.0792274 0.053765763 0.05319491 -0.06694326 0.038497172 0.02952538 0.07386804 -0.04081799
0.026565498 0.03697765 0.10735047 0.05655817 -0.04483523 -0.038282372 0.035464313 -0.07086926
-0.030889384 0.04946757 0.028014226 0.026313249 -0.036595844 0.042615652 0.014326136 -0.031872828
-0.070140705 0.104046494 -0.065375835 0.028100085 -0.017725477 0.06402377 -0.052104052 0.054397393
0.10277693 0.045216236 0.08917344 -0.069169484 0.0665604 -0.025242029 0.05038864 0.05224012
0.022904394 0.06291037 0.107023604 0.0072829085 0.061413903 0.070053905 0.05804446 -0.034727495
0.046197094 0.046512954 0.06418761 0.1090159 0.016225666 0.052270338 0.10520742 0.046544075
00000000: 3e67 a6bc 3f91 8cbd a503 533b 78cc 813d
00000010: 2dc4 b43c cf7a ec3d 7c1b e7bc 7bdc 77bd
00000020: 334a 99bc c7a2 073c c077 803b d2d0 51bd
00000030: e478 943d b493 30bb abfb 64bd e987 ac3d
00000040: bdc5 92bb 80dd 0b3d fb47 50bd aa46 8f3d
00000050: 1458 ca3c f6e5 ae3d 9b3a 153c 2cdc 9abd
00000060: dce4 88bb b538 b4ba bc9e 26bd 3d4a f2bb
00000070: c786 023d be09 133d b64b bc3a 233b a63d
00000080: c3f9 91bc 3285 1e3d 4f5d c23d c0ad 673d
00000090: 6fba 92bd 930f 693d 4e87 8c3d a13c 02bd
000000a0: b79f b23d 9fbe 80bd a1a0 8a3c 098c 23bc
000000b0: 92e2 48bd a50f fc3b 87a9 233d 4629 903d
000000c0: c54a 0b3d a41a 7bbc acc1 35bd 36f6 e73c
000000d0: 9d28 81bd f3e4 f8bc 7744 c83d c7ae eb3c
000000e0: abd5 8c3d aa97 dbbb aeb6 e5ba 4de2 983d
000000f0: c753 e3bc b63a 0f3d bf21 0dbc 6d28 833d
00000100: 84b5 20bd 6e74 b53d 53db 323d 0e7a 0f3d
00000110: 7ee8 1dbd 1acd eabc 51ba 97bc 7a5c 833d
00000120: 99a5 b23d f5c0 8f3d 3282 823d b494 da3d
00000130: d29a 303d 4238 753d edf0 c43d 5ae0 13bd
00000140: 8add f2bc b6aa 84bd 413c 413d 07a6 1abd
00000150: e3a2 1c3d 9527 43bd 1a77 633a 302d d23d
00000160: b2a9 a4bc 15de 8e3d 30af aa3d 9dc1 553d
00000170: 0680 01bd ecd5 89bc a5fd 2e3c 364e 3a3c
00000180: 0415 a43c 373c 46bd b98e ab3d 75c1 0c3c
00000190: f924 d23d 3d1d 2c3a 2681 de3d d896 bd3c
000001a0: 2e99 873d cf19 243d 0bbf 6c3d 5d8b b23d
000001b0: 5156 c63c d34c 79ba 861b f1bc 5f29 49bd
000001c0: 66a5 af3c 2bce ccbc a671 cb3d ffaf a33b
000001d0: 8b9a 5ebd d53b 1b3d 1aa8 753c 90d3 3dbc
000001e0: 5f69 313d 4fe8 1e3d 3804 83bd 1817 f9bb
000001f0: 7308 9d3c 30a7 423d 4422 5abd 4c46 7abd
00000200: b389 923d 554c d8bc b434 af3c 8bb1 21bc
00000210: 8c43 763d f859 b73d 07a3 12bd fd0e 19bd
00000220: a0ad 3f3d 4bb8 03bd eeea abbc 755d 523c
00000230: 0040 2ebd 54a0 533d c98e c23d e1d4 bebc
00000240: 501b ac3c 3c7f 5d3b cd4c b43d c9df a93c
00000250: 48eb a0bb c49e 74bd ba8e fb3c c48f 1f3d
00000260: 1dc1 8e3c 41c9 54bd 103c 243d 76ce f93c
00000270: b9ec 6bbd 4e7d da3d 3433 4e3d 2a92 a73d
00000280: 55d3 1bbd b78f a83d fbf1 4fbd d846 57bc
00000290: a6fc e53d 40d7 a3bc 4103 283c a4a8 72bd
000002a0: 95f2 f0bc 5d83 72bc 495b bd3d 4e2d c43d
000002b0: 6d6e 943c 6a18 773d 9e62 bebc a5aa b83d
000002c0: b36a d03d d823 043d b118 cabc c9ec ad3c
000002d0: 8676 343d 7cc2 983c cb67 183d e2fe 813d
000002e0: fd75 ed3c 6af3 873d 2509 49bd 6b4c c93c
000002f0: 0579 e03c 5fb3 9e3b 82b5 2d3c 1453 753c
00000300: 46fd 9c3d 788e 603d fe23 4fbc e561 b4bb
00000310: 5bac c83d 5cb2 a73d 17b1 2f3d bb07 81bd
00000320: fa41 a23d 7d39 5c3d e8e2 593d 8c19 89bd
00000330: 36af 1d3d 36df f13c 2148 973d c430 27bd
00000340: e39f d93c e075 173d 90da db3d 8aa9 673d
00000350: 25a5 37bd facd 1cbd 0743 113d e723 91bd
00000360: bc0b fdbc 829e 4a3d 177e e53c e28e d73c
00000370: 86e5 15bd c08d 2e3d 2bb8 6a3c 158d 02bd
00000380: eea5 8fbd 5416 d53d c4e3 85bd 2632 e63c
00000390: 0535 91bc e51e 833d 0f6b 55bd cdcf 5e3d
000003a0: b67c d23d a934 393d 91a0 b63d bba8 8dbd
000003b0: d250 883d 5fc8 cebc 5264 4e3d bcf9 553d
000003c0: ffa1 bb3c 27d7 803d 312f db3d 77a5 ee3b
000003d0: 258d 7b3d 6c78 8f3d 07c0 6d3d 6b3e 0ebd
000003e0: 2a39 3d3d 5e84 3e3d cb74 833d ba43 df3d
000003f0: b0eb 843c 6c19 563d fd76 d73d 00a5 3e3d

4.weight f4 [100, 500]
0.04248699 0.041081652 -0.003064733 -0.03215333 -0.03502338 -0.0026020256 0.020447383 -0.015043775
-0.0034091435 0.035121195 -0.036806874 0.013381279 -0.022632616 0.0040964745 0.03498078 0.024000447
-0.027465228 -0.004088356 0.0010485621 0.03084411 0.0036049155 -0.032169398 -0.03385599 0.009805136
-0.037147727 0.03794679 -0.014451315 -0.048280947 -0.017380549 -0.024204837 0.014159172 -0.013096599
0.014833722 -0.0011914853 0.018165596 -0.03868055 0.015652189 -0.04782136 0.015507349 -0.014776334
0.024773473 0.016267901 -0.007417333 0.0035590462 -0.030737767 -0.04299763 0.012272838 0.016599907
-0.006339291 -0.016780144 -0.027791245 0.002658353 0.024506606 0.005095495 -0.017888078 -0.010369704
0.011711887 0.029772867 -0.037814796 0.012252624 -0.029008744 -0.028819038 0.04102879 -0.0432269
0.042064566 -0.017306961 0.0035191742 0.008933777 -0.029121326 -0.01219836 -0.0020365398 0.002150976
-0.03289458 0.0019623162 -0.038869333 -0.022067575 -0.013182174 0.02693756 -0.048419513 0.010134092
0.0084247505 0.012951765 0.040527057 0.038912307 -0.023418032 -0.020895591 0.013171576 0.033912588
-0.0029147065 0.02438439 -0.028600587 -0.01421485 -0.03081522 -0.0013133665 -0.017852228 -0.0048698555
0.01150723 -0.03956915 -0.013806161 -0.038605496 0.031678256 -0.025578333 0.022625454 0.03344438
-0.008221521 0.026250781 -0.026268478 -0.0071757855 -0.04346717 0.012061186 -0.029839115 0.010174044
-0.04160786 -0.017818147 -0.017192882 0.037241973 -0.008466017 -0.031063762 0.015834644 0.02041885
0.027949778 0.03521605 -0.0071049887 0.017479237 -0.011170931 0.026758794 -0.005463565 -0.009122326
-0.041374646 -0.03538965 0.04237116 -0.019654833 0.007932581 -0.019468552 -0.0346964 -0.008302819
-0.023637727 -0.044590008 -0.00455065 -0.024453338 0.004766361 -0.027457118 -0.020834671 0.027153596
0.027582321 -0.0312513 0.021461958 -0.01627296 0.021595528 0.042521402 -0.012130068 -0.014760273
0.014857493 -0.048373416 -0.027036669 -0.0045631733 -0.003923562 -0.007844279 -0.0045968555 -0.045059454
0.009662366 0.039891645 0.032729436 0.0358937 0.04221206 0.027241446 -0.007827484 -0.026831975
0.005546694 0.028831236 0.03548265 -0.015812965 -0.039134026 0.008144896 -0.017890137 0.020837199
0.032771166 0.035065565 0.0058826506 0.022481384 0.026399119 -0.027583206 0.010324341 0.01949654
-0.033004884 0.043827843 0.00746984 -0.022868307 -0.023986079 -0.032849193 0.021485504 0.019655645
0.042016037 0.034843843 0.030682985 0.0102431895 -0.038019903 0.0122366445 -0.031705603 0.013033008
-0.044480167 -0.032900736 0.009923774 0.017053496 0.028600441 -0.012861704 -0.024459247 -0.00317788
-0.007715639 0.020270482 0.007946309 -0.037789457 0.0047393264 -0.022077786 0.036460537 -0.029535647
-0.026551202 0.018374946 -0.020337492 0.038125385 -0.012952288 -0.034784973 0.012055159 -0.040551987
0.02406385 0.027215216 0.014767173 0.038306646 -0.009098006 -0.041886464 -0.022862272 -0.03776914
0.010159956 0.0014661308 0.01707129 -0.014998445 0.0330254 0.0119078485 0.0128670735 -0.03355922
0.017706616 -0.0109943235 -0.037842523 -0.03926693 -0.013474826 0.013736503 0.019329026 -0.009485535
-0.0021055476 -0.00074790895 -0.021867732 -0.043720853 -0.014857035 -0.0069790822 -0.018359778 -0.030410431
00000000: d706 2e3d 3c45 283d b0d9 48bb 36b3 03bd
00000010: ad74 0fbd bf86 2abb 4581 a73c 2a7a 76bc
00000020: f06b 5fbb 3edb 0f3d cec2 16bd 273d 5b3c
00000030: 0968 b9bc b83b 863b 0248 0f3d 969c c43c
00000040: c2fe e0bc 9ef7 85bb e86f 893a c9ac fc3c
00000050: 7240 6c3b 0fc4 03bd 94ac 0abd b9a5 203c
00000060: 3728 18bd 186e 1b3d 35c5 6cbc 3ec2 45bd
00000070: a761 8ebc 3949 c6bc dffb 673c 1e93 56bc
00000080: 2409 733c 9d2b 9cba 04d0 943c 7f6f 1ebd
00000090: 0539 803c 55e0 43bd 8912 7e3c 7018 72bc
000000a0: bdf1 ca3c 4344 853c 190d f3bb e33e 693b
000000b0: c5cd fbbc 481e 30bd 0314 493c 87fc 873c
000000c0: d4b9 cfbb 8376 89bc 77aa e3bc c337 2e3b
000000d0: 14c2 c83c 1cf8 a63b 058a 92bc b1e5 29bc
000000e0: 37e3 3f3c 3ae6 f33c b0e3 1abd 3bbf 483c
000000f0: bfa3 edbc e715 ecbc ce0d 283d b10e 31bd
00000100: e54b 2c3d 54c7 8dbc f2a1 663b fa5e 123c
00000110: d98f eebc a1db 47bc 7877 05bb 64f7 0c3b
00000120: 78bc 06bd 349a 003b 7335 1fbd 0fc7 b4bc
00000130: 0cfa 57bc 28ac dc3c 8a53 46bd 7609 263c
00000140: f707 0a3c a433 543c b3ff 253d 8362 1f3d
00000150: 2cd7 bfbc 3b2d abbc 98cd 573c ede7 0a3d
00000160: a904 3fbb c6c1 c73c c74b eabc 67e5 68bc
00000170: 3370 fcbc 4425 acba d63e 92bc 4f93 9fbb
00000180: d288 3c3c 4313 22bd 3c33 62bc cc20 1ebd
00000190: 0fc1 013d a789 d1bc 0459 b93c f9fc 083d
000001a0: 8fb3 06bc e10b d73c fe30 d7bc da22 ebbb
000001b0: a20a 32bd 489c 453c 2971 f4bc 09b1 263c
000001c0: 016d 2abd 5df7 91bc 16d8 8cbc 0a8b 183d
000001d0: 0db5 0abc 6e79 febc a8b7 813c 6f45 a73c
000001e0: eff6 e43c b43e 103d f7d0 e8bb 9e30 8f3c
000001f0: 4806 37bc 4235 db3c b407 b3bb cf75 15bc
00000200: 7678 29bd bdf4 10bd 628d 2d3d 2c03 a1bc
00000210: a8f7 013c 837c 9fbc d01d 0ebd 8c08 08bc
00000220: e8a3 c1bc 03a4 36bd 9e1d 95bb 5e52 c8bc
00000230: 222f 9c3b c0ed e0bc 79ad aabc 3871 de3c
00000240: 52f4 e13c 5d01 00bd fdd0 af3c df4e 85bc
00000250: 1be9 b03c ec2a 2e3d 31bd 46bc 12d5 71bc
00000260: d86c 733c 3423 46bd 017c ddbc ac86 95bb
00000270: 3991 80bb 4a85 00bc 38a1 96bb 4390 38bd
00000280: e64e 1e3c 6c65 233d 4d0f 063d 4605 133d
00000290: 8ee6 2c3d 7429 df3c d93e 00bc bbce dbbc
000002a0: 0bc1 b53b 7c2f ec3c 4156 113d 318a 81bc
000002b0: 004b 20bd 2b72 053c 568e 92bc c6b2 aa3c
000002c0: 0f3b 063d e9a0 0f3d 40c3 c03b e12a b83c
000002d0: f742 d83c 2df6 e1bc 6d27 293c 35b7 9f3c
000002e0: 2130 07bd d384 333d 8fc5 f43b 5156 bbbc
000002f0: 747e c4bc e08c 06bd 5e02 b03c e004 a13c
00000300: 0219 2c3d 6bb8 0e3d e25a fb3c 0dd3 273c
00000310: c2ba 1bbd 357c 483c bcdd 01bd 6688 553c
00000320: d630 36bd ecc2 06bd 5397 223c c6b3 8b3c
00000330: 794b ea3c e6b9 52bc c25e c8bc fb43 50bb
00000340: 79d3 fcbb 480e a63c 3c31 023c 1ec9 1abd
00000350: 5a4c 9b3b 79dc b4bc a557 153d bef4 f1bc
00000360: e881 d9bc 0e87 963c d09a a6bc 5d29 1c3d
00000370: d535 54bc b07a 0ebd 0083 453c d719 26bd
00000380: 8d21 c53c 72f2 de3c 03f2 713c 6ee7 1c3d
00000390: ce0f 15bc 2491 2bbd a949 bbbc d0b3 1abd
000003a0: f275 263c 302b c03a 17d9 8b3c 0abc 75bc
000003b0: a445 073d 2319 433c 6bd0 523c 6575 09bd
000003c0: 770d 913c 8921 34bc c300 1bbd 5cd6 20bd
000003d0: 84c5 5cbc 120f 613c e857 9e3c 3869 1bbc
000003e0: 3afd 09bb 520f 44ba f523 b3bc a314 33bd
000003f0: ec6a 73bc c9b0 e4bb 3f67 96bc 4c1f f9bc

4.bias f4 [100]
0.024089409 -0.02584218 0.017568585 -0.015295324 0.039569806 -0.021441096 -0.011634217 0.025113825
0.045079418 0.037505247 -0.0044173 -0.007778719 0.054382507 0.06850746 -0.01650524 0.00074768224
0.012984617 -0.030444894 0.06578678 0.06535055 0.039803147 0.0337874 0.024927692 0.036850933
0.0709487 -0.011344616 0.024825323 0.029810878 0.07034461 0.0062373555 0.031364825 -0.029628383
0.05179805 0.0041212537 0.032026198 0.008086354 -0.037530843 0.050490696 -0.038273122 0.038965356
-0.035181217 -0.021712406 -0.042007778 0.051000785 0.0045778765 0.06207786 -0.007845079 0.004133406
0.051949408 0.0052406075 0.023596982 -0.006058111 -0.03558012 0.02410585 0.017003777 -0.02150345
0.009438939 0.02533033 -0.0030309753 -0.0076931966 0.018663993 0.0036204802 0.019868465 0.023044333
0.03348445 0.0004425487 0.029716576 0.020230051 0.0059561436 -0.040073916 0.04652216 -0.032623384
0.040196348 0.046163253 -0.021765623 0.026222335 0.010832496 0.007610678 -0.009082065 -0.042551704
-0.021159364 -0.010713943 0.036754962 0.014785285 0.06898851 -0.035231546 0.06482357 0.039485976
0.037074976 0.064434715 -0.015349138 0.015093764 0.07672857 0.027269982 0.015262375 0.0069567966
0.007983712 0.018699484 0.065486826 -0.011956374
00000000: 2757 c53c fbb2 d3bc feeb 8f3c 3d99 7abc
00000010: f313 223d 3da5 afbc 719d 3ebc 82bb cd3c
00000020: 32a5 383d 1a9f 193d 00bf 90bb a0e4 febb
00000030: 31c0 5e3d a44d 8c3d ff35 87bc 1b00 443a
00000040: 6ebd 543c 9267 f9bc 38bb 863d 82d6 853d
00000050: a008 233d a864 0a3d 2935 cc3c 01f1 163d
00000060: 8d4d 913d c5de 39bc 7a5e cb3c f135 f43c
00000070: d610 903d bb62 cc3b 6778 003d 39b7 f2bc
00000080: 312a 543d 950b 873b e72d 033d a07c 043c
00000090: f1b9 19bd 55cf 4e3d 47c4 1cbd 239a 1f3d
000000a0: 2e1a 10bd 37de b1bc 5910 2cbd 33e6 503d
000000b0: 0302 963b 5b45 7e3d a588 00bc 8671 873b
000000c0: e7c8 543d 67b9 ab3b 754e c13c 1e83 c6bb
000000d0: 76bc 11bd a279 c53c 814b 8b3c 0128 b0bc
000000e0: c8a5 1a3c 8d81 cf3c 54a3 46bb 3617 fcbb
000000f0: 3be5 983c 9445 6d3b 31c3 a23c 78c7 bc3c
00000100: fe26 093d e205 e839 2d70 f33c 7eb9 a53c
00000110: c12b c33b 8c24 24bd 058e 3e3d 19a0 05bd
00000120: eda4 243d ae15 3d3d d24d b2bc 39d0 d63c
00000130: c87a 313c ff62 f93b f1cc 14bc b24a 2ebd
00000140: 6756 adbc 8989 2fbc 5f8c 163d fb3d 723c
00000150: d949 8d3d f44e 10bd 38c2 843d 0cbc 213d
00000160: eedb 173d 59f6 833d f37a 7bbc d64b 773c
00000170: de23 9d3d 4c65 df3c 0a0f 7a3c d7f5 e33b
00000180: 1dce 023c a92f 993c f51d 863d abe4 43bc

6.weight f4 [3, 100]
0.0055158385 -0.08469612 0.06791554 -0.08554902 0.10167148 -0.008838571 0.09314877 -0.029957294
-0.0070244623 -0.024174819 -0.08550065 -0.06627141 -0.08538892 -0.028192064 0.06767587 0.061432604
0.047903575 -0.072089314 0.029734023 0.0933168 0.06420184 0.06792916 0.022316067 -0.049653124
0.053826902 -0.026230378 -0.059631467 0.071860716 0.016978074 -0.08199521 -0.0004945218 0.09157294
0.098790675 0.007426105 0.010344119 -0.09906679 -0.041725244 -0.012664663 -0.0003773419 0.030483827
0.06916515 -0.0058698775 0.06765193 -0.008789997 0.05938444 -0.0028689727 -0.016010586 0.08100053
-0.051147442 0.010262437 -0.0047795773 -0.052466728 -0.006194568 -0.032974146 0.06748666 -0.09461248
-0.055123996 0.045402963 -0.047873676 -0.048946433 -0.07437382 0.02416756 -0.086360976 -0.069319114
0.07429808 0.07427471 0.041028157 -0.08564942 0.005380316 0.03608496 -0.079056814 0.0041133747
-0.02017491 0.0008770928 0.024351288 -0.053420734 -0.07456018 -0.046535056 0.0829875 0.066754736
0.03133936 -0.0860184 0.03317562 -0.01696917 -0.06335771 -0.028261328 -0.0804702 0.018881012
-0.061432943 -0.049848184 -0.022900367 0.032281708 -0.028982963 0.022342043 -0.019867236 0.047647897
0.016288137 0.024367133 0.05202435 -0.0059836716 -0.10124963 0.020300902 -0.044904392 -0.090522446
-0.021173595 -0.09606508 -0.03791361 -0.08857775 -0.048606344 -0.05185568 -0.087909296 -0.0688011
-0.024536649 -0.07706668 -0.012624585 0.036347844 0.080586486 -0.036432683 0.0052613458 0.082279265
0.051579315 -0.032146692 0.08829936 0.105318405 0.04208794 0.007362801 -0.08296557 -0.06722887
-0.012117623 0.019940894 -0.018639594 -0.09208935 -0.08477037 0.03297357 -0.058262862 0.04989917
0.09125676 -0.052237056 -0.035638504 -0.030215038 -0.094717674 -0.011834705 -0.048828423 0.008382092
-0.015623973 0.042070337 0.0749111 0.039506316 -0.052311562 0.06667665 0.016102558 0.031745624
0.087022305 0.028862411 0.06884346 -0.09481157 0.08716079 0.08519134 -0.006732142 0.06552894
-0.015454305 -0.0036491898 -0.093504064 -0.0061539398 0.02312143 -0.06558444 -0.09396124 0.065419786
0.017275155 -0.020001061 -0.029058268 0.07256491 0.07213103 -0.015932498 0.03958291 -0.08131028
-0.07055707 0.09015595 -0.017809045 -0.056807805 -0.08961703 -0.027066667 -0.053353287 0.039741553
0.082409546 -0.0021282912 0.1030434 0.07967913 0.08122888 -0.05543216 0.027183903 0.056716587
0.10647947 -0.035648987 -0.10329278 0.059963524 0.073056154 -0.056045923 0.037180282 -0.07828415
0.08575322 0.05623058 0.08044408 -0.09102663 -0.09189277 -0.053617466 0.026482021 0.09817121
-0.08385905 -0.0550181 0.034123816 -0.09825144 -0.09545682 -0.12506701 0.06655363 0.058084626
-0.083346404 -0.021394337 -0.0523881 -0.09747256 -0.092036165 -0.106657445 0.0067159445 -0.11478224
-0.14782862 -0.09908503 -0.050755177 -0.13342488 -0.14919135 0.057195935 0.0048738075 -0.025824297
-0.1318206 0.04814192 -0.1276901 -0.095672466 -0.041796494 -0.10909383 0.08790308 0.035163306
0.008668768 -0.09733297 0.07268082 -0.052217893 -0.10734804 -0.063041575 -0.13561702 0.056238044
-0.06710434 0.05491523 0.0023748518 -0.0058418275 -0.057472944 0.08469289 0.061430227 -0.07080239
00000000: 35be b43b 2975 adbd 4d17 8b3d 5334 afbd
00000010: 2339 d03d a7cf 10bc c8c4 be3d 0069 f5bc
00000020: 762d e6bb 450a c6bc f71a afbd 4eb9 87bd
00000030: 63e0 aebd 0bf3 e6bc a699 8a3d c1a0 7b3d
00000040: 8a36 443d 90a3 93bd c494 f33c e11c bf3d
00000050: 417c 833d 721e 8b3d 2fd0 b63c 1361 4bbd
00000060: 9979 5c3d 17e1 d6bc 2040 74bd b62b 933d
00000070: 9a15 8b3c 1bed a7bd cca2 01ba 988a bb3d
00000080: c452 ca3d af56 f33b 617a 293c 87e3 cabd
00000090: 17e8 2abd 727f 4fbc f9d5 c5b9 38b9 f93c
000000a0: 75a6 8d3d 1a58 c0bb 188d 8a3d eb03 10bc
000000b0: 193d 733d 6005 3cbb a228 83bc 9be3 a53d
000000c0: fb7f 51bd c823 283c 009e 9cbb 5ae7 56bd
000000d0: cdfb cabb e60f 07bd 7236 8a3d 30c4 c1bd
000000e0: b3c9 61bd 75f8 393d 3017 44bd 0e7c 48bd
000000f0: 4d51 98bd 0cfb c53c 06de b0bd 2ef7 8dbd
00000100: 9729 983d 571d 983d 240d 283d f768 afbd
00000110: 5d4d b03b d3cd 133d 8ae8 a1bd 7dc9 863b
00000120: da45 a5bc b4ec 653a 5a7c c73c b3cf 5abd
00000130: 02b3 98bd 8b9b 3ebd 5af5 a93d b5b6 883d
00000140: b35d 003d 6a2a b0bd 29e3 073d ee02 8bbc
00000150: b0c1 81bd 4d84 e7bc 8fcd a4bd 5aac 9a3c
00000160: 1ca1 7bbd 9c2d 4cbd 8d99 bbbc d339 043d
00000170: ae6d edbc a906 b73c 9dc0 a2bc 712a 433d
00000180: b36e 853c 959d c73c 7c17 553d ad12 c4bb
00000190: f75b cfbd 144e a63c abed 37bd d563 b9bd
000001a0: 3f74 adbc c5bd c4bd 4d4b 1bbd 4068 b5bd
000001b0: 7217 47bd 9f66 54bd ca09 b4bd 97e7 8cbd
000001c0: 1501 c9bc 23d5 9dbd 59d7 4ebc 7ae1 143d
000001d0: 870a a53d 703a 15bd 5e67 ac3b 0882 a83d
000001e0: d544 533d 40ac 03bd 4bd6 b43d 2db1 d73d
000001f0: 6764 2c3d a743 f13b dae9 a9bd 4aaf 89bd
00000200: ff88 46bc 165b a33c 10b2 98bc 5799 bcbd
00000210: 169c adbd 4b0f 073d 0aa5 6ebd 1263 4c3d
00000220: d3e4 ba3d 86f6 55bd aef9 11bd 8785 f7bc
00000230: 57fb c1bd 5ae6 41bc 5000 48bd 0b55 093c
00000240: b1fb 7fbc f251 2c3d fe6a 993d 60d1 213d
00000250: a644 56bd c48d 883d 83e9 833c b307 023d
00000260: c038 b23d dd70 ec3c cdfd 8c3d 922c c2bd
00000270: 5b81 b23d cc78 ae3d 4d99 dcbb 0934 863d
00000280: 0e34 7dbc 3f27 6fbb 0f7f bfbd fda6 c9bb
00000290: 2769 bd3c 2351 86bd c06e c0bd cffa 853d
000002a0: a084 8d3c 44d9 a3bc 9b0b eebc e99c 943d
000002b0: 6fb9 933d df84 82bc b021 223d 0186 a6bd
000002c0: 3a80 90bd afa3 b83d 46e4 91bc 4daf 68bd
000002d0: 2289 b7bd eaba ddbc fa88 5abd 0ac8 223d
000002e0: 56c6 a83d cd7a 0bbb 6b08 d33d d02e a33d
000002f0: 545b a63d d50c 63bd c7b0 de3c a74f 683d
00000300: e911 da3d ac04 12bd 2a8b d3bd 509c 753d
00000310: 779e 953d 6990 65bd 5a4a 183d 7153 a0bd
00000320: 629f af3d 0952 663d debf a43d 2b6c babd
00000330: 4732 bcbd fd9d 5bbd d3f0 d83c fd0d c93d
00000340: 4bbe abbd a95a 61bd 6ac5 0b3d 0d38 c9bd
00000350: de7e c3bd 9111 00be 454d 883d 25ea 6d3d
00000360: 85b1 aabd 2d43 afbc e894 56bd b29f c7bd
00000370: 757d bcbd 386f dabd 6d11 dc3b f312 ebbd
00000380: 6360 17be 18ed cabd a9e4 4fbd 88a0 08be
00000390: 9ec5 18be 4946 6a3d 76b4 9f3b 7a8d d3bc
000003a0: fbfb 06be 7630 453d 32c1 02be edef c3bd
000003b0: cd32 2bbd 966c dfbd 8806 b43d 6607 103d
000003c0: 7307 0e3c 8256 c7bd afd9 943d 6ee2 55bd
000003d0: 4ad9 dbbd f11b 81bd 30df 0abe dd59 663d
000003e0: 006e 89bd cbee 603d 67a3 1b3b cd6c bfbb
000003f0: c068 6bbd 7773 ad3d 439e 7b3d d800 91bd
