my_model.ckpt (torch, 612382 bytes, 7 tensors)

0.weight f4 [200, 6]
000000 cd 32 c6 be 64 9c 3e be 6d dc 0e be 88 92 8b 3d
       -0.38710633 -0.18614346 -0.13951273 0.06815058
000010 8e f4 7a bd 68 41 ce bd 2e 8a 6c be a4 8f 19 be
       -0.06126838 -0.10071069 -0.23099586 -0.14996201
000020 d9 fb c3 3d aa 9c 4f be 42 34 8e 3d 92 65 95 3e
       0.095695205 -0.20274606 0.06943561 0.29179054
000030 42 f9 c2 3e d4 3c bb be 63 4c 0f 3d 22 59 f5 bd
       0.38080794 -0.36569846 0.034984957 -0.11979891
000040 90 61 42 bc 99 49 c2 3e cb e1 b2 3e 7f 3c 5a bd
       -0.011864081 0.37946776 0.3493789 -0.05328035
000050 2e 34 aa 3e 29 c6 65 3e 9e 09 4f 3e 8f 3e 92 3e
       0.33242935 0.22438873 0.20218512 0.28563353
000060 67 2e fa bd 3b ba 9e 3d ef 24 cf be 32 e7 9b 3d
       -0.12215882 0.077503644 -0.40457866 0.076124564
000070 7b 87 cb 3d cb 82 80 bc 2f ee 5a 3e 07 a7 b5 3d
       0.0993795 -0.015687367 0.21379922 0.088697486
000080 4d 73 8b 3e e9 fe 7f bd 01 88 b3 be c9 46 39 3e
       0.27236405 -0.06249896 -0.350647 0.18093409
000090 05 5a 6b be 86 4c 96 be 31 f4 6f be 47 06 27 be
       -0.22983558 -0.29355258 -0.23432995 -0.16310988
0000a0 a3 8b 5d 3e 3c 1c d8 3e 2a fb 4b bd 95 ca db 3d
       0.21635298 0.4220904 -0.049800076 0.10731999
0000b0 cf 94 30 3e d9 2f 9d 3e 4f 49 8c be 0c bf dd bd
       0.17244266 0.30700567 -0.2739968 -0.10827455
0000c0 59 b7 04 3e ae 5b 90 be 22 da 0f be fb ec 26 3e
       0.12960567 -0.28194946 -0.14048055 0.16301338
0000d0 87 90 d7 3e 8b 7e 91 3e f1 72 83 be fd 6e 61 3e
       0.42102453 0.28416857 -0.2567363 0.22014995
0000e0 4b bd ae 3c 7b e0 ea 3e dc c3 d8 bd d1 70 4d 3d
       0.021330496 0.4587439 -0.10584232 0.05015642
0000f0 fa de 77 be 22 67 db 3c bd 65 34 be 96 e8 26 bd
       -0.24206153 0.026782576 -0.17616935 -0.040749155
000100 cf 9c fb 3d 44 42 b2 be 93 35 c5 3e 96 ca ba 3d
       0.12285768 -0.34816182 0.38517436 0.091206715
000110 a2 02 1c be 43 3b e8 bd 40 44 37 3d 6c a2 03 3e
       -0.1523538 -0.11339428 0.044742823 0.12854928
000120 13 01 a9 3e c1 00 9d bc 15 4c 4e 3e cb 7c d9 3e
       0.33008632 -0.019165399 0.2014621 0.42478022
000130 b7 ef c0 3e 3c 9b e8 be 04 11 2a 3e 42 f5 ad 3d
       0.37682888 -0.45430934 0.16608053 0.08494045
000140 7c 11 2f be 0c 2a 80 3d ab 9b 1c 3e ac 55 cc 3b
       -0.17096514 0.0625802 0.15293758 0.006235799
000150 3f 0f 3a be 31 c6 23 be 9f d8 ef bd c5 65 a3 3e
       -0.18169878 -0.15993573 -0.11711239 0.31913581
000160 b6 4c 9d 3e 82 ad a0 be 79 4d 29 be 5e 09 b0 3e
       0.30722588 -0.31382376 -0.1653346 0.34382147
000170 87 fa e6 3e a2 fd ef 3e ac c2 8c 3e 59 55 a9 be
       0.45113012 0.46873194 0.27492273 -0.33072928
000180 8a 08 8b bb 7a d7 ae be 5a 7c 9c 3d 27 34 14 be
       -0.0042429613 -0.3414877 0.07640906 -0.1447302
000190 a9 35 50 be f7 66 8f be e6 ff 15 3e 5d 63 1e 3e
       -0.2033297 -0.28008243 0.14648399 0.15467592
0001a0 e7 a0 c2 be 41 e7 fd bd 58 40 a4 be 61 48 83 3e
       -0.38013384 -0.12397624 -0.3208034 0.25641158
0001b0 bd 89 62 be 91 52 4b be 4e 9d ce 3d 51 72 85 be
       -0.22122855 -0.19855715 0.10088597 -0.2606378
0001c0 7f ca ce 3d c8 35 b8 3e 99 91 d0 3d e1 79 98 3e
       0.10097217 0.35978532 0.101840205 0.29780486
0001d0 3d 01 5f be ed 88 26 be 5a ff 67 bc 9e 76 0f 3e
       -0.21777816 -0.1626317 -0.014160002 0.14010093
0001e0 d8 28 7e 3d 77 7a 58 bd 30 ff 90 3d fa 58 15 3e
       0.06205067 -0.052851167 0.07079923 0.14584723
0001f0 c8 ec 80 3c 0e a5 7f be 2f 74 4a 3e 8d 10 57 be
       0.015737906 -0.24965307 0.19770883 -0.21002407
000200 6b bf d6 bb 82 d4 b2 bd 5c cb 2c be 69 b7 3c be
       -0.0065535805 -0.08731939 -0.1687445 -0.1842934
000210 90 5c 87 3e b5 e0 49 be fe 46 48 be 45 04 dd 3e
       0.26437807 -0.19714625 -0.19558331 0.4316732
000220 e6 e8 88 bd b2 e4 a0 3d 6d f5 16 be a1 a9 9f 3e
       -0.06685047 0.0785612 -0.1474206 0.31184104
000230 22 b6 ab 3e 64 50 a8 bd 3c f0 39 bd 2d 2d 84 3c
       0.33537394 -0.08218458 -0.04539512 0.016134823
000240 f5 c5 e2 be 04 97 d4 be c8 15 07 3e c7 66 c1 3e
       -0.44291654 -0.41521466 0.13191903 0.37773725
000250 f5 86 d5 3e 59 d4 9c be 18 98 84 3e ee d4 91 be
       0.41704527 -0.30630758 0.25897288 -0.28482765
000260 9f 4b 88 3e 11 30 c6 3e eb e8 4a be 95 9c ed be
       0.26620194 0.38708547 -0.19815414 -0.46408525
000270 6d c3 93 3e 2e ac 5e be 93 e1 7a 3e 73 60 2b be
       0.28860036 -0.21745369 0.24500112 -0.16736011
000280 42 ea d5 bd af bb 3e bc 41 d6 87 be 8d e9 81 3d
       -0.10445072 -0.011641427 -0.2653065 0.063433744
000290 5a bf 65 be 23 db b7 be 26 6f db bc 19 95 bf be
       -0.22436276 -0.35909376 -0.026786398 -0.3741844
0002a0 17 b9 69 bd b1 2b 94 be e2 50 ef bd dd 5c ce bd
       -0.05706128 -0.28939584 -0.11685349 -0.10076306
0002b0 65 ee 11 be 07 ea fe be c3 e4 e2 3d 7c 14 1d be
       -0.14251097 -0.49787924 0.11078789 -0.15339845
0002c0 7a 83 e1 bd 64 40 e9 be 45 7a 9c be 3b 03 56 3e
       -0.11011405 -0.4555694 -0.30562034 0.2089967
0002d0 4c 2c c1 be 3d 85 29 be 24 9e af 3e 8d f5 57 bd
       -0.37729108 -0.16554733 0.3430034 -0.05272441
0002e0 ee ba 0a 3e 21 ae ec 3d 9b 9d 3e 3d cc e8 bc bd
       0.1354787 0.1155665 0.046537023 -0.0922409
0002f0 24 af cc 3e 04 09 df 3e ba 81 14 be 05 b1 03 3e
       0.39977372 0.43561566 -0.14502612 0.12860496
000300 36 d3 62 be a8 31 1e 3e ae b5 bc bd c2 9f c7 3d
       -0.22150883 0.1544863 -0.0921434 0.09747268
000310 80 6d 9f 3c ca 43 b8 3e c4 5c 95 3e 90 5e 4f be
       0.019461393 0.3598922 0.29172337 -0.20250916
000320 95 6e 50 be c3 50 a9 be f8 01 51 3e e4 81 88 3e
       -0.20354684 -0.3306943 0.20410907 0.266616
000330 11 3f 91 be 67 80 bb be 74 7f ae 3d 00 bc b4 3e
       -0.28368428 -0.366214 0.085204035 0.35299683
000340 6d 31 d9 3e 87 8d 78 be 7a 1c d3 3c e2 45 dc be
       0.4242052 -0.24272738 0.025770415 -0.43022066
000350 64 8e a5 be f8 1a bf be 02 45 c0 3e a2 48 9c 3e
       -0.32335198 -0.37325263 0.3755265 0.30524164
000360 04 34 3f 3e 97 56 8a 3e 43 06 a8 be c5 a6 21 3e
       0.18672186 0.27019188 -0.32817277 0.15786274
000370 c5 87 0b 3e 03 3d eb 3e b3 02 c9 be 74 82 ae 3e
       0.1362601 0.45944986 -0.39259872 0.34083903
000380 c2 6f a7 be 18 2a 14 bd 8c b8 4b bd e9 eb 82 be
       -0.32702452 -0.036172956 -0.049736544 -0.2557061
000390 42 1b 96 3e 88 e5 79 3e 12 27 f1 3c 0a 95 c7 3e
       0.2931767 0.24403965 0.029437575 0.38980895
0003a0 ad 83 bd 3e 1d 0c 8b be 7e b1 c7 3e 62 af 02 be
       0.37014523 -0.2715768 0.39002603 -0.12762216
0003b0 ed c5 1c 3e 93 0d ac be 16 ba 5f 3e 20 83 a1 3e
       0.15309878 -0.33604106 0.2184833 0.31545353
0003c0 f1 04 b7 be 7b 14 e8 be 82 67 7b 3e 09 f7 49 3e
       -0.35745957 -0.45328125 0.24551204 0.19723143
0003d0 b3 0e 05 3e 60 d5 be 3e 29 73 c8 bd 87 8f 69 3d
       0.12993889 0.37272167 -0.0978759 0.057021644
0003e0 4c 89 b5 3d a2 85 ad be 33 18 a9 3e 14 f0 1a be
       0.08864078 -0.33891016 0.33026275 -0.15130645
0003f0 aa 98 97 3e 1f d1 43 bd 54 96 81 be 4d d5 ea 3d
       0.2960866 -0.047806855 -0.25310004 0.11466465

0.bias f4 [200]
000000 b6 29 2b be 13 8f 42 3e 72 b8 dd bd 1c 8e 7f 3e
       -0.1671513 0.18999891 -0.10826196 0.24956554
000010 df 63 8c be 0a cf ae 3e 7e 71 c9 3e 05 fe aa 3d
       -0.27419946 0.34142333 0.393444 0.08349232
000020 b0 5c 8d bd b3 f6 bd 3e ed 8f 13 3e ad bd 6f 3d
       -0.06902444 0.3710228 0.14410372 0.0585305
000030 33 06 76 3e 09 ba b3 be 56 2a d5 3e 67 97 a3 3e
       0.24025802 -0.3510287 0.41633862 0.31951448
000040 99 03 15 3e cf b3 cd be 44 4b 04 3e f1 13 b2 be
       0.14552154 -0.40176246 0.12919337 -0.3478084
000050 72 84 10 3e 7e 90 46 3e 43 95 e4 bd f9 d1 2f 3e
       0.14113024 0.19391057 -0.11161282 0.17169942
000060 01 60 b3 3d b2 af f7 3d b3 59 3b 3d 5f 4a 0e 3e
       0.08758546 0.12094058 0.04573984 0.13895558
000070 b0 02 17 3e a5 f2 71 3e 78 90 ac 3e f8 cf c1 be
       0.14747119 0.23627718 0.3370397 -0.3785398
000080 f2 de c1 be 25 c0 c1 3e 8e af 90 be 1f dc 8a 3e
       -0.37865406 0.37841907 -0.28258938 0.27121064
000090 15 6c 2d 3e d4 06 ba 3d 5f 2d 16 3e c0 a7 b6 be
       0.16935761 0.090833336 0.14665745 -0.35674858
0000a0 3b 5e 01 3a 44 31 c7 3e ef ed 2c bc b4 28 90 be
       0.0004935001 0.38904774 -0.010554775 -0.28156054
0000b0 74 59 b1 3e 09 2f 58 3e 01 2a 94 be 3c 7a 7d 3e
       0.3463856 0.21111692 -0.28938296 0.2475366
0000c0 ae e6 8b be 87 77 d9 3e a4 16 c7 bd 15 50 aa 3e
       -0.27324432 0.42474005 -0.09721115 0.33264223
0000d0 44 fa a7 3e c8 46 d3 3e b8 17 22 3e 50 bc 98 3e
       0.32808125 0.4126494 0.1582936 0.2983117
0000e0 28 ee a6 3d e9 1c 3d 3d 66 ba 90 be 82 51 9a be
       0.081508934 0.04617015 -0.2826721 -0.3014031
0000f0 f8 70 4b 3e 93 79 d7 3e 28 44 82 be 68 96 c5 3d
       0.19867313 0.4208494 -0.25442624 0.09647828
000100 de b6 6e be 98 f9 ca bd ce 3c 15 be dc b6 49 3d
       -0.23311946 -0.099108875 -0.14573976 0.049246654
000110 e7 98 a0 be f2 19 9b 3e c4 6e da 3e 61 59 5c be
       -0.31366655 0.30293232 0.42662632 -0.2151847
000120 fd 7a 9e be 48 89 2d 3e 49 a6 b8 3e 26 49 19 be
       -0.30953208 0.169469 0.36064366 -0.1496931
000130 3f e3 32 3e 92 20 5c 3e a1 64 90 be 94 e8 08 3d
       0.174695 0.214968 -0.28201774 0.03342493
000140 e7 46 c0 3d 4b 03 5e 3e 3f 2e 77 3e c3 a1 b9 be
       0.093885235 0.21680944 0.24138735 -0.36256227
000150 75 17 27 3d 75 34 13 be 07 8c 2d 3e f4 43 dc 3c
       0.040793855 -0.1437548 0.16947947 0.026887871
000160 9d 5a d1 bd c4 7d da 3d 57 3d 98 be 19 fc 76 3e
       -0.10222361 0.10668519 -0.297343 0.24119605
000170 d9 ef 24 3e b2 1f ff 3d a9 76 bc be ae 2e 89 3e
       0.1610712 0.12457217 -0.3680928 0.26793426
000180 e0 41 b6 3e 95 b1 99 be 9f da f5 3c dc cb 31 3d
       0.35597134 -0.30018297 0.030011473 0.043407306
000190 b0 4c 96 be 49 cd af 3e 39 0b 45 bc 7d be 94 3e
       -0.29355383 0.34336308 -0.0120266015 0.2905158
0001a0 c6 9b be 3e b8 8e 6e be 49 73 be 3c 04 94 d4 3e
       0.3722822 -0.2329663 0.023248332 0.41519177
0001b0 c2 a1 9e 3e a6 49 01 be 1a 6a bb 3d 7d c7 02 be
       0.30982786 -0.12625751 0.09151097 -0.12771411
0001c0 d6 3d 3e be 7b c2 58 3e c3 3b ab 3e e8 b7 5b 3e
       -0.18578276 0.21167938 0.33444032 0.21456873
0001d0 e8 18 db 3e 99 f4 38 3e 87 b8 9a 3e 2b 28 be be
       0.4279244 0.18062057 0.30218908 -0.3714002
0001e0 7d 5d ad be 26 db e0 bd 32 d3 23 bd 23 cb ad 3e
       -0.33860388 -0.10979299 -0.039996333 0.33944044
0001f0 d2 ca 13 bb c6 0d dc 3e 43 7f 28 bd 37 40 4b 3e
       -0.002255131 0.42979258 -0.04113699 0.19848715
000200 0a 09 1d be 74 7f df 3c 84 37 65 3b b2 0e a1 3c
       -0.1533548 0.027282454 0.0034975717 0.019660328
000210 36 07 56 be c9 3a 9e 3e 62 00 81 be 1d df 53 be
       -0.20901188 0.30904225 -0.25195605 -0.2069058
000220 c1 cc fc 3d 35 e9 c1 be e3 cf ad be 2a 43 73 3d
       0.12343741 -0.37873235 -0.33947667 0.059390225
000230 17 9a b1 be 6a 09 18 3e 67 d3 26 3e a7 8f 80 3d
       -0.34687874 0.14847341 0.16291581 0.062773995
000240 fa ba 96 3d a0 22 a6 3e b4 a6 4c b9 34 db b0 be
       0.07359882 0.32448292 -0.00019517058 -0.3454224
000250 df 46 ce 3e dd 4e 1b 3a 45 80 e5 3e c0 2f aa be
       0.40288445 0.00059245323 0.44824424 -0.33239555
000260 38 7f 77 3e ce 7d 71 3e 00 e4 80 bd 21 bb ef 3e
       0.24169624 0.23583147 -0.062934875 0.46822456
000270 29 f9 1b 3e 9d 2e 07 bd 31 63 71 be 5b 46 b3 3e
       0.15231766 -0.03300344 -0.23572995 0.35014614
000280 e3 e1 8f 3e ce 4f b0 3e 4a 1a 15 3e 28 49 a3 bd
       0.28102025 0.34435886 0.1456081 -0.07972938
000290 19 c4 12 be ce c9 83 3e 57 3a 33 3e 6e c0 2a 3e
       -0.14332618 0.25739902 0.17502724 0.16674969
0002a0 ce 15 52 3d 54 59 d3 3e 6b 37 6e 3e 07 e3 b8 3e
       0.051290326 0.4127909 0.23263328 0.36110708
0002b0 21 50 aa 3e 13 8b 81 be 6f a4 b5 3e d1 cc f2 bd
       0.33264259 -0.25301418 0.35477015 -0.11855472
0002c0 71 f1 7e 3e 75 06 d2 3e 34 84 e2 3e dc 74 9f bb
       0.2489679 0.4102055 0.44241488 -0.0048662256
0002d0 34 4b 19 bd e9 fa c4 3e 6c 46 cf 3e aa 5d e4 3e
       -0.037425235 0.3847268 0.40483415 0.4460271
0002e0 33 88 a7 3c 0f e0 25 3e 35 06 a6 be 64 54 af 3e
       0.020450687 0.16198753 -0.3242661 0.34244072
0002f0 ec 56 70 3d 8d b3 c8 bd 24 09 e2 3e 70 91 c5 be
       0.058676645 -0.097998716 0.441476 -0.38587523
000300 e3 01 8a be b4 43 ba be 9a ac cc 3e 90 09 bd be
       -0.26954564 -0.36379778 0.39975435 -0.36921358
000310 42 3a 89 3e 6f 64 4b be 3b 3d e2 3d 8c db bc be
       0.2680226 -0.19862531 0.11046835 -0.3688625

2.weight f4 [500, 200]
000000 db 68 ed bc 85 87 fa 3c 02 53 b2 bd c1 9d b4 bc
       -0.028980663 0.030582199 -0.08707239 -0.02204788
000010 fb d4 7b 3c 28 3c 76 bd 71 9f 25 bc 87 d2 9a 3d
       0.015370603 -0.060115963 -0.010108815 0.07559686
000020 b7 79 89 3d b1 bf 8d 3a 46 25 f3 3d 22 f8 98 bd
       0.067126684 0.0010814575 0.11872344 -0.074692026
000030 45 8a b2 3d a2 f1 48 bd c0 52 c7 bc f0 da a9 3d
       0.08717779 -0.049058564 -0.02433145 0.08293712
000040 e0 01 5a 3d 4c 55 d4 3c bb 94 37 3c 88 cf 75 3d
       0.053224444 0.025919579 0.011204894 0.06001237
000050 d9 48 0b 3c bb 21 a9 3c 59 1a ed 3d 60 78 0f be
       0.008501255 0.020645967 0.11577291 -0.14010763
000060 b6 f9 88 3d d4 61 be 3d dd 80 8f bd 74 fd 24 bb
       0.066882536 0.09296003 -0.070070006 -0.0025175484
000070 7e eb 0a 3e 96 b4 c6 bd b1 4b 19 3c d5 02 e5 3d
       0.13566396 -0.09702413 0.009356425 0.11182181
000080 25 99 4b bd eb 09 46 bc bb 1d 98 3d 20 1f 60 bd
       -0.049706597 -0.012087326 0.07427546 -0.054717183
000090 a3 c4 03 be cf 7a 6b bd 11 7c 8d 3d 38 a7 12 be
       -0.1286798 -0.057490166 0.069084294 -0.14321601
0000a0 89 09 35 3d c3 59 5f 3c 6d e4 05 be fd 8a ba 3c
       0.044198547 0.013632241 -0.13075419 0.022771353
0000b0 78 0d 7c 3c d8 84 5e bc 0e de 54 bd 77 8b 17 bc
       0.015384071 -0.013581477 -0.05196958 -0.00924956
0000c0 ce 73 a2 bc 13 1f 2d bd bc 2f f9 3c b8 fa e5 bd
       -0.01983061 -0.042265963 0.03041827 -0.112294614
0000d0 98 a6 96 bd 11 ff f8 3c c3 bb 86 3c 78 5b b4 bc
       -0.07355994 0.030395063 0.016446954 -0.022016272
0000e0 0e 24 2b bb 45 19 35 bd 9d 92 fc 3d d1 8c 26 bd
       -0.002611402 -0.044213552 0.12332652 -0.040661637
0000f0 5e 39 d5 bd 1a 61 08 bd c7 0c 8b bd e8 f5 a5 3d
       -0.104113325 -0.03329573 -0.067895465 0.081035435
000100 83 f0 3d 3d c2 f2 5f bd 5f 8a 83 bc 6c 41 12 3d
       0.046371948 -0.05467487 -0.016057191 0.035706922
000110 90 7b 1e 3c 49 41 db 3b 6c 97 05 be e2 9d 08 3d
       0.009673014 0.006691132 -0.13046044 0.033353694
000120 6f 0e 59 3d 8b 19 33 3d 68 8e b8 bd c0 a7 23 be
       0.05299228 0.04372553 -0.09011537 -0.1598196
000130 8f 2d ff bd 15 8f 0f bc 5a b1 4e bd 18 af 8f 3d
       -0.124598615 -0.008762141 -0.050462104 0.07015818
000140 fe 03 9a bd 32 74 b5 3d 00 cc a3 3c 8e 6b 8d bd
       -0.07520293 0.08860053 0.019994736 -0.0690528
000150 5b 3c 26 3c 4f 6b 26 3d fb 37 93 3d 62 de 91 bc
       0.010146226 0.04062968 0.07188412 -0.017806236
000160 52 c5 11 3d 7c 7a 13 be 5d 11 6a 3b b6 1c 61 3d
       0.03558857 -0.14402193 0.0035715916 0.05495902
000170 2a 82 77 bd e9 3f 1a bd a2 a8 b6 3d e7 84 37 3c
       -0.06042687 -0.037658606 0.08918883 0.01120112
000180 cd 13 37 bd 31 06 94 bc e6 4d 55 3d 0f b0 68 bd
       -0.044696618 -0.018069359 0.052076243 -0.056808528
000190 f6 4c 58 3b e0 94 14 bd ce d0 2e 3a af 92 dd bc
       0.0033004857 -0.03627479 0.00066686876 -0.027047483
0001a0 28 5e 82 3a 86 a8 23 be e4 7f ad 3c e7 a4 48 bd
       0.0009946274 -0.15982255 0.021179147 -0.048985388
0001b0 02 54 e3 3c e1 34 1d bc 3d 04 8d bd 51 94 37 3d
       0.027750019 -0.009595127 -0.06885574 0.04481918
0001c0 a6 7b 19 3e e3 d0 6e 3d 17 35 e3 3c 00 83 a1 bd
       0.14988574 0.05830468 0.027735276 -0.078863144
0001d0 00 d4 1e bc 46 77 fa bc 06 2a ce bd 5f bb 06 3d
       -0.009694099 -0.030574452 -0.10066609 0.032893535
0001e0 76 c0 06 3e 67 5f 7d 3d 2f 05 49 3c ed 10 c5 3b
       0.13159356 0.06185856 0.012269302 0.0060139806
0001f0 0b 7e 60 bd ae ec 0a bc e5 61 68 bd 86 1a 7f 3b
       -0.054807704 -0.00847928 -0.056733985 0.0038925721
000200 9d c6 12 bd d2 64 29 3d 88 ef ff bd 6b ca 0b 3e
       -0.035833944 0.041355915 -0.12496859 0.13651435
000210 b5 42 9e bd 6b aa e3 bd 67 53 2d 3d 6f 47 91 3d
       -0.07727567 -0.11116489 0.042315867 0.07093703
000220 80 5c 4a 3c 14 b5 25 3d 18 df 9e 3c 56 f3 4e bc
       0.012351155 0.040455893 0.019393489 -0.012631258
000230 1c 8f 29 3d b6 e9 8a 3d 69 47 d8 3c e1 7f 22 3e
       0.041396245 0.06782858 0.026401239 0.15869094
000240 af ed 48 bd cf ac df bb 38 2b d2 bc fa 24 bd 3a
       -0.049054798 -0.0068260203 -0.025655374 0.0014430576
000250 d2 65 15 3d d7 fe 01 3e d7 4a 6d bd bd 1a 4c bc
       0.036474057 0.1269487 -0.0579327 -0.012457547
000260 fa f6 ec bb a6 04 e7 3d 8e eb 03 be ed 35 ae bc
       -0.0072315903 0.112801835 -0.12882826 -0.021265948
000270 3a a1 8b 3d 7f 17 78 bd 26 c9 9c 3d 6d 92 1d 3d
       0.06817861 -0.060569283 0.076555535 0.03846972
000280 1e 83 e3 bd 90 3f b4 3d 0f 11 a5 bd fa e1 d5 bd
       -0.11108993 0.08801186 -0.08059894 -0.10443492
000290 9a 1e 80 bc 5a 15 05 bd a1 92 f3 bd db 98 82 bd
       -0.015639592 -0.032491066 -0.118932016 -0.06376811
0002a0 86 d1 63 bd 03 e0 23 be d7 e0 ab bd 4a 39 80 3c
       -0.05561974 -0.16003422 -0.08392494 0.015652318
0002b0 9f 2f d4 3c d9 5c 92 bd 00 f4 7b 3d 00 3e 14 bc
       0.025901614 -0.071466155 0.061511993 -0.009047985
0002c0 05 f6 31 3d 03 dc 3c bd 92 3b 9f 3b 63 65 e8 bb
       0.043447513 -0.046108257 0.0048593963 -0.0070921644
0002d0 19 bc 90 3d 90 bc d3 3d c5 ac 6d bb bc 47 2c 3d
       0.07067127 0.103387 -0.0036266309 0.0420606
0002e0 6d 9f 02 3c b6 a5 62 3b 86 aa 0e 3d c9 ee 71 3c
       0.00797258 0.0034583635 0.034830593 0.0147664035
0002f0 ac 0a ed 3d 02 70 f6 bc d4 1d 61 3d fd 9d 0b 3c
       0.11574301 -0.030082706 0.054960087 0.008521554
000300 f3 f8 8f 3d 47 a5 51 3d c7 21 e1 bc 45 ef 54 3d
       0.07029905 0.05118301 -0.027481927 0.051985998
000310 28 e4 8a 3c 8f a7 0b 3d f8 52 27 3b ed 84 80 3d
       0.016954497 0.034095343 0.002553163 0.062753536
000320 02 e1 03 bd 70 63 37 3d c1 22 4b bd c6 eb e7 bc
       -0.032197006 0.044772565 -0.04959369 -0.028310668
000330 aa 29 91 3c 00 d0 74 bd 67 d8 58 bd 8c 84 6d 3d
       0.017720062 -0.059768677 -0.052940752 0.057987735
000340 55 aa 24 bd 9e d7 7c 3d 0f 38 c1 3d 15 d9 70 bd
       -0.040201504 0.061729066 0.094345205 -0.058800776
000350 99 33 38 3d 56 b1 ca bb 26 70 65 3d df 27 3e 3d
       0.044971082 -0.006185691 0.056015156 0.046424743
000360 68 ff 2a bd a7 e7 a8 3b 87 5a 56 3d 9c 4f 1a bd
       -0.04174748 0.0051545682 0.052332427 -0.037673578
000370 eb 7b ec 3d 01 12 91 bd c2 ad 0f 3e 38 b6 8d bd
       0.11547073 -0.07083512 0.14031127 -0.06919521
000380 2a 55 f5 3d 72 41 a2 3c a2 b4 bf bc d6 ac 45 bd
       0.119791344 0.019806597 -0.023401562 -0.048260532
000390 6e 00 bc 3d 97 b3 ed bd 51 ee ff 3c 08 24 91 3c
       0.091797695 -0.1160652 0.031241568 0.017717376
0003a0 86 00 37 3d c4 a4 5d bd b8 3d ef 3d 7d fa 1b 3c
       0.044678234 -0.05411221 0.11681694 0.00952017
0003b0 30 cb c9 bd 9f a3 3d 3d f7 e4 53 3d ff 43 dc bd
       -0.09853208 0.04629862 0.05173203 -0.10755157
0003c0 e1 62 c0 3d 70 c6 97 3c 64 e9 42 bd 40 40 62 3b
       0.0939386 0.01852724 -0.04758586 0.003452316
0003d0 86 78 91 3d 04 67 b5 bd 54 a0 7a 3c c7 03 e0 bc
       0.07103066 -0.08857539 0.015297014 -0.027345551
0003e0 3a 9b f4 3d e5 f4 0c 3c 50 29 a4 3d 44 55 12 be
       0.119436696 0.008603309 0.08015692 -0.14290339
0003f0 7c 70 99 bd 28 ce b0 3a 61 59 58 3d ae 83 7e bd
       -0.07492158 0.0013489174 0.052819613 -0.0621373

2.bias f4 [500]
000000 54 3e 85 3d 13 bf ee 3c 95 a6 37 3d 82 0c 03 bd
       0.06506029 0.029143846 0.0448366 -0.03199435
000010 ed fb c4 3d 82 0a 48 3d 28 c6 27 bd 0d 2c 6a 3b
       0.096183635 0.048838146 -0.04096046 0.0035731823
000020 bd cc 58 3d bb e9 93 3c af 5c c4 bc 86 2e 81 3d
       0.05292963 0.018055787 -0.023969976 0.06307702
000030 57 12 f8 3c d8 88 8d 3c 61 40 1e bd 1b e0 db 3b
       0.030282183 0.017277166 -0.038635615 0.006710065
000040 31 fe ba 3d ff c0 7a 3c 90 04 29 3d 03 53 91 3d
       0.091305144 0.015304803 0.041264117 0.07095911
000050 8c e8 4a 3d 3d e9 16 bd 41 c4 a1 3d 87 25 3d bd
       0.04953818 -0.036843527 0.078987606 -0.046178367
000060 f5 bc 72 3d 8b f6 cd 3d 46 92 d8 3d 52 ab 83 3d
       0.059262235 0.1005679 0.105747744 0.06429161
000070 fa 80 db 3c 44 f7 3a bc 75 76 40 3d 50 04 50 bd
       0.0267949 -0.011411492 0.04698797 -0.050785363
000080 dc 46 b5 3d 58 63 0e bd 72 27 e4 bb d8 1b e0 bb
       0.08851406 -0.03476271 -0.00696271 -0.0068392567
000090 f9 77 7d 3d 2a d3 ab 3c d1 f5 af bc 79 77 05 bd
       0.061881993 0.020974714 -0.02147952 -0.03258464
0000a0 83 43 4d 3d 38 a9 57 3d 9e 51 be 3d ca e3 9b 3d
       0.050113212 0.052651614 0.09292911 0.07611807
0000b0 27 63 c5 bb 81 76 45 3b 65 2b 27 bc b1 78 d0 bc
       -0.006023783 0.0030130448 -0.010203217 -0.025448175
0000c0 ce f9 f6 bc 45 ec 8e bc 76 25 ea bc ba be 8e bd
       -0.030148413 -0.017446646 -0.028582316 -0.06969972
0000d0 ed 92 74 3d 0e df 23 bd 4b 8c 84 3d 97 e5 8e 3d
       0.05971043 -0.040007643 0.06472071 0.069773845
0000e0 61 9b ca bc 1c c8 dc 3c 0a 3b c4 3d e3 14 9f ba
       -0.024732294 0.026950888 0.09581573 -0.0012136962
0000f0 3e 6e 0d 3d 61 ee 86 bc 2f 79 77 bd c3 ea 92 bc
       0.034528963 -0.01647109 -0.060418304 -0.017934209
000100 09 14 24 bc 18 e7 5c 3d 01 1a 66 3c 96 89 88 bd
       -0.010014542 0.053931326 0.014044286 -0.066668674
000110 8a e7 7d bd a2 2d 3f bd c9 7e ac 3d 67 d0 18 3c
       -0.06198839 -0.04667438 0.0842262 0.009327031
000120 00 38 2c bd fc 22 8b bc fc a6 9d 3d ad 9c 8d bc
       -0.042045593 -0.016984455 0.07697865 -0.017286623
000130 ab 51 9f 3d bb 12 57 3b 32 4b 8f 3d 71 ce 00 bd
       0.07779249 0.003281756 0.06996764 -0.031446878
000140 55 98 09 3e e0 b5 04 3d f9 ce 0f 3d a8 5c 51 bd
       0.13437016 0.032400012 0.035109494 -0.051113755
000150 27 5a da 3b 6f ef 94 3d cd bb 9c bc 76 e3 0c bd
       0.006663579 0.07272231 -0.01913252 -0.03439661
000160 e1 c5 8b 3d 1b ae bf 3d cf 6b 0b bd 13 8d 32 bd
       0.06824852 0.0935938 -0.03403836 -0.04359157
000170 fd 23 a1 3d 39 63 1f 3d 88 7d a1 bc 69 7a 89 bd
       0.07868192 0.038912985 -0.019713178 -0.06712801
000180 36 7b 18 bd 87 62 7d 3d 5b 93 e8 3c 9c 51 5b 3d
       -0.037226878 0.06186154 0.028390577 0.053544626
000190 32 ac 3e 3d 4a 14 b2 bc 5a 3b 2f bc 2b a6 a5 3d
       0.046550937 -0.02173819 -0.010695303 0.08088335
0001a0 40 2b af 3d 37 02 83 3d 3b 6d e1 bc af f0 c0 bb
       0.08553171 0.06396907 -0.027517905 -0.0058880667
0001b0 8f 94 ad 3d a4 51 28 3d e3 cf 05 3e b6 89 8b 3c
       0.08475601 0.041093484 0.13067584 0.01703344
0001c0 97 3e b1 bc e5 6b 5d bd a3 67 20 3d 62 24 1a 3b
       -0.02163629 -0.054057974 0.039161336 0.002352022
0001d0 47 9d 58 3d 8b 77 9a ba ab 4d 17 bd c9 16 24 bd
       0.052884366 -0.0011784894 -0.036939304 -0.040060792
0001e0 6c 05 fe 3d a1 16 83 bd 94 46 a0 3a c6 21 91 3d
       0.12403378 -0.064008005 0.0012228065 0.0708652
0001f0 1f 98 85 ba ae 01 2c bd d8 fc 25 3d 18 c9 55 bd
       -0.001019243 -0.04199379 0.040524334 -0.05219373
000200 d7 b0 61 bd d7 8d 0a 3d 13 8e 8d bd 91 ac bd 3c
       -0.05510029 0.033826675 -0.06911864 0.023153575
000210 6b b2 a7 3d 0e 91 83 bc 1c 77 6f 3d 9a a1 8b bd
       0.081883274 -0.016060378 0.0584632 -0.068179324
000220 16 75 2f bc 71 40 48 bd a0 7c c5 3b 5f 18 7c bd
       -0.010709068 -0.04888958 0.0060268193 -0.06154668
000230 90 82 04 3c e2 15 83 bd 62 db ee bc 25 fb 7e 3d
       0.008087769 -0.06400658 -0.029157344 0.06225123
000240 87 77 5b 3d f6 77 98 bd 3b 41 6d 3d 71 97 e0 bc
       0.053580787 -0.07444756 0.057923537 -0.027415963
000250 e8 05 35 bd ad d9 81 3d 96 04 fa bc f4 3f 0f 3d
       -0.044195086 0.063403465 -0.030519765 0.0349731
000260 3b ff 72 bc c8 b8 40 bd b6 81 ad 3d 01 b3 77 3c
       -0.0148313595 -0.04705122 0.08472006 0.015118361
000270 41 92 3d bd d2 fb aa 3d 23 13 84 bd 85 b9 15 bc
       -0.046282057 0.08348812 -0.064489625 -0.00913847
000280 88 e5 b2 3d 0a ee 38 3d 27 c9 28 3d 4d 52 b7 3d
       0.08735186 0.045148887 0.04120746 0.089512445
000290 f4 94 cb 3c 55 d5 a6 3d 7d 7f 2d 3c ac f3 20 3d
       0.0248513 0.081461586 0.010589478 0.039294884
0002a0 21 7d 69 bc 9d 90 57 bd 7a c2 d6 3a 80 79 cb bc
       -0.014251024 -0.05262815 0.0016384863 -0.02483821
0002b0 af 76 e7 3d 09 e4 8b 3c 91 3c c8 3c f3 b7 7f bd
       0.11301934 0.01707651 0.024442943 -0.062431287
0002c0 b5 0f ad 3d 20 74 0d bd b8 24 ca 3d 8b cd 3b 3d
       0.084502615 -0.034534574 0.09870285 0.045850318
0002d0 52 9a f4 bc cb a0 9c bc 70 31 0a 3c ae 1e a2 bc
       -0.029858742 -0.01911964 0.008434638 -0.01979002
0002e0 68 f1 f4 39 e0 20 35 3d 43 ee c0 3d af 9d 07 3d
       0.00046719168 0.044220805 0.09420445 0.033109363
0002f0 7a 3c 36 bc 5f 58 7c 3d b8 d6 af 3c ba b7 29 3d
       -0.011122817 0.061607715 0.02146469 0.04143498
000300 a4 c8 25 3d 63 e0 1d 3d f3 08 f6 3c c9 f7 04 3c
       0.04047455 0.03854407 0.030033564 0.008115717
000310 8e c3 87 bc 5f ac f4 ba 8a 84 81 3c ed 86 3d 3d
       -0.01657274 -0.0018667093 0.01581027 0.046271253
000320 9c 22 ce bc f4 2f 7e bc 42 3b d4 bb 7b c3 d8 b8
       -0.025162987 -0.015514363 -0.0064767906 -0.00010336094
000330 0c 1e 47 bd 46 e2 3c bd 02 4c 50 3c 6f 58 e8 3c
       -0.04861264 -0.04611423 0.012713434 0.02836248
000340 5a 07 9f bc 11 53 2c bd 60 94 60 3d 59 79 6e bd
       -0.019412685 -0.042071406 0.054829 -0.058221195
000350 66 4e 26 bd 39 3a 60 bd 03 43 1f 3c a8 90 1e 3d
       -0.04060211 -0.054743025 0.009720567 0.038712174
000360 a9 b9 ec bc 69 ae e1 3d ad 79 ec bb 35 bd 84 3b
       -0.028897123 0.11019594 -0.0072166533 0.0040508755
000370 0e e1 5c 3d 1b 4d 13 bd 53 de 0d bd d5 89 25 3d
       0.053925566 -0.035962205 -0.034635853 0.04041465
000380 b5 f0 c9 3d 3e 9d a0 3c ed dc 25 3d 16 e8 86 bd
       0.09860364 0.019606229 0.040493894 -0.06587236
000390 fc 94 bf bc bc f4 c4 3d 3b e0 09 bd e7 46 88 3c
       -0.023386471 0.09616992 -0.03366111 0.016635371
0003a0 84 d5 b8 3c 02 1a 87 3c 6d ac 8a 3d b2 3f d3 3d
       0.02256275 0.016491894 0.06771169 0.10314883
0003b0 8d 5a 2f 3d 49 9c ab 3d a4 7f 9e 3d 18 60 5d bd
       0.042810965 0.083794184 0.07739189 -0.05404672
0003c0 6a 0f 15 3d ae 6f 27 3d 2c 4d 2b 3c 19 d0 b2 3d
       0.036391653 0.04087799 0.010455411 0.08731098
0003d0 a4 bb ce bc b9 85 c0 3d 07 40 5f 3c a3 54 ae 3d
       -0.025235958 0.094005056 0.013626105 0.08512237
0003e0 1f 06 09 3d 20 1e 3c 3d 59 76 84 bd d0 b9 5d 3d
       0.033453103 0.045927167 -0.064678855 0.054132283
0003f0 ce 07 78 bd 2f fa 21 bd e6 4a 8f 3c 17 13 78 bd
       -0.060554318 -0.039545234 0.017491769 -0.06056508

4.weight f4 [100, 500]
000000 f4 e9 d5 3d 51 61 6e 3d 5b aa 7c 3d 69 e3 c8 3d
       0.10445014 0.058198277 0.0616859 0.09809
000010 e8 28 d4 bc a0 be d7 3b a6 df c8 bd 15 94 eb 3b
       -0.025898412 0.0065840036 -0.098082826 0.0071892836
000020 56 bc 50 3b 88 be 01 3e 01 08 0d bc c6 81 6a bc
       0.0031850538 0.12670338 -0.008607865 -0.014313167
000030 a5 e2 64 3a 53 79 cf bc 76 51 f1 3d 4f 3b 01 3d
       0.00087312824 -0.025326407 0.117831156 0.0315507
000040 f6 0a 64 bc b3 35 c1 bd ff a5 1e bc 2c da 1f bd
       -0.013918629 -0.094340704 -0.009683131 -0.039026424
000050 2f 27 6e 3d f3 58 74 bd ac 47 8d 3d 9d af e2 bc
       0.058142837 -0.05965514 0.06898436 -0.02767163
000060 8e cd 21 bd c7 c5 bf 39 4c b4 2c 3d 25 40 a1 bd
       -0.039502673 0.00036577714 0.042164132 -0.07873563
000070 29 c8 ca 3d e4 da 00 3e 33 4b 4a bd f9 f2 e2 bc
       0.09901459 0.125835 -0.04938812 -0.027703749
000080 13 7c 5e 3d 14 3a b9 3d 64 f2 03 bd 82 ca dd 3d
       0.054317545 0.09044281 -0.032213584 0.10829641
000090 e9 06 c6 bd 3c 01 4a 3d 1b cf 1f bd d5 3b b9 3d
       -0.09669287 0.049317583 -0.03901587 0.09044615
0000a0 e3 ec 05 bc d4 a0 4e 3c 3a 8c 92 bd 8e 4b a6 bc
       -0.008174154 0.012611587 -0.07155652 -0.0202997
0000b0 a6 27 07 bd 98 b7 6d bd 8c 17 7f 3d 82 2f 1c bd
       -0.032996796 -0.058036417 0.062278315 -0.038131244
0000c0 37 37 dd bd a6 62 a6 bc 65 3f df bc 16 50 98 3c
       -0.10801547 -0.020310711 -0.027251909 0.018592875
0000d0 58 69 c8 bc d4 34 48 b9 b0 fb 0a bd 5b 35 bd 3d
       -0.024464294 -0.00019093166 -0.033931434 0.092386924
0000e0 ad 93 19 bb 17 6a 9b 3c 90 12 01 bd 62 6e 01 3d
       -0.002343397 0.018971486 -0.031511843 0.03159941
0000f0 7c 80 e2 bc b8 b5 11 bc 3e bc 1e bb 79 10 c3 bc
       -0.027649157 -0.008893423 -0.0024221088 -0.023811566
000100 e5 c7 87 bb 50 f8 5f bd fe 9e c2 bd 79 44 1a 3d
       -0.0041437023 -0.05468017 -0.095029816 0.037662957
000110 f2 70 00 3d 79 46 8d 3d 04 52 f8 3d 7f 29 52 3d
       0.031357713 0.06898207 0.12125018 0.051309105
000120 db ae e9 3d 30 0e 98 bb ae ae 33 3d 64 11 d2 3c
       0.11410304 -0.004640363 0.04386776 0.025643058
000130 8c fb d3 bb 00 d6 69 3c 76 1f d1 bc b8 35 22 3c
       -0.0064691957 0.014272213 -0.025527697 0.009900503
000140 0d 07 f9 3c ad 00 73 bc 6b 8c c6 3c b9 4d f2 3c
       0.03039887 -0.014831704 0.024236878 0.029578077
000150 e2 18 e8 3b 1e 4d a7 bd 39 03 48 bd 27 80 59 3d
       0.0070830444 -0.08169006 -0.0488312 0.05310073
000160 b7 1f 38 bd 67 86 23 bc 8e ff 71 bb 07 9e 59 bb
       -0.04495212 -0.0099807745 -0.0036926004 -0.0033205764
000170 7a 52 53 bc 45 3d 82 bd e7 c7 01 bd ee 22 bf 3c
       -0.012898082 -0.063593425 -0.031684782 0.023332085
000180 3b 51 b5 3d 53 27 d3 bc b3 f1 84 bd 5f 01 69 bd
       0.08853384 -0.025775587 -0.06491413 -0.056886073
000190 c6 e5 83 3c d8 f3 fd bc 26 16 03 bd 26 ad bc bc
       0.016100775 -0.031000063 -0.032003544 -0.023031782
0001a0 2d 8b a9 3d a5 cd 9f bd db 07 1e 3d 76 b6 f8 bc
       0.08278499 -0.078028955 0.03858171 -0.030360442
0001b0 31 a2 ac bd 31 98 61 3d 5f 7f 9c 3d 7f 40 15 3d
       -0.08429373 0.05507678 0.076414816 0.03643846
0001c0 05 03 e3 3c 7d 40 f4 bb b2 13 d1 3d ad a6 c5 bc
       0.0277114 -0.0074539767 0.10208835 -0.024127329
0001d0 e7 b9 80 3d 67 c2 ea bc 2b c8 8e 3c 7d df 40 3b
       0.06285458 -0.028657151 0.017429432 0.0029430084
0001e0 01 cf 3d 3d 71 b2 cd bc 88 e5 cb bc 16 ee 83 bd
       0.046339992 -0.025109502 -0.024889722 -0.06441896
0001f0 c4 1b cf 3d 59 85 14 3d 88 c0 24 bc ce ff f2 bc
       0.10112718 0.036259983 -0.010055669 -0.029662993
000200 b1 88 11 bd de 0e 2f bd ca a9 ea bc 20 ad 75 bc
       -0.03553075 -0.042738788 -0.028645415 -0.0149948895
000210 ab ed 16 3d bd 5d 7a 3c ad e6 ba 3c 7d 21 e2 bc
       0.03684775 0.015281138 0.022815073 -0.02760386
000220 f6 9c a3 3d ea 0b c6 bc b5 82 af 3d 6f d8 17 3d
       0.07988922 -0.024175603 0.08569852 0.03707164
000230 a4 99 18 bd 5e 78 8c bc 5a f3 c8 bc ae ec 20 3d
       -0.037255898 -0.01714724 -0.024530102 0.039288215
000240 9f fd 83 3c 97 69 73 bb c6 23 2b 3c 6e ae 75 bd
       0.016112147 -0.0037141794 0.010445541 -0.059980802
000250 db 17 3a bc 2e 0b 14 3d e3 01 f8 bb ab 37 9b 3d
       -0.011358227 0.036143474 -0.0075685843 0.07578977
000260 67 8b 15 bb 1f 20 7e bc 19 32 75 bd 8e 96 83 3c
       -0.0022818686 -0.015510588 -0.05986223 0.016063001
000270 52 27 06 3e b6 55 00 3e 6d 9c 1f bd 26 6b 65 3d
       0.13100937 0.12532696 -0.03896754 0.056010388
000280 2f 56 de bd f6 70 17 3d 19 45 db 3c 57 a6 a4 bd
       -0.10856282 0.036972962 0.026766347 -0.08039539
000290 4e 94 78 bc c9 30 8b bc 82 3f 53 3d e4 99 1b 3d
       -0.015172077 -0.016991036 0.051574238 0.03798856
0002a0 f7 3e 2b 3c 37 af ea 3a 84 51 b0 bc 86 6c de bc
       0.010452024 0.0017905001 -0.021523245 -0.027151357
0002b0 73 dd 85 3d bb 87 f8 3c fd d2 63 bd 0b 85 a2 3c
       0.06536379 0.030338159 -0.055621136 0.01983883
0002c0 33 50 a9 3d 28 dd 0d 3d b7 25 f1 bc 6a 7f 04 3d
       0.0826725 0.03463474 -0.02943693 0.032348074
0002d0 a4 14 12 bb a7 d5 2b 3c ca 7d c5 3c 95 a3 9d 3c
       -0.0022290135 0.01048795 0.024107832 0.019243041
0002e0 33 3c ff bc bc 09 84 bc 4f 77 b6 3d 9e 11 c3 bd
       -0.031156635 -0.016117923 0.08909475 -0.095248446
0002f0 d9 8f 50 bd 51 dd 23 bd 34 7b 70 3c df e4 03 3e
       -0.050918434 -0.040005986 0.014677811 0.12880276
000300 2f 6b 45 bc ed ad bf 3d 96 0f 38 3d f1 29 b1 3d
       -0.01204948 0.093593456 0.04493674 0.08650578
000310 fa 4a 52 3c 97 28 d8 bc b8 11 d7 3c f1 b1 3c 3c
       0.012835259 -0.026386542 0.026253566 0.011517034
000320 87 30 8c 3d bb 7f f9 bc 42 b1 b5 3c 94 6b fd bb
       0.06845193 -0.030456414 0.02217925 -0.0077337716
000330 ce a8 28 bd fb 8b b7 3d 9a a5 a2 bd 2a 85 b5 bd
       -0.04117661 0.08962246 -0.07941742 -0.0886329
000340 69 02 90 bd 22 7d 23 3c f4 9c 3d bc cc 2d c1 3c
       -0.0703171 0.009978564 -0.011573065 0.023581408
000350 ba d4 30 bc 0a 6e b2 3a d1 89 18 3d 8f 48 8f bc
       -0.010792905 0.0013613116 0.037240807 -0.017490653
000360 41 96 b4 bd 44 f2 20 3d 1a 3d 27 bc c9 e5 fc 3c
       -0.08817721 0.039293543 -0.010207439 0.030871289
000370 82 5f 89 3d 1c 73 08 3e 8c 21 a8 bc 7d 8c 92 bd
       0.0670767 0.1332516 -0.020523809 -0.07155702
000380 9e 16 58 bc 13 32 1d bd 0f 82 9f 3c 93 71 d9 b9
       -0.013188986 -0.038377833 0.019471196 -0.00041474085
000390 ae df af 3d ee 4f a1 3d 5c 29 c3 bc 16 ff b4 3d
       0.085875854 0.078765735 -0.023823433 0.08837716
0003a0 93 b1 12 bd 57 1c c8 3c 24 24 c7 3b 2f ba 4a 3d
       -0.03581388 0.024427576 0.0060773063 0.049493965
0003b0 25 15 a8 bb 8a f7 a3 bb 03 1d 0d 3d 7c bc a9 3d
       -0.0051294737 -0.005003874 0.034451496 0.08287904
0003c0 a0 1c dd 3d 3b 2e f3 3d 90 54 20 3d 8a f3 15 3d
       0.107964754 0.11874052 0.039143145 0.03660921
0003d0 55 d3 b0 bc ce 0a 47 3d 84 d2 96 bd 7c fc 81 bd
       -0.021585146 0.04859429 -0.073643714 -0.06346986
0003e0 e7 a9 b7 3a f8 d6 1b bd 26 ad 24 3d 60 00 db bc
       0.0014012427 -0.038046807 0.04020419 -0.026733577
0003f0 a8 77 d3 bb f6 19 06 3b 99 ee ef bc 3e e0 e9 bc
       -0.006453473 0.0020462251 -0.029288577 -0.02854931

4.bias f4 [100]
000000 5f 36 29 bc 67 f4 07 b9 07 65 14 3c 3f ea 06 bc
       -0.0103279045 -0.0001296565 0.00905729 -0.00823456
000010 3d d9 4c 3c 68 8d 77 bb 61 10 22 bd b5 b7 27 3d
       0.0125029655 -0.0037773494 -0.0395664 0.04094668
000020 51 a4 ad ba 2f 74 5e 3c 62 7e f7 3c 5c da 80 3d
       -0.0013247823 0.013577505 0.030211631 0.06291649
000030 79 6e 3f bb 9f 25 18 bd f1 bd 8a bc df 19 8a 3d
       -0.0029210134 -0.037145253 -0.016936274 0.06743216
000040 a9 5d c0 bb 71 bc 4e 3d 9e e7 41 3c 92 45 25 bd
       -0.00587054 0.05047268 0.011835007 -0.04034955
000050 4f 01 b5 3c 3d 9a c9 3c e3 1c 48 bb c9 fb 58 bc
       0.02209535 0.02460968 -0.0030534796 -0.013243624
000060 7b 17 3a 3c 28 27 05 3c 61 ab 93 3d c5 84 d9 3c
       0.011358137 0.008127011 0.07210422 0.026552567
000070 f6 46 63 bc 40 04 38 bd a9 c6 54 bb ed af 89 bc
       -0.013871899 -0.044925928 -0.0032467043 -0.01680752
000080 22 15 b8 3b d8 86 84 3c da 8e 08 3d 27 e5 84 bc
       0.0056177536 0.01617758 0.03333936 -0.01622255
000090 9a 81 ea 3c 44 82 20 bc 9b 3f 20 3d bd bf 0b 3d
       0.028626252 -0.009796683 0.03912316 0.034118403
0000a0 19 d0 88 3d 95 95 d9 bc 3c 95 06 3d b8 7e fd 3b
       0.066803165 -0.026560584 0.032857165 0.0077360533
0000b0 88 05 a5 bb ba ad b2 3d 98 0f 15 3d 56 c9 09 bd
       -0.0050360598 0.08724542 0.036391824 -0.033639275
0000c0 ad d6 fd bc bc 07 7d 3c b4 08 a5 bb dc 8e 42 3d
       -0.030986154 0.015443739 -0.005036438 0.047499523
0000d0 ae 82 7f 3d 61 7c 82 bc 08 1c 5d 3a 4c f0 81 3d
       0.062380485 -0.01592845 0.0008434658 0.06344661
0000e0 db f9 20 3c 0d 10 ea bc fb fa 64 3d de 58 25 ba
       0.009825195 -0.028572107 0.055903416 -0.0006307493
0000f0 c7 0e b5 3c 8b ad 8d 3d 38 12 bd 3c 5b 17 b3 bb
       0.022101773 0.06917866 0.023079976 -0.0054654307
000100 47 0f d3 bb c1 90 f6 3c 72 ce 04 bd 8d 3b 41 bc
       -0.00644103 0.03009832 -0.032423444 -0.011793983
000110 22 4e 16 3d 44 9a d8 3c 6c 6e ab 3b e1 e1 8c bc
       0.036695607 0.026440747 0.005231669 -0.017197551
000120 b8 6c 21 3d fd fe 0f 3d d6 51 da 3a 5a ad 92 bc
       0.039410323 0.035155285 0.0016656469 -0.017904926
000130 93 e5 d1 bc 24 67 cc bb bf 3a a6 3b 3c 96 6a 3d
       -0.025622165 -0.0062378813 0.005072921 0.05727218
000140 b3 02 13 3d 5d a4 64 3c 14 06 3c 3d 47 96 96 bc
       0.035891246 0.013955203 0.045904234 -0.018382205
000150 76 6f 12 3d 02 1a 8c 3c e8 ee 69 3c 74 9e 46 bb
       0.03575083 0.017102245 0.014278151 -0.0030306848
000160 a1 4f 06 3d 86 39 ed 3c 19 0f f1 3b 17 0b 0a bd
       0.032790784 0.028958093 0.007356536 -0.033701982
000170 68 00 1c 3d ec 93 e1 bc ad 90 1f 3c 97 a8 ad 3c
       0.038086325 -0.027536355 0.009739083 0.021198554
000180 aa 9c fe bc b5 28 ab 3d 8a 53 25 3d 55 16 99 bc
       -0.031080563 0.083573736 0.040362872 -0.018687407

6.weight f4 [3, 100]
000000 6a 4f 06 be c4 58 b4 3d a4 c6 fa 3b b6 de a6 3d
       -0.13116232 0.08805993 0.0076530743 0.081479475
000010 e3 ce e4 3d 1c 37 6c bd 3f 09 02 3d 03 44 4f 3d
       0.11172273 -0.057669744 0.0317471 0.05060197
000020 2d 12 33 3d fe fd 08 bd c2 33 94 3c ca fc 0c be
       0.043718506 -0.03344535 0.018091086 -0.13768306
000030 35 8b ad bd 8a 85 3c 3d ff 6a 88 3d c6 cf 89 3d
       -0.08473817 0.04602579 0.06661033 0.06729083
000040 7e 6f b3 3d b3 89 f9 3d 4e 56 c9 3d 2b 03 bd 3d
       0.087615 0.12184467 0.098309144 0.0922912
000050 0e f1 19 3d a6 b6 39 3d ec d6 4e bd 06 3f b6 3d
       0.037583403 0.045340203 -0.050497934 0.088987395
000060 be 15 bd bd ca fa bb 3d ba 20 8d 3d fb dc f7 3d
       -0.092326626 0.091786936 0.06891008 0.121026956
000070 a7 be 0c be e0 e6 08 3d 37 58 c7 3d 9c 8c af 3c
       -0.13744603 0.033423305 0.097336225 0.021429352
000080 cc 52 4c 3d ad e7 c2 3d 37 5c 3c bc 1c 69 8f bd
       0.04988365 0.09516845 -0.011496595 -0.0700247
000090 ea d2 b4 3d f9 ac 62 3d 1d 77 a1 3c 75 57 b7 3d
       0.08829291 0.05534074 0.019710118 0.08952228
0000a0 03 bf ab bc 8e c4 d0 3b 80 9e ea bc b7 20 90 bd
       -0.020965105 0.0063710874 -0.028640032 -0.0703749
0000b0 99 2b b8 bd 9b e0 96 bc 93 3c 51 bd 6c 7f 3a 3d
       -0.089926906 -0.018417647 -0.05108316 0.045531675
0000c0 27 8e f5 3c 6a 1f a1 3d d9 87 17 3c 33 e0 1b be
       0.02997501 0.0786732 0.009248697 -0.15222244
0000d0 03 b7 85 bd d9 b2 f9 bc 74 62 cd 3d 8f 30 fa bd
       -0.06529047 -0.030480789 0.10028544 -0.12216293
0000e0 23 f0 39 3d 7d 00 73 3d 60 8d 0d bc 8b 0f ee bc
       0.045395028 0.059326638 -0.008639663 -0.029060146
0000f0 53 de 79 bd 45 90 69 bb a7 f1 be 3d 53 d3 01 3d
       -0.06100304 -0.003563897 0.09323435 0.031695675
000100 bf b0 04 bc 72 fe 07 bd 9b e4 b6 bd 8d 90 c1 bd
       -0.00809878 -0.033201642 -0.08930322 -0.09451399
000110 bd 9f ca 3d 6e 5a 7c bd 68 1a d5 bd 1f e1 bc bd
       0.09893749 -0.061609678 -0.10405427 -0.09222626
000120 16 5c 09 3e 8f 5a e8 3d 91 e3 a2 bd 20 3e 29 be
       0.13414034 0.11345398 -0.07953561 -0.16527605
000130 c7 4e 4d bd 13 50 71 3d 6f 34 ab bd fe 45 8e 3d
       -0.050123956 0.058914255 -0.0835961 0.06946944
000140 c8 29 d2 3d 12 2c a3 3d 0f 42 e8 bd 28 4f 85 bd
       0.102618754 0.0796739 -0.11340725 -0.065092385
000150 73 85 a0 bd 21 90 f8 bd 54 7c 1c be 78 f7 aa 3d
       -0.078379534 -0.121368654 -0.15281802 0.08347982
000160 8e ab 36 3d dd bb 15 3d ea 4f 11 3d 63 ba b8 3d
       0.0445972 0.036556114 0.035476603 0.090199254
000170 1c a3 c4 3d 8a 26 57 bd 43 8d b2 bd f0 68 f7 3d
       0.09601423 -0.052526988 -0.0871835 0.12080562
000180 98 98 9a bd 98 aa e2 bd f9 a3 e9 3d c7 32 a5 bd
       -0.07548636 -0.110676944 0.114082284 -0.08066326
000190 3a 07 0c be 18 60 b8 bb 83 d1 8c bd 73 07 41 bd
       -0.13674632 -0.0056266896 -0.06875899 -0.047126245
0001a0 7f b0 e5 3b 07 eb 03 be dd e7 89 bd 87 e4 bf 3d
       0.0070095654 -0.12882625 -0.067336775 0.0936976
0001b0 a7 08 06 bd 7c e8 1c be d1 e4 ed 3d ce 59 11 be
       -0.032723095 -0.15323061 0.11615909 -0.14194414
0001c0 5a 52 5c 3d f3 00 5d bc 60 cc c3 3d 8d ab de 3d
       0.053789474 -0.013488996 0.09560466 0.108725645
0001d0 ea bd af 3d 06 0b 9a 3d 6f 65 ee bc 7f f9 c9 3d
       0.08581145 0.07521634 -0.029101102 0.09862041
0001e0 8f 69 be bd f9 3b 0f 3e ee 29 8b bd 7d ec 46 3b
       -0.092974775 0.13987722 -0.06795107 0.003035336
0001f0 44 70 9d bd 2f 19 83 3d df 02 89 3d 76 4a bf 3a
       -0.076874286 0.06401288 0.06690001 0.0014594335
000200 c1 70 23 be 2d f1 4a bd f8 c9 2c 3d 92 6f 20 be
       -0.15960981 -0.04954641 0.0421848 -0.1566756
000210 3b 46 5d 3c 2a 65 a5 3c 5a 11 16 be c9 4c c7 3b
       0.013505514 0.02018984 -0.14655057 0.0060821516
000220 7e d9 92 3d e1 56 ea 3b 39 21 f7 3d 74 ad 0e 3e
       0.071703896 0.00715147 0.120668836 0.13933355
000230 f4 fb 7f 3d 61 5f 40 bd 77 2f 4f bd 9d d2 bb bd
       0.06249614 -0.04696596 -0.050582375 -0.09171031
000240 a4 31 f6 bd 6f 52 b5 3d dc b3 18 be 57 c4 bb 3c
       -0.12021187 0.088536136 -0.14912361 0.02292077
000250 2a 56 99 bd 05 c0 b8 bb ea 68 95 3c eb ed da bd
       -0.074871376 -0.005638125 0.018238503 -0.106899105
000260 93 0b c6 3d b8 fc 70 bd 1e a0 69 bd c2 11 ff bc
       0.09670176 -0.05883476 -0.057037465 -0.031136397
000270 4e 42 ac 3d 70 1e 6e bd 6b 8e 02 3e 80 fb 06 3d
       0.08411084 -0.058134496 0.1274964 0.032954693
000280 8b 8f b5 bd 34 31 dc 3d 40 a7 fc 3d 72 ab 8c 3d
       -0.08865269 0.10751572 0.12336588 0.06868638
000290 b8 e6 9f bd 10 07 a0 bd 1d 30 a1 3d 1a 86 b7 bd
       -0.07807678 -0.07813847 0.07870505 -0.08961125
0002a0 04 29 92 3d 4c b5 02 be 5b fa 00 be 7e 17 23 3d
       0.07136729 -0.12764472 -0.12595503 0.039817326
0002b0 e2 b8 88 3c 76 c1 32 3d da fb b9 3d 08 f0 ea bd
       0.016689721 0.04364153 0.0908124 -0.114715636
0002c0 51 0f 89 bd 7f 60 1b 3d 00 04 4b 3a f1 f9 75 3d
       -0.066923745 0.037933823 0.00077444315 0.060052816
0002d0 87 86 4a 3d 9b bf c5 bd 7f f2 8d bd 90 5c 92 3c
       0.0494447 -0.096556865 -0.06931018 0.017866403
0002e0 b1 a1 b7 3c 45 e4 11 bd 90 a4 d7 bd 20 ec 7f bb
       0.022415968 -0.035618085 -0.10529435 -0.0039050654
0002f0 61 b9 c2 bd 12 73 90 bd bf d5 cb 3d b5 0d b2 3d
       -0.095080145 -0.07053198 0.09952878 0.08694021
000300 15 17 5a bd 4d 2d a1 bd 2c c7 d0 3d 03 70 12 bd
       -0.05324467 -0.078699686 0.10194239 -0.035751354
000310 bd 5c 9a 3d 2c fd 9f bd db a0 5f 3c 84 77 c5 bc
       0.0753722 -0.078119606 0.013649191 -0.024104841
000320 b7 06 c0 bd e0 ba d0 bd eb 52 84 3d 37 08 c9 bd
       -0.09376281 -0.101918936 0.06461128 -0.0981602
000330 f0 d8 05 bd bd a1 f7 bd 60 90 95 3c 14 8f b9 3b
       -0.03267759 -0.12091396 0.01825732 0.005662808
000340 80 1a a4 3c cb 4f e5 bd bc 53 8d bd cb 37 16 be
       0.020032167 -0.1119686 -0.06900737 -0.14669721
000350 33 d0 8a 3b cf 34 90 bd 93 af cc 3c 0a ba 26 be
       0.004236245 -0.070413224 0.024986064 -0.16281906
000360 0b 4e 01 3d 6c 04 f9 bd e0 a0 c2 bd e7 43 03 bc
       0.03156857 -0.121590465 -0.09503341 -0.008011795
000370 1d d1 87 bd b4 02 87 bc 0e 18 ca bd a1 3e 22 be
       -0.06631682 -0.016480781 -0.09867869 -0.15844204
000380 d6 9b 9e bd 4f 99 89 3d 5e e5 1f be b4 95 a4 3c
       -0.07744567 0.067186944 -0.1561484 0.020090915
000390 da 18 31 bd 67 2c e1 bb 12 5b 1e 3d 95 4c 1e be
       -0.04323659 -0.0068717482 0.03866107 -0.15458901
0003a0 27 ba 9b bd 15 4a 24 3d 69 30 29 be 87 da d6 3c
       -0.07603865 0.040109713 -0.16522373 0.026227249
0003b0 3f 96 45 bd ef 7e 63 bd 45 50 04 be 4c 3d 29 be
       -0.04823899 -0.055540975 -0.12921245 -0.16527289
0003c0 39 c6 87 bd bd 02 77 3d 4b 63 ab 3d 87 b5 86 bd
       -0.06629605 0.060305346 0.08368548 -0.06577592
0003d0 4c 47 ba bd cd 9e 2c be fd 24 2b bc 26 7e 8b 3d
       -0.0909563 -0.16857453 -0.01044583 0.0681117
0003e0 dd 2e 21 3d 64 d1 00 be 33 43 76 bc 7f 98 e4 bd
       0.039351333 -0.12579876 -0.01503067 -0.11161899
0003f0 71 56 69 bd 7a 58 7a bd f5 d4 99 bd e2 ec 09 be
       -0.056967203 -0.061119534 -0.075113215 -0.1346927
