my_model.ckpt (torch, 612382 bytes, 7 tensors)

0.weight f4 [200, 6]
-0.0048684105 -0.004231688 -0.075208075 1.0585978 0.343496 0.16790777 -0.10905154 0.044548754
0.042913552 -0.43543845 -0.58621174 0.395834 0.03420209 -0.22492744 -0.3578093 0.2931561
-0.21646902 -0.3868084 -0.29706702 0.31434613 -0.19790158 0.5050004 0.16722049 -0.2572003
-0.3548233 -0.40425304 -0.33847106 0.5962206 0.08010882 0.130369 0.276389 -0.23826405
0.19441853 -0.9688875 -0.27010334 0.30487114 0.0148740765 0.089152955 0.43624637 0.15399496
-0.25992703 -0.24558565 0.5117988 -0.171312 -0.71169025 0.27565563 -0.5488196 0.4553607
0.3722876 -0.020564854 -0.14646631 -0.33464482 -0.33958054 0.42228845 -0.039193694 -0.31910625
-0.71337956 0.21759358 0.4902303 0.41185927 -0.3136951 -0.08240086 0.14512444 0.50674856
0.20286354 0.07685209 0.49658728 -0.1877007 0.42321947 -0.37364313 -0.32691523 -0.04450004
0.041687027 -0.50216466 -0.35374174 -1.7610945 -0.3037098 0.07042429 0.018213907 -0.04768075
0.19336343 -0.3294601 -0.6629303 0.23366302 0.33207437 -0.19154145 0.20212212 0.8988976
0.44978663 0.2531632 -0.63396555 -0.42438772 -0.18164332 0.06161273 0.33184636 -0.6305036
-0.3634085 -0.08168976 -0.011526115 0.18322542 0.29660103 -0.5906885 -0.31744242 0.019282462
0.52476436 0.02592766 -0.26920843 -0.2803874 -0.2959688 -0.4114149 0.31137633 -0.05678421
-0.023692703 0.40877202 0.47434214 0.5419376 -0.028443284 -0.34886572 0.039992455 0.48337004
0.07014588 0.19235122 0.31805545 1.0495502 0.3201381 0.026362967 0.549096 -0.09276219
0.5496493 -0.67513037 0.049005236 0.4146929 0.15315953 0.039244182 -1.0257475 -0.6848136
0.17513475 0.42989588 0.48874786 0.31836328 -0.48216212 -0.38935283 -0.10161127 0.2691169
0.10115042 0.022950374 -0.22180666 0.4599813 0.11074995 -0.260885 0.1295442 -0.007901598
0.39394277 -0.13012202 0.4815828 -0.039494924 -0.42137352 0.15794504 0.114259996 0.44787815
0.24080183 -0.27885517 0.17855395 0.26755923 0.69412476 -0.22062393 -0.24008322 -0.005976902
-0.1891772 0.079764344 -0.1730629 0.8667551 0.5570068 0.112734154 -0.69836974 -0.5709799
-0.09358076 0.32298288 0.08005367 -0.51177186 -0.067382246 0.6290848 -0.060399547 0.3852773
0.17945598 0.115015276 0.3709382 -0.007551998 0.0024204513 -2.3089461 -0.38229322 -0.01968585
0.452445 -0.1185908 0.37986168 -0.19520383 0.40210226 0.45114198 -0.16174778 0.39436787
0.52272755 0.3294798 0.05124835 0.27272174 0.27912143 -0.71914595 -0.06946226 -0.14661123
-0.04668008 0.0131560005 -0.07628785 0.20317581 0.16380474 -1.5282012 0.15356958 0.43961486
0.5270874 0.23465784 0.16004734 0.37754455 -1.4023736 0.12787478 0.21178937 0.11042663
0.5348203 -0.4922167 0.17860065 0.42630827 0.15502581 0.008114568 -0.8553302 -0.9983334
0.012068356 -0.0783445 0.16149548 0.0794347 0.051668867 0.16461347 0.118319675 -0.37067607
-0.21325652 0.3204508 0.026755475 0.4232021 -0.12754534 -0.36488992 0.03569385 -0.069139585
-0.100982204 0.6492642 0.48148143 0.061820555 -0.589909 0.23327273 0.73376346 0.62344503
00000000: 3087 9fbb f9a9 8abb b106 9abd 2280 873f
00000010: b5de af3e 04f0 2b3e 6a56 dfbd c178 363d
00000020: 1fc6 2f3d caf1 debe f911 16bf c1aa ca3e
00000030: 7e17 0c3d 6153 66be c832 b7be 8e18 963e
00000040: 0eaa 5dbe c00b c6be 2b19 98be faf1 a03e
00000050: b6a6 4abe b547 013f d93b 2b3e c2af 83be
00000060: 66ab b5be 41fa cebe 144c adbe eaa1 183f
00000070: 1810 a43d 737f 053e dc82 8d3e 7efb 73be
00000080: a715 473e 0309 78bf fc4a 8abe 1218 9c3e
00000090: 66b2 733c d395 b63d af5b df3e dbb0 1d3e
000000a0: 2815 85be ce7a 7bbe 3f05 033f 6a6c 2fbe
000000b0: 5531 36bf bc22 8d3e 717f 0cbf 0a25 e93e
000000c0: 7b9c be3e a077 a8bc 44fb 15be 9156 abbe
000000d0: 80dd adbe 3136 d83e 9189 20bd e561 a3be
000000e0: 0ba0 36bf dad0 5e3e 77ff fa3e 38df d23e
000000f0: a59c a0be c8c1 a8bd 809b 143e 46ba 013f
00000100: 76bb 4f3e a164 9d3d b040 fe3e 9d34 40be
00000110: 39b0 d83e 274e bfbe 6f61 a7be ad45 36bd
00000120: 04c0 2a3d dd8d 00bf a31d b5be 8b6b e1bf
00000130: da7f 9bbe 9c3a 903d 5535 953c e44c 43bd
00000140: 1001 463e ffae a8be cdb5 29bf 5c45 6f3e
00000150: a705 aa3e 7123 44be 1af9 4e3e 271e 663f
00000160: 6f4a e63e 9b9e 813e 914b 22bf 5949 d9be
00000170: b500 3abe a15d 7c3d c4e7 a93e af68 21bf
00000180: ae10 babe f64c a7bd 08d8 3cbc 729f 3b3e
00000190: 17dc 973e 5d37 17bf d087 a2be 41f6 9d3c
000001a0: f556 063f 3e66 d43c b0d5 89be f08e 8fbe
000001b0: 3989 97be f9a4 d2be b86c 9f3e 8f96 68bd
000001c0: 3317 c2bc 914a d13e f9dc f23e 6cbc 0a3f
000001d0: e401 e9bc 879e b2be 21cf 233d 477c f73e
000001e0: a5a8 8f3d b8f7 443e 2ad8 a23e a957 863f
000001f0: 24e9 a33e 26f7 d73c 8e91 0c3f 1afa bdbd
00000200: d1b5 0c3f 58d5 2cbf b7b9 483d a152 d43e
00000210: dad5 1c3e 82be 203d b24b 83bf f24f 2fbf
00000220: 8656 333e 501b dc3e 293d fa3e 8300 a33e
00000230: f4dd f6be 4159 c7be 9219 d0bd b1c9 893e
00000240: f427 cf3d 6c02 bc3c 4921 63be ab82 eb3e
00000250: dfd0 e23d b892 85be 3ca7 043e b475 01bc
00000260: deb2 c93e b53e 05be 0592 f63e 6ec5 21bd
00000270: 45be d7be 58bc 213e 2501 ea3d 4950 e53e
00000280: c194 763e 1bc6 8ebe d9d6 363e 86fd 883e
00000290: 29b2 313f 3deb 61be 60d8 75be e3d9 c3bb
000002a0: abb7 41be 7d5b a33d 6737 31be aae3 5d3f
000002b0: ff97 0e3f 2ae1 e63d 5cc8 32bf bd2b 12bf
000002c0: 45a7 bfbd 035e a53e 2ef3 a33d 7b03 03bf
000002d0: b4ff 89bd b40b 213f 8465 77bd 1143 c53e
000002e0: 4fc3 373e 218d eb3d 9deb bd3e c076 f7bb
000002f0: 6fa0 1e3b c6c5 13c0 f0bb c3be 3844 a1bc
00000300: dfa6 e73e bcdf f2bd 3b7d c23e 83e3 47be
00000310: 59e0 cd3e 15fc e63e 36a1 25be 96ea c93e
00000320: 79d1 053f 94b1 a83e cae9 513d 2fa2 8b3e
00000330: 01e9 8e3e f319 38bf 3b42 8ebd 4121 16be
00000340: 9d33 3fbd 448c 573c ce3c 9cbd 520d 503e
00000350: 6ebc 273e 199c c3bf 5841 1d3e 3315 e13e
00000360: 33ef 063f 254a 703e 73e3 233e 854d c13e
00000370: fa80 b3bf 9bf1 023e 50df 583e 5b27 e23d
00000380: fce9 083f d403 fcbe 17e3 363e 1445 da3e
00000390: 16bf 1e3e f7f2 043c ecf6 5abf c792 7fbf
000003a0: 5bba 453c 1573 a0bd 125f 253e a9ae a23d
000003b0: bca2 533d 6f90 283e 9651 f23d 41c9 bdbe
000003c0: eb5f 5abe 2112 a43e 4c2e db3c f2ad d83e
000003d0: 3f9b 02be dad2 babe b733 123d 0e99 8dbd
000003e0: c2cf cebd 2e36 263f bc84 f63e 8d37 7d3d
000003f0: 4704 17bf 0cdf 6e3e ecd7 3b3f 189a 1f3f

0.bias f4 [200]
-0.18015516 -0.46808037 -0.21378343 0.444585 0.18782854 0.3592965 0.33327505 0.09761535
0.24863926 0.41505787 0.49678135 0.35365823 0.0418169 -0.552008 0.24499917 -0.36997432
0.23379456 0.32255736 0.49721652 -0.19365251 -0.19891685 -0.237434 -0.14841308 0.35043103
0.52712387 0.26953185 0.047741216 0.18551297 0.44323272 0.31165054 -0.30138332 0.34426206
-0.0006322484 -0.06801339 -0.24606617 0.21187049 -0.23588769 0.18147148 0.18174669 -0.38904884
0.42926073 0.32486585 0.28126216 0.23085542 0.37119332 -0.21012403 0.18861043 -0.12226996
0.041948836 -0.3498884 0.09482132 -0.12859556 -0.34931234 -0.3832561 -0.41709912 0.16506997
-0.3087079 -0.05709151 0.13850832 0.15279591 0.06887317 -0.33350548 0.08131886 0.025670191
-0.31823424 -0.07275448 0.2630611 0.49998894 0.12979177 0.08783914 0.035673145 0.36257058
-0.07041249 0.0075406916 0.32378525 0.26904315 0.29017103 0.12675641 0.20309687 0.389672
0.20093913 0.3723662 -0.013964522 -0.29308352 -0.31690893 0.28185284 0.48303747 0.19309537
0.52799237 0.43309495 0.1487024 0.4477685 0.4454988 -0.26988074 -0.28072277 -0.031241152
0.2424032 -0.106988326 -0.25379232 -0.10176842 -0.1332314 0.39937055 -0.21059974 0.330973
0.43149656 -0.16781512 0.18231508 -0.19637738 0.42113703 -0.19337298 0.03978339 0.28447342
0.040468007 0.4138844 0.18534763 0.53971505 -0.17646705 0.28910112 -0.27059874 -0.34643206
0.2495198 0.5694741 -0.3867934 0.03513012 -0.44911203 0.18254487 -0.0609776 0.11426617
-0.23284718 0.12691899 0.03871997 0.10287124 0.42024457 0.36779732 -0.12516631 -0.31836048
-0.04936236 0.33531553 0.13957353 -0.10808598 -0.0015792281 -0.38699237 -0.14887889 -0.15025888
-0.15163533 0.23252133 -0.3806909 -0.16252106 0.044160854 0.07523882 0.31461617 0.042038783
-0.2580307 0.047403634 -0.12548374 0.45305067 0.29922965 -0.03469494 0.33471468 0.2549593
0.2178888 -0.28738987 0.33470953 -0.048118178 -0.3720326 -0.2205645 -0.26534897 -0.2930581
-0.12658884 -0.34409392 -0.056435894 0.091390274 -0.32033893 -0.029120961 -0.1779105 0.2830185
0.21560928 -0.3312431 -0.33829358 0.13659091 0.37697875 0.35350034 -0.2650602 0.45869002
0.35964838 0.14134295 -0.4073542 0.5931615 0.4123257 -0.31072977 0.072661944 0.04116642
-0.0465456 0.16331525 -0.3107187 -0.3704108 -0.41358334 -0.26615548 -0.0070849503 -0.060669668
00000000: 987a 38be 3ba8 efbe 0bea 5abe a5a0 e33e
00000010: 2056 403e b6f5 b73e 07a3 aa3e 8eea c73d
00000020: 4a9b 7e3e 7782 d43e 205a fe3e b112 b53e
00000030: 3348 2b3d 6550 0dbf 10e1 7a3e 466d bdbe
00000040: d767 6f3e 3d26 a53e 2a93 fe3e d84c 46be
00000050: dcb0 4bbe e621 73be 99f9 17be b26b b33e
00000060: 97f1 063f 1400 8a3e 4b8c 433d 1df7 3d3e
00000070: 66ef e23e a990 9f3e ea4e 9abe 1e43 b03e
00000080: 79bd 25ba 9b4a 8bbd c5f8 7bbe 94f4 583e
00000090: 8b8c 71be a9d3 393e ce1b 3a3e 6931 c7be
000000a0: 10c8 db3e d154 a63e 9801 903e 5d65 6c3e
000000b0: 0d0d be3e c12a 57be 1823 413e ac68 fabd
000000c0: 8bd2 2b3d 9324 b3be ae31 c23d 8eae 03be
000000d0: 11d9 b2be 253a c4be 048e d5be 1a08 293e
000000e0: f60e 9ebe cad8 69bd 20d5 0d3e 8876 1c3e
000000f0: 600d 8d3d 3bc1 aabe 818a a63d 4b4a d23c
00000100: 99ef a2be 4d00 95bd f2af 863e 8dfe ff3e
00000110: 22e8 043e 02e5 b33d 011e 123d daa2 b93e
00000120: 6c34 90bd e817 f73b 2ec7 a53e 06c0 893e
00000130: 4c91 943e 6fcc 013e a0f8 4f3e 1783 c73e
00000140: fdc2 4d3e c8a6 be3e 73cb 64bc 0b0f 96be
00000150: e341 a2be 044f 903e b050 f73e cbba 453e
00000160: 822a 073f 9fbe dd3e 7145 183e ea41 e53e
00000170: 6b18 e43e cf2d 8abe e5ba 8fbe 72ed ffbc
00000180: 8b38 783e b21c dbbd 11f1 81be f66b d0bd
00000190: d06d 08be 4c7a cc3e 75a7 57be 4b75 a93e
000001a0: 1eed dc3e bad7 2bbe ceb0 3a3e 2717 49be
000001b0: 469f d73e 9103 46be e8f3 223d 80a6 913e
000001c0: c8c1 253d a8e8 d33e c5cb 3d3e c42a 0a3f
000001d0: c7b3 34be 1005 943e eb8b 8abe 8b5f b1be
000001e0: 1e82 7f3e 0ec9 113f c909 c6be 9ae4 0f3d
000001f0: 03f2 e5be 0bed 3a3e a6c3 79bd 6204 ea3d
00000200: 7e6f 6ebe 0df7 013e d598 1e3d 28ae d23d
00000210: 4c2a d73e ee4f bc3e 992b 00be 2500 a3be
00000220: 3030 4abd 7aae ab3e 5dec 0e3e 2f5c ddbd
00000230: 1afe ceba dd23 c6be b573 18be 77dd 19be
00000240: 4b46 1bbe 121a 6e3e ebe9 c2be ec6b 26be
00000250: 03e2 343d cf16 9a3d 5f15 a13e dc30 2c3d
00000260: 9a1c 84be 502a 423d cf7e 00be 42f6 e73e
00000270: a134 993e 481c 0ebd b95f ab3e 068a 823e
00000280: 3e1e 5f3e c424 93be 0c5f ab3e 9117 45bd
00000290: 0f7b bebe a9db 61be d2db 87be b60b 96be
000002a0: 81a0 01be 142d b0be 5329 67bd d32a bb3d
000002b0: 7703 a4be 158f eebc 2c2e 36be cde7 903e
000002c0: aec8 5c3e b298 a9be d134 adbe 7dde 0b3e
000002d0: 5c03 c13e fffd b43e f8b5 87be 6bd9 ea3e
000002e0: d523 b83e 35bc 103e bb90 d0be 6fd9 173f
000002f0: 5b1c d33e f917 9fbe c9cf 943d 1f9e 283d
00000300: 99a6 3ebd 1d3c 273e 8516 9fbe 7ca6 bdbe
00000310: 32c1 d3be 8845 88be df28 e8bb c280 78bd

2.weight f4 [500, 200]
0.061333593 -0.062044922 0.06939939 -0.03367979 -0.032470323 -0.06548121 -0.018642833 -0.03652612
0.015880298 -0.0047156066 0.047787722 0.033473063 -0.004840928 0.06513955 0.056622498 0.052287027
-0.014035378 0.014640904 -0.054041304 0.034228597 0.029307654 -0.065188356 0.020585863 -0.014675852
-0.004019187 0.047921583 0.025337791 0.04736028 -0.0045923796 -0.010553673 0.041537378 -0.03413543
0.011635648 0.026468467 0.04345196 -0.054162886 -0.0054586325 -0.0058107753 0.064572185 -0.05205807
0.0608899 -0.0698625 -0.06564869 0.01990707 -0.039268456 -0.070081376 -0.031621184 -0.023575548
-0.061595533 -0.044556394 0.046463657 0.040026437 -0.044988476 -0.040218454 0.040998586 -0.009616194
-0.017155573 0.06452757 -0.019429317 -0.02777896 0.047210783 -0.046154924 0.004902692 -0.019738212
-0.013488602 0.035019204 0.0029390575 -0.056582455 0.0054516443 -0.038855627 0.02022985 0.0433934
0.041355584 -0.03981494 0.033202875 -0.038997844 -0.022957927 0.00967869 0.03788926 -0.020167349
-0.044902273 -0.032841634 0.01406498 -0.013116925 0.03665897 0.00025859688 -0.07521895 0.059611708
0.036722366 -0.019314472 0.021502204 -0.06678554 -0.061285105 0.06578038 0.0022638254 0.010916016
0.06340312 0.06818738 0.008627662 0.020632064 0.064655185 -0.004212535 -0.060899958 0.047889967
-0.025366819 -0.0026173193 -0.07384024 -0.0043004523 -0.06047304 -0.06742858 0.01849728 0.047101453
0.011380636 -0.023365254 0.041793518 -0.07519145 -0.066693805 -0.066770345 -0.042513218 0.015350565
0.032943852 -0.059100065 -0.06866627 -0.06748435 0.027889911 -0.040159997 0.044465933 -0.060667347
-0.006785677 -0.0061720437 -0.011471673 -0.055018086 -0.0004895682 -0.025933681 -0.044451766 0.008589169
0.02076643 -0.006836746 0.045998555 -0.032196395 0.03711863 -0.03295498 -0.051296644 0.068755046
-0.0224108 -0.06507848 0.05963736 0.020439167 0.05922402 0.0010452133 0.022700926 -0.020279462
-0.001221544 0.009641035 0.0369442 0.010193955 -0.0037694634 -0.03526137 0.017559798 -0.029125014
0.053138494 -0.026135318 -0.005192121 -0.025130957 0.06901205 0.052802358 -0.036903486 -0.06472615
0.03503948 -0.0026677607 0.015172394 -0.041676935 0.03293263 -0.004356815 0.04150672 -0.011809155
-0.04644872 0.009799943 0.03440004 0.004124841 0.029469103 -0.025596444 -0.0118927285 -0.026175685
-0.03076242 -0.0136690345 -0.03804759 -0.043292027 -0.04840254 -0.053220928 0.023564886 -0.0728103
0.018175479 -0.01587256 -0.03018895 0.020441601 0.04850176 0.014886181 0.06104801 0.045823533
0.48929465 -0.19736207 0.03366602 0.17825691 0.49660805 -0.07449251 -0.016380029 0.49163637
-0.07518558 0.06494394 0.19216971 -0.2626686 -1.0185347 -0.57193244 0.106931224 0.50212085
0.034727097 -0.093855314 0.046199955 0.07086469 0.17785971 -0.33450612 -0.022244312 -0.11096372
0.18499438 0.03891748 0.2931862 -0.11174444 0.18856438 0.20306015 0.47542283 -1.0114722
0.021626392 -0.10323145 -0.18686643 -0.75195074 -0.2124414 -0.071323305 -1.0582945 -0.051025786
0.13627931 0.16510956 0.1259014 -0.8137774 0.24937679 0.5288256 0.14244491 0.31386232
-0.17829536 -0.056176443 0.67616206 0.36373228 -0.037053388 0.3292213 0.03712194 0.027963854
00000000: ef38 7b3d d122 7ebd 4421 8e3d d2f3 09bd
00000010: 9aff 04bd 031b 86bd dbb8 98bc 6a9c 15bd
00000020: 6617 823c 6085 9abb 0fbd 433d 0d1b 093d
00000030: a6a0 9ebb e267 853d feec 673d ec2a 563d
00000040: a4f4 65bc 67e0 6f3c 6a5a 5dbd 4933 0c3d
00000050: 9b16 f03c 7981 85bd afa3 a83c fc72 70bc
00000060: 62b3 83bb 6c49 443d 3391 cf3c dafc 413d
00000070: ac7b 96bb 50e9 2cbc 1923 2a3d 98d1 0bbd
00000080: 72a3 3e3c 66d4 d83c affa 313d e7d9 5dbd
00000090: 54de b2bb 5168 bebb 6c3e 843d d83a 55bd
000000a0: b067 793d 1214 8fbd d272 86bd 2714 a33c
000000b0: f6d7 20bd d386 8fbd 3785 01bd 8221 c1bc
000000c0: 994b 7cbd c480 36bd ad50 3e3d c3f2 233d
000000d0: d645 38bd 1bbc 24bd 22ee 273d 3e8d 1dbc
000000e0: d889 8cbc 0827 843d 3b2a 9fbc b490 e3bc
000000f0: 1860 413d f20c 3dbd c3a6 a03b 08b2 a1bc
00000100: 4cff 5cbc 4c70 0f3d 349d 403b 01c3 67bd
00000110: b5a3 b23b 1427 1fbd 12b9 a53c 47bd 313d
00000120: 7964 293d fe14 23bd bdff 073d 34bc 1fbd
00000130: 4312 bcbc 5e93 1e3c c531 1b3d ff35 a5bc
00000140: 72eb 37bd f384 06bd cd70 663c 5fe8 56bc
00000150: b727 163d 4994 8739 650c 9abd 682b 743d
00000160: 316a 163d 6239 9ebc 6425 b03c dbc6 88bd
00000170: 1706 7bbd ddb7 863d b05c 143b 17d9 323c
00000180: 7fd9 813d d3a5 8b3d 0a5b 0d3c 9304 a93c
00000190: f069 843d 4e09 8abb 3c72 79bd 4528 443d
000001a0: 13ce cfbc 5587 2bbb 8d39 97bd cfea 8cbb
000001b0: 94b2 77bd ff17 8abd 9c87 973c 74ed 403d
000001c0: d975 3a3c 7d68 bfbc ae2f 2b3d fafd 99bd
000001d0: c396 88bd e4be 88bd 5722 2ebd f080 7b3c
000001e0: 22f0 063d e912 72bd e7a0 8cbd 3c35 8abd
000001f0: 6279 e43c cf7e 24bd e921 363d 537e 78bd
00000200: 625a debb db3e cabb aff3 3bbc a55a 61bd
00000210: 5e56 00ba df72 d4bc 0e13 36bd 96b9 0c3c
00000220: 5c1e aa3c c806 e0bb fb68 3c3d 5ee0 03bd
00000230: b409 183d cdfb 06bd 6e1c 52bd 72cf 8c3d
00000240: db96 b7bc de47 85bd 4e46 743d 0a70 a73c
00000250: e394 723d 8aff 883a 4bf7 b93c 1d21 a6bc
00000260: 371c a0ba 6ff5 1d3c cd52 173d 8c04 273c
00000270: 1a09 77bb 3a6e 10bd 91d9 8f3c 9597 eebc
00000280: c0a7 593d bc19 d6bc ab22 aabb 70df cdbc
00000290: 3156 8d3d 4947 583d 1c28 17bd 258f 84bd
000002a0: 8f85 0f3d 99d5 2ebb a295 783c 6fb5 2abd
000002b0: 5ee4 063d 9dc3 8ebb f302 2a3d 307b 41bc
000002c0: 0341 3ebd f18f 203c 0ee7 0c3d ad29 873b
000002d0: 3069 f13c a2af d1bc b8d9 42bc 646e d6bc
000002e0: 7801 fcbc 16f4 5fbc cad7 1bbd fb52 31bd
000002f0: be41 46bd 30fe 59bd 260b c13c 911d 95bd
00000300: bee4 943c 2c07 82bc d14e f7bc 2575 a73c
00000310: c8a9 463d 2be5 733c 7a0d 7a3d 75b1 3b3d
00000320: d484 fa3e 4819 4abe 61e5 093d fb88 363e
00000330: 6943 fe3e 878f 98bd 692f 86bc c3b7 fb3e
00000340: e6fa 99bd 5401 853d 23c8 443e 807c 86be
00000350: 585f 82bf 2a6a 12bf c2fe da3d fe8a 003f
00000360: 003e 0e3d 3737 c0bd 2a3c 3d3d 8221 913d
00000370: db20 363e 6344 abbe b439 b6bc f240 e3bd
00000380: 2b6f 3d3e ef67 1f3d 801c 963e 45da e4bd
00000390: 0517 413e 00ef 4f3e 9f6a f33e ec77 81bf
000003a0: d529 b13c 036b d3bd ea59 3fbe d87f 40bf
000003b0: 3d8a 59be f411 92bd 3276 87bf 6a00 51bd
000003c0: ce8c 0b3e 7b12 293e 4cec 003e b753 50bf
000003d0: a15c 7f3e 1d61 073f 14dd 113e 90b2 a03e
000003e0: 0f93 36be 4519 66bd f518 2d3f 1e3b ba3e
000003f0: 4bc5 17bd b28f a83e 2d0d 183d 7414 e53c

2.bias f4 [500]
-0.027757319 0.041008558 0.12340349 0.0015295299 -0.028685525 0.23548044 0.06798841 -0.027098272
0.0069284085 0.02626946 0.04192262 -0.050576586 0.011949879 0.14331937 0.05195768 0.078886114
0.08959662 0.15720358 0.12705871 0.026086451 0.32821837 0.1304434 -0.004482705 0.09614265
-0.0061080167 0.15896592 0.060971677 0.09484127 0.0049158693 -0.046680603 0.06578401 0.08976614
-0.07048347 -0.06681747 -0.061627854 0.107781194 0.21104582 -0.075480215 0.29991058 0.019821772
0.1739342 0.06845054 -0.06453052 0.059616823 -0.06312271 0.26561296 0.17265657 0.40061042
0.11795705 0.06618861 0.22856237 -0.06718233 0.048595622 0.04069144 0.062120218 -0.023992052
-0.05968404 -0.009197273 0.1665564 -0.046087306 0.115804374 0.0031089573 0.09423004 0.045308616
0.026317278 -0.0821046 0.2368892 -0.006368732 0.07127448 -0.036749296 0.050437644 -0.031876244
-0.018968882 0.009965426 0.22349352 0.2966692 -0.027695956 0.034119908 -0.090489216 0.12444424
0.018565033 0.09842503 0.13857423 0.2737718 -0.01189692 -0.012276417 0.01676326 0.038000807
-0.010772505 0.18259522 0.11071156 0.007418836 0.023367051 -0.074110195 0.08703242 0.00010452444
-0.073620915 -0.0043710275 0.0017718873 0.36559415 0.03610209 -0.016197853 -0.052859347 0.08592952
-0.029297033 -0.014075561 0.042469732 0.024006628 0.018888304 0.031237053 0.010522709 0.06533265
0.06591095 0.052128978 -0.05626351 0.07747137 0.0067609237 0.24754417 0.07341614 -0.037475966
0.30459884 -0.07909568 0.17522411 0.04601654 -0.05499719 -0.0046407115 0.06019029 0.033033095
-0.0601564 0.1529972 -0.0046710526 0.03704176 0.049051993 0.1494369 -0.037813034 0.023270454
0.045326564 0.025045644 0.118661955 0.09451928 0.15150426 -0.0026669537 0.23832706 -0.019325929
0.0771658 0.08114854 0.0013772355 -0.015672969 0.099909805 -0.049495015 0.11901904 0.025099665
-0.07617553 -0.024817271 -0.012722467 0.1535013 -0.10708425 0.035760753 -0.042779144 0.10538448
0.03501299 -0.026284065 -0.027038421 -0.042970344 -0.0030212626 0.072733 -0.031921364 0.17913742
-0.012276256 0.010039598 0.07569592 0.047639284 -0.03888775 0.055913646 0.325999 0.027629573
-0.006138564 0.09340196 0.14097336 0.111271456 0.057898726 0.17134605 -0.015193392 0.10469881
0.22456786 -0.07153961 -0.071406 -0.05933556 0.054263547 0.06786422 -0.051707663 0.019419478
-0.046042114 0.023541402 0.060616374 -0.07538357 0.19419758 0.044623535 -0.075395316 0.0295139
-0.033105813 0.011069729 -0.024610741 0.0496766 0.023947323 0.2518561 0.034257825 0.12210504
-0.05804976 -0.013837749 0.00048044964 0.29583925 -0.06206041 0.11481702 0.06935687 0.009274993
0.05678469 0.08910286 0.094455786 -0.074052766 0.036226045 0.17754294 -0.039517116 0.23705727
-0.07889993 0.03537086 0.25658223 0.21583588 -0.07876026 0.053902958 -0.058536496 -0.06306642
0.079572916 0.042881016 -0.012939836 0.053305022 0.1225277 0.13642582 0.08907445 0.19186026
-0.043510675 0.14370185 0.035658896 0.049517408 0.013138955 -0.07236183 0.1642517 0.10444594
-0.017920407 0.019173298 0.036255278 0.0573759 -0.0012717858 -0.007788435 0.019200891 0.1232538
00000000: 5163 e3bc 97f8 273d f8ba fc3d 827a c83a
00000010: e8fd eabc c921 713e 823d 8b3d 32fd ddbc
00000020: b407 e33b 0d33 d73c 0eb7 2b3d 6529 4fbd
00000030: 6dc9 433c 50c2 123e 94d1 543d 0b8f a13d
00000040: 6f7e b73d faf9 203e ae1b 023e 41b3 d53c
00000050: 3d0c a83e f492 053e a8e3 92bb 70e6 c43d
00000060: c225 c8bb f6c7 223e 70bd 793d 243c c23d
00000070: 4d15 a13b 2934 3fbd c4b9 863d 4fd7 b73d
00000080: a359 90bd 99d7 88bd 7d6d 7cbd 63bc dc3d
00000090: 651c 583e 5f95 9abd e18d 993e 4561 a23c
000000a0: cf1b 323e cc2f 8c3d 9428 84bd c530 743d
000000b0: 7b46 81bd 6cfe 873e e2cc 303e cf1c cd3e
000000c0: 7793 f13d e58d 873d 410c 6a3e e496 89bd
000000d0: 340c 473d 11ac 263d c571 7e3d fb8a c4bc
000000e0: 4077 74bd 29b0 16bc c38d 2a3e 0bc6 3cbd
000000f0: d82a ed3d a6bf 4b3b aefb c03d 8795 393d
00000100: 5597 d73c 7526 a8bd 1593 723e ccb0 d0bb
00000110: 5bf8 913d 6e86 16bd b497 4e3d aa90 02bd
00000120: a164 9bbc 0746 233c 7cdb 643e 06e5 973e
00000130: a1e2 e2bc 51c1 0b3d 6952 b9bd 9fdc fe3d
00000140: b215 983c 1093 c93d 67e6 0d3e d12b 8c3e
00000150: 4deb 42bc 0623 49bc 1b53 893c bca6 1b3d
00000160: 297f 30bc 3efa 3a3e bebc e23d b519 f33b
00000170: 426c bf3c 16c7 97bd 0e3e b23d 2234 db38
00000180: 90c6 96bd d63a 8fbb ac3e e83a 282f bb3e
00000190: c9df 133d 5cb1 84bc 0b83 58bd d1fb af3d
000001a0: 5500 f0bc 2f9d 66bc bef4 2d3d 8ca9 c43c
000001b0: a5bb 9a3c d9e4 ff3c 7167 2c3c 20cd 853d
000001c0: 52fc 863d 3285 553d 9174 66bd 4fa9 9e3d
000001d0: bd8a dd3b 387c 7d3e 345b 963d 6680 19bd
000001e0: 61f4 9b3e eafc a1bd f36d 333e d77b 3c3d
000001f0: bc44 61bd 1c11 98bb 188a 763d b64d 073d
00000200: 8f66 76bd 4cab 1c3e a10f 99bb 1ab9 173d
00000210: beea 483d fd05 193e d7e1 1abd aea1 be3c
00000220: 59a8 393d 862c cd3c 0a05 f33d 5393 c13d
00000230: ef23 1b3e 0fc8 2ebb 020c 743e 6951 9ebc
00000240: 1a09 9e3d 3531 a63d 5b84 b43a 9964 80bc
00000250: 839d cc3d 49bb 4abd 41c0 f33d d09d cd3c
00000260: eb01 9cbd 974d cbbc e571 50bc 722f 1d3e
00000270: fd4e dbbd de79 123d 2f39 2fbd d1d3 d73d
00000280: c869 0f3d ae51 d7bc ae7f ddbc ac01 30bd
00000290: 6000 46bb 0af5 943d fabf 02bd cd6f 373e
000002a0: 5a22 49bc 207d 243c 7606 9b3d 6921 433d
000002b0: c348 1fbd b505 653d 57e9 a63e 6a57 e23c
000002c0: 0226 c9bb 8749 bf3d 525b 103e 4ae2 e33d
000002d0: 3727 6d3d 5775 2f3e b4ed 78bc 546c d63d
000002e0: 1ef5 653e 5c83 92bd 4f3d 92bd d809 73bd
000002f0: 7443 5e3d 65fc 8a3d 6acb 53bd 9915 9f3c
00000300: a896 3cbd e6d9 c03c e048 783d b362 9abd
00000310: bbdb 463e 2bc7 363d dc68 9abd 22c7 f13c
00000320: f699 07bd cf5d 353c 779c c9bc b179 4b3d
00000330: 2d2d c43c 48f3 803e ef51 0c3d 3512 fa3d
00000340: 96c5 6dbd bab7 62bc dce4 fb39 3e78 973e
00000350: 0e33 7ebd 3025 eb3d fa0a 8e3d 24f6 173c
00000360: 1097 683d 8f7b b63d 0972 c13d faa8 97bd
00000370: c361 143d d1cd 353e b3dc 21bd 24bf 723e
00000380: 4996 a1bd 09e1 103d bf5e 833e 1504 5d3e
00000390: 0f4d a1bd 59c9 5c3d f7c3 6fbd f828 81bd
000003a0: 20f7 a23d 01a4 2f3d 9b01 54bc 5e56 5a3d
000003b0: ceef fa3d 36b3 0b3e aa6c b63d 0477 443e
000003c0: 4038 32bd 9426 133e 100f 123d c4d2 4a3d
000003d0: c644 573c 7032 94bd 9931 283e c1e7 d53d
000003e0: d1cd 92bc 5211 9d3c 6a80 143d fe02 6b3d
000003f0: 0db2 a6ba 2136 ffbb 304b 9d3c 7d6c fc3d

4.weight f4 [100, 500]
0.036682315 -0.036001552 -0.028640013 0.017421532 0.020869555 0.012904111 -0.044543058 -0.0063299807
0.00018008852 0.025556924 -0.016491763 0.03127691 -0.02094593 -0.031785145 0.031348173 -0.0035706803
-0.013088542 -0.045879733 0.04295763 -0.018593088 0.0056690024 0.020139208 0.040771607 0.0023784053
-0.01849028 0.014305316 -0.04691255 0.033349153 -0.0018603993 -0.02732692 0.0027550638 -0.012902925
0.020892456 -0.021288753 0.04184136 0.029496798 -0.011437559 -0.032433573 -0.023497336 0.02982058
-0.043730274 -0.028213583 -0.018818501 -0.013206819 0.016896503 0.025907533 -0.011202608 -0.03786451
-0.022816567 0.016560748 -0.04378945 0.009684362 0.009131853 0.00041821483 -0.04302154 -0.010965887
0.02671632 0.010841473 -0.008552993 0.033868447 -0.015970286 0.024414621 0.0042299386 0.028012676
0.010285919 -0.01886263 -0.0070544346 -0.017874783 0.0051521645 -0.006419508 0.020905202 -0.0373441
-0.009481377 0.019355712 -0.0013601969 -0.049137913 -0.0030295593 0.016426014 -0.016323742 -0.047929794
-0.025629612 0.026928283 -0.00505625 -0.043641437 -0.0373906 -0.028058007 0.029088458 -0.03381745
-0.01707472 -0.055319656 0.03662904 0.024056364 -0.053777862 -0.042682167 0.02743355 -0.04367007
0.02450836 -0.0007029854 -0.033805277 -0.052545764 -0.0070207873 -0.013841959 0.01727947 -0.044544335
-0.0024519784 0.021208534 0.026719103 -0.0016985208 -0.024606042 -0.0004681117 0.0030978266 -0.02452276
0.016511865 -0.013826186 0.02199329 -0.046897393 0.026608177 -0.054786336 0.022611305 0.025145331
0.017063469 -0.0021328325 -0.0099774785 -0.009649756 0.033560928 0.00796503 -0.005329897 -0.038660847
-0.027323544 0.0046906983 -0.016460273 0.0035290061 0.0028709162 0.023808233 0.035665628 0.013099705
-0.011991159 -0.003122112 -0.012023313 -0.05213107 -0.043287255 -0.035185087 -0.04441658 -0.019251263
-0.01932177 -0.040107474 -0.0280594 -5.002715e-05 0.031390637 -0.020636987 0.03417772 0.014413836
0.030734245 -0.03609606 0.03730382 -0.022193845 -0.022557521 0.0019745599 0.032094773 0.044042822
0.031770214 -0.0012239096 -0.004353422 0.012333985 -0.027405327 0.0303212 -0.03572725 -0.0066813845
-0.0032844748 -0.049786907 -0.026624635 0.0068467665 0.0028198212 0.019195722 -0.052621793 -0.025294071
-0.017537601 -0.034624826 -0.00088224834 0.017195862 -0.031591117 -0.02411383 -0.025775094 0.0005192559
0.01782559 -0.04670028 0.02398765 0.011362833 -0.012265311 -0.040810075 0.012358818 -0.046106167
0.0142586455 -0.043055266 -0.0108799515 -0.0032015466 -0.028607974 0.04122433 0.006207049 -0.0034188265
-0.01098718 -0.0032212401 0.0098983515 -0.009801422 -0.056897566 0.029655822 0.04045802 0.017817482
0.0063297786 0.003925189 0.035629615 0.029669058 0.006105303 0.009672708 -0.01671246 0.014133623
-0.005918472 0.038059972 0.0016691973 0.0108286515 0.019126885 -0.0065224534 0.023461265 0.016567323
0.0073103732 -0.039388116 -0.009778059 0.008163957 0.02945821 -0.014774411 0.012766981 -0.020882702
-0.007391585 -0.0008377897 -0.02824662 0.005574928 -0.018049357 -0.048650395 -0.010228048 -0.02279556
0.005183037 -0.0317137 -0.030163936 0.032846503 0.022763247 0.022127612 0.0034717247 -0.023095177
-0.0067537734 0.0022768695 -0.03138351 -0.0107724955 -0.013179915 0.0014102255 0.022753736 0.0360869
00000000: 3240 163d 5d76 13bd 769e eabc 9ab7 8e3c
00000010: a1f6 aa3c c46b 533c c872 36bd ba6b cfbb
00000020: 25d6 3c39 c15c d13c bc19 87bc 381c 003d
00000030: cd96 abbc 2431 02bd f166 003d 1302 6abb
00000040: 5371 56bc 63ec 3bbd 57f4 2f3d 8850 98bc
00000050: 0ac3 b93b fbfa a43c 2100 273d 05df 1b3b
00000060: ed78 97bc d860 6a3c 6027 40bd 1f99 083d
00000070: a4d8 f3ba b4dc dfbc 4d8e 343b ca66 53bc
00000080: a826 ab3c c065 aebc d961 2b3d 45a3 f13c
00000090: 9964 3bbc 11d9 04bd 7c7d c0bc 4a4a f43c
000000a0: 841e 33bd 2c20 e7bc 4229 9abc 6a61 58bc
000000b0: 896a 8a3c 093c d43c 258b 37bc d117 1bbd
000000c0: cfe9 babc 68aa 873c 915c 33bd 29ab 1e3c
000000d0: c49d 153c d843 db39 5b37 30bd 44aa 33bc
000000e0: 2fdc da3c 6fa0 313c da21 0cbc a4b9 0a3d
000000f0: 1ed4 82bc 2c01 c83c 4c9b 8a3b d77a e53c
00000100: 4586 283c cd85 9abc e328 e7bb 236e 92bc
00000110: 7dd3 a83b bc5a d2bb 6341 ab3c 21f6 18bd
00000120: c757 1bbc df8f 9e3c a248 b2ba d644 49bd
00000130: 928b 46bb d98f 863c 5eb9 85bc 0852 44bd
00000140: 31f5 d1bc b498 dc3c e6ae a5bb 5dc1 32bd
00000150: e326 19bd e8d9 e5bc eb4a ee3c 2b84 0abd
00000160: 48e0 8bbc dd96 62bd 5508 163d da11 c53c
00000170: 2d46 5cbd 7fd3 2ebd 53bc e03c 63df 32bd
00000180: c2c5 c83c 8d48 38ba 6777 0abd 3a3a 57bd
00000190: a20e e6bb 62c9 62bc ad8d 8d3c 1f74 36bd
000001a0: 5fb1 20bb 85bd ad3c 05e2 da3c e7a0 deba
000001b0: 9c92 c9bc e46c f5b9 e804 4b3b f5e3 c8bc
000001c0: e443 873c 3a87 62bc 462b b43c 7b17 40bd
000001d0: 64f9 d93c a367 60bd 583b b93c 95fd cd3c
000001e0: b0c8 8b3c fec6 0bbb 9478 23bc 031a 1ebc
000001f0: 2f77 093d c27f 023c 6ba6 aebb d65a 1ebd
00000200: a0d5 dfbc 6eb4 993b b2d7 86bc e646 673b
00000210: fb25 3c3b 7c09 c33c 1f16 123d 25a0 563c
00000220: 9176 44bc 599c 4cbb 6efd 44bc 6487 55bd
00000230: fa4d 31bd 3d1e 10bd 29ee 35bd d3b4 9dbc
00000240: b048 9ebc bc47 24bd d4dc e5bc 3ed4 51b8
00000250: 7893 003d e60e a9bc f0fd 0b3d 0328 6c3c
00000260: 62c6 fb3c 76d9 13bd e4cb 183d decf b5bc
00000270: 8dca b8bc 9e67 013b cf75 033d 3f66 343d
00000280: 7c21 023d 976b a0ba 27a7 8ebb 7c14 4a3c
00000290: 2381 e0bc 2a64 f83c bd56 12bd 84ef dabb
000002a0: 5840 57bb 5bed 4bbd e81b dabc d75a e03b
000002b0: c0cc 383b 5940 9d3c f389 57bd 8335 cfbc
000002c0: 04ab 8fbc c3d2 0dbd af46 67ba 56de 8c3c
000002d0: b065 01bd 5e8a c5bc 4a26 d3bc ac1e 083a
000002e0: f906 923c cb48 3fbd c081 c43c 2d2b 3a3c
000002f0: 71f4 48bc 7728 27bd a47c 4a3c d2d9 3cbd
00000300: 189d 693c b85a 30bd d341 32bc 0ad1 51bb
00000310: 455b eabc d8da 283d 8064 cb3b 640e 60bb
00000320: 9303 34bc 711b 53bb b22c 223c 2596 20bc
00000330: 6c0d 69bd c4f0 f23c 4fb7 253d f8f5 913c
00000340: 086a cf3b df9e 803b 5cf0 113d 860c f33c
00000350: fe0e c83b 477a 1e3c 92e8 88bc b690 673c
00000360: beef c1bb c6e4 1b3d f8c8 da3a a86a 313c
00000370: fcaf 9c3c 4eba d5bb d731 c03c 32b8 873c
00000380: db8b ef3b 6f55 21bd 2734 20bc 1ec2 053c
00000390: 5852 f13c 5f10 72bc 992c 513c 3312 abbc
000003a0: 1c35 f2bb 1d9f 5bba 7565 e7bc e3ad b63b
000003b0: 3fdc 93bc a345 47bd 8b93 27bc c1bd babc
000003c0: 77d6 a93b 3ae6 01bd 5c1a f7bc 0e8a 063d
000003d0: fd79 ba3c f744 b53c e085 633b 1932 bdbc
000003e0: c24e ddbb 8837 153b ff8b 00bd 1f7f 30bc
000003f0: 92f0 57bc 51d7 b83a 0b66 ba3c dbcf 133d

4.bias f4 [100]
0.02619371 -0.049572248 -0.0159366 -0.0058846553 -0.0062299776 0.3008985 -0.036685664 -0.051119152
0.039444037 -0.00451531 0.03205071 -0.012474316 -0.041382678 -0.05075741 0.03706259 -0.029849343
0.019484619 -0.011035205 -0.00017762427 0.0602102 -0.015858047 -0.07619092 -0.04865358 -0.044233907
0.06475728 0.33920026 0.020377338 0.041651282 0.32260486 -0.00020853619 -0.037412245 0.22854784
-0.051081717 0.42819113 -0.025907252 0.01039037 -0.058818277 -0.027554452 0.057767473 -0.06858808
0.009737676 0.062225144 0.017683158 -0.04271847 0.013042512 -0.032246385 -0.03696028 -0.031252537
-0.0010783792 0.020473037 -0.036817893 0.08971717 -0.04646084 0.115898505 -0.033203315 -0.015156697
0.07508108 0.043753847 -0.041210942 0.049838986 0.36028898 0.021515006 -0.025724594 0.028446047
0.053262696 -0.06432129 -0.021455975 0.023461724 -0.033602867 -0.064800404 0.37822458 -0.05671863
-0.010876016 0.022200497 0.094960645 0.0045553786 -0.017174589 -0.039687365 -0.0042576944 -0.020997874
0.007870417 -0.026608407 -0.021220097 0.43885195 -0.045755118 -0.035245318 0.056258865 0.09599322
-0.07379196 0.29659307 -0.023768533 -0.04001193 0.051193908 0.019103704 0.3882161 0.07226459
0.07130701 0.020870402 0.39315745 -0.05438809
00000000: 3194 d63c 450c 4bbd 798d 82bc 11d4 c0bb
00000010: d724 ccbb 5e0f 9a3e b543 16bd 5162 51bd
00000020: 1290 213d 2af5 93bb 9b47 033d 1361 4cbc
00000030: e280 29bd 00e7 4fbd f1ce 173d 9c86 f4bc
00000040: 359e 9f3c 01cd 34bc a740 3ab9 f89e 763d
00000050: bce8 81bc fc09 9cbd fa48 47bd 9d2e 35bd
00000060: 779f 843d a8ab ad3e 60ee a63c 899a 2a3d
00000070: 772c a53e 82aa 5ab9 953d 19bd 7208 6a3e
00000080: 103b 51bd de3b db3e 723b d4bc 5f3c 2a3c
00000090: 6feb 70bd e0b9 e1bc 969d 6c3d e877 8cbd
000000a0: c68a 1f3c cbdf 7e3d 45dc 903c 90f9 2ebd
000000b0: 43b0 553c c914 04bd aa63 17bd a902 00bd
000000c0: 6758 8dba 12b7 a73c 5cce 16bd a3bd b73d
000000d0: b94d 3ebd 325c ed3d 3300 08bd cb53 78bc
000000e0: 1cc4 993d 3c37 333d cecc 28bd f723 4c3d
000000f0: cc77 b83e 3d40 b03c 62bc d2bc af07 e93c
00000100: fc29 5a3d e1ba 83bd 71c4 afbc cd32 c03c
00000110: 29a3 09bd 13b6 84bd a7a6 c13e cb51 68bd
00000120: 5131 32bc d1dd b53c ba7a c23d 4945 953b
00000130: b9b1 8cbc 388f 22bd 2184 8bbb bc03 acbc
00000140: ecf2 003c e0f9 d9bc c5d5 adbc 34b1 e03e
00000150: b869 3bbd 655d 10bd b26f 663d 1898 c43d
00000160: 3d20 97bd 0cdb 973e 3ab6 c2bc 8de3 23bd
00000170: b4b0 513d 5f7f 9c3c 43c4 c63e 75ff 933d
00000180: 6909 923d 68f8 aa3c ef4b c93e 0cc6 5ebd

6.weight f4 [3, 100]
-0.03080844 0.06202361 0.021448785 -0.092350475 0.015087945 0.2314609 0.024138948 1.2046854
0.04036104 -0.056336425 -0.04582123 -0.08721355 0.05717955 1.2253366 0.002272268 1.1913536
0.40198815 0.06575997 0.7538787 0.10095955 -0.059868485 0.5614924 0.6520534 -0.058848966
-0.2862722 0.37941298 0.0076440666 0.4171365 0.09285125 0.06870054 0.008159697 0.0064829206
0.8038792 0.8270603 -0.008412447 0.25318757 0.66614044 -0.08242713 -1.921393 0.70682484
0.45263445 0.70044786 0.31989276 -0.06854552 -0.15100737 -0.082715295 -0.07608545 0.7161811
-0.50283843 1.0297917 -0.124589615 -0.71105283 -0.015512942 -1.4248081 0.8007647 0.05801245
0.2971049 -1.4872615 0.6317822 0.21825093 0.889001 0.7150986 -0.042911336 -0.046935976
-0.6791109 0.58903736 0.512079 0.089401945 0.6471473 0.73287535 0.30043563 0.028379237
0.004815227 0.73523635 -0.9853924 0.03693075 -0.012860011 0.42588678 0.64184725 0.09436845
-0.28083864 0.57899976 -0.095630385 0.4563363 0.0580126 0.058615167 -0.69952977 -0.94571507
0.67149377 0.23659836 -0.06268463 0.70025474 -1.3313105 0.07447911 0.48177427 -1.9324454
0.24211869 -0.08158911 0.88948846 0.06523822 -0.009653127 -0.0024711501 -0.0053241737 0.035701346
-0.02254032 0.47031376 -0.0054746997 -1.7175032 -0.04725513 -0.046215087 -1.5709553 -0.06805005
-0.051849883 -1.169133 -0.0710975 -1.2409338 -2.0695581 -0.03570264 0.54289645 -1.8266282
0.024701344 0.5083993 0.5068039 0.05704662 1.0600892 0.5203204 -0.07025302 0.4582479
0.5478887 -0.056377567 -0.06458167 0.40721422 0.6755683 0.18902121 0.08368441 -1.7768698
0.5425776 -0.085522294 0.118791305 0.5345728 0.26805606 -0.5246464 0.42959166 0.08494636
-0.18903638 -0.059432603 0.08411286 0.47716013 -1.1251961 0.52979654 -0.17739283 0.9460256
-0.011515157 -0.24794002 0.65117645 -0.06831594 0.510272 -0.3287946 0.54493743 0.564839
0.18855728 -0.4560889 0.015704755 -0.026821269 1.0295635 0.54077816 0.33177522 -0.07372403
0.5252684 0.50833666 0.46467745 -0.030372445 -0.054045893 -0.4853174 -0.54762 -0.008272374
-0.089376494 0.41232187 0.44658595 -0.07786336 -1.1617568 0.510111 0.016808923 0.43962663
0.034500774 -0.04303732 1.1288832 -0.6347277 0.5440258 0.47172946 0.07463867 0.5909222
-0.43149802 -0.05091336 0.47691217 0.28917238 0.5100426 -0.067136556 0.17718522 0.031195905
-0.08288457 -0.09163044 -0.0130828265 -0.041056037 0.07103091 -0.14294305 0.0538443 -0.046138637
-0.09948827 0.089253426 -0.042531077 -0.030470682 -0.0373889 0.03133862 -0.057184722 0.066865236
-0.06885786 -0.07308592 0.0060491688 -0.12563638 0.023958877 0.17099686 0.05499058 -0.028811395
-0.100878075 -0.07960921 -0.006435239 0.11083523 -0.058861814 0.056193125 0.024225736 -0.14639695
0.08522569 0.16523415 -0.024016619 0.0053345514 0.15488581 -0.033606388 -0.09118344 0.094714515
0.18026792 -0.06074431 0.26359916 0.043482568 0.022601822 -0.07259592 0.05226432 0.08058683
-0.03771611 -0.023505742 -0.07335988 0.034936965 -0.041988794 0.07989623 0.09332901 -0.0016945004
00000000: fb61 fcbc 780c 7e3d 5db5 af3c 3f22 bdbd
00000010: 6e33 773c 1604 6d3e 0bbf c53c 2233 9a3f
00000020: 9e51 253d 06c1 66bd 0baf 3bbd 059d b2bd
00000030: 1b35 6a3d d4d7 9c3f 55ea 143b 467e 983f
00000040: 64d1 cd3e 2aad 863d 32fe 403f e1c3 ce3d
00000050: a838 75bd f7bd 0f3f f9ec 263f 9d0b 71bd
00000060: 4592 92be 6b42 c23e 147b fa3b ea92 d53e
00000070: cc28 be3d deb2 8c3d 40b0 053c ae6e d43b
00000080: 07cb 4d3f 39ba 533f 5cd4 09bc cda1 813e
00000090: 2e88 2a3f 8ecf a8bd 35f0 f5bf 79f2 343f
000000a0: b4bf e73e 8d50 333f fcc8 a33e 9861 8cbd
000000b0: ada1 1abe a366 a9bd b0d2 9bbd a557 373f
000000c0: 05ba 00bf 37d0 833f d728 ffbd 8f07 36bf
000000d0: ff29 7ebc 1d60 b6bf eafe 4c3f 769e 6d3d
000000e0: 221e 983e 965e bebf 7abc 213f 2c7d 5f3e
000000f0: 9295 633f b410 373f ccc3 2fbd f03f 40bd
00000100: 36da 2dbf 27cb 163f 9c17 033f 5e18 b73d
00000110: 72ab 253f b89d 3b3f b3d2 993e 937b e83c
00000120: 0dc9 9d3b 7338 3c3f ad42 7cbf b344 173d
00000130: ccb2 52bc d50d da3e 1a50 243f 3f44 c13d
00000140: 15ca 8fbe 5439 143f ddd9 c3bd e9a4 e93e
00000150: 9f9e 6d3d 7516 703d 6214 33bf 621a 72bf
00000160: 04e7 2b3f d746 723e cd60 80bd e543 333f
00000170: 6268 aabf 8188 983d 1eab f63e 5f5a f7bf
00000180: f6ed 773e 3118 a7bd 84b5 633f 9e9b 853d
00000190: 2628 1ebc 05f3 21bb 6876 aebb 933b 123d
000001a0: 7aa6 b8bc f7cc f03e 1c65 b3bb 25d7 dbbf
000001b0: 988e 41bd 084c 3dbd 1015 c9bf d35d 8bbd
000001c0: 8b60 54bd 26a6 95bf 919b 91bd ebd6 9ebf
000001d0: a473 04c0 ee3c 12bd 43fb 0a3f f4ce e9bf
000001e0: 795a ca3c 7526 023f e6bd 013f b7a9 693d
000001f0: 01b1 873f b833 053f d1e0 8fbd 789f ea3e
00000200: 6f42 0c3f 2aec 66bd 6543 84bd 627e d03e
00000210: 0bf2 2c3f c78e 413e bb62 ab3d 7870 e3bf
00000220: 5ee6 0a3f 5026 afbd db48 f33d c3d9 083f
00000230: a53e 893e 3a4f 06bf 70f3 db3e 5bf8 ad3d
00000240: c192 41be 9a6f 73bd 5d43 ac3d 554e f43e
00000250: 6d06 90bf bfa0 073f 77a6 35be bc2e 723f
00000260: 12aa 3cbc fde3 7dbe 80b3 263f 3ae9 8bbd
00000270: 30a1 023f c457 a8be 0581 0b3f 4a99 103f
00000280: 2915 413e 7c84 e9be 42a7 803c 47b8 dbbc
00000290: bdc8 833f 7070 0a3f 71de a93e a0fc 96bd
000002a0: fd77 063f 5a22 023f 34ea ed3e a2cf f8bc
000002b0: 3a5f 5dbd 867b f8be d330 0cbf da88 07bc
000002c0: 060b b7bd da1b d33e eaa6 e43e d376 9fbd
000002d0: 72b4 94bf a296 023f deb2 893c be16 e13e
000002e0: af50 0d3d e747 30bd 3f7f 903f 847d 22bf
000002f0: 4645 0b3f 8686 f13e 29dc 983d ad46 173f
00000300: 4fed dcbe 878a 50bd d52d f43e 670e 943e
00000310: 2792 023f e47e 89bd 0b70 353e 8e8e ff3c
00000320: 63bf a9bd bda8 bbbd 5a59 56bc 602a 28bd
00000330: a778 913d aa5f 12be d78b 5c3d defb 3cbd
00000340: 82c0 cbbd 80ca b63d 1135 2ebd a79d f9bc
00000350: 1a25 19bd ed5c 003d 873a 6abd a4f0 883d
00000360: 5a05 8dbd 12ae 95bd 1b38 c63b d3a6 00be
00000370: 6845 c43c cd19 2f3e cd3d 613d e005 ecbc
00000380: 2a99 cebd 270a a3bd b3de d2bb 95fd e23d
00000390: 1619 71bd c32a 663d 0d75 c63c 15e9 15be
000003a0: ce8a ae3d 2433 293e 80be c4bc 76cd ae3b
000003b0: 639a 1e3e daa6 09bd 62be babd aff9 c13d
000003c0: 2798 383e 07cf 78bd 78f6 863e c71a 323d
000003d0: 7527 b93c 2bad 94bd 1d13 563d b50a a53d
000003e0: 357c 1abd 1d8f c0bc b43d 96bd 101a 0f3d
000003f0: 71fc 2bbd a2a0 a33d 4823 bf3d 001a deba
